best_model.pt (torch, 56034 bytes, 11 tensors)

conv1.weight f4 [16, 1, 3]
0	0xbf05bca6	-0.5224098
1	0xbd3fda81	-0.04683924
2	0xbe0900b1	-0.1337917
3	0xbe3f1113	-0.18658857
4	0x3e8d6fba	0.27624303
5	0x3efe881e	0.49713224
6	0x3eaa953d	0.33316985
7	0xbda8c07e	-0.0823984
8	0xbc5ef210	-0.013607517
9	0x3e6a9839	0.22909631
10	0x3f0f3000	0.5593262
11	0x3ecc46db	0.39897808
12	0x3ec229c5	0.37922493
13	0x3f15849a	0.5840546
14	0x3e9a7196	0.30164784
15	0xbe3f210e	-0.18664953
16	0xbc3798e1	-0.011205883
17	0xbe9b3e33	-0.30320892
18	0xbebda1dc	-0.3703755
19	0x3ceed06d	0.02915212
20	0x3d93e216	0.07220857
21	0x3e775298	0.24152601
22	0x3eda7307	0.42665884
23	0x3e335192	0.17511585
24	0x3ec5b3e7	0.38613817
25	0xbe93f752	-0.28899628
26	0x3ea874e7	0.3290169
27	0xbea1441e	-0.31497282
28	0x3e610f73	0.2197855
29	0xbe90b57c	-0.28263462
30	0xbd2a0f3d	-0.04151844
31	0xbdc43383	-0.095801376
32	0x3e7ba6ac	0.24575299
33	0xbe471ca0	-0.19444513
34	0xbe6c8b5c	-0.23100036
35	0xbece2756	-0.40264386
36	0xbef5d672	-0.4801517
37	0x3cf50ea1	0.029914202
38	0x3f0635ae	0.5242566
39	0xbe55050c	-0.20802706
40	0xbe192cf3	-0.14958553
41	0x3d01cbdc	0.031688556
42	0x3df2d172	0.11856355
43	0xbe56fa4b	-0.20993917
44	0xbead370f	-0.3383107
45	0xbe8897f5	-0.26678434
46	0xbf0cbc0d	-0.5497444
47	0xbcc0c0f0	-0.0235295

conv1.bias f4 [16]
0	0xbdd19c03	-0.10234835
1	0x3dea9895	0.11454884
2	0xbf0a8d19	-0.5412155
3	0xbd4fd8d0	-0.050743878
4	0xbe97d6f1	-0.29656175
5	0x3df57131	0.1198448
6	0x3ea0b0fe	0.31385034
7	0x3ec1ade6	0.37827986
8	0xbee4a843	-0.44659624
9	0xbe5bba3b	-0.2145776
10	0xbe76529c	-0.2405495
11	0x3f133aeb	0.57511777
12	0x3e7e194f	0.24814342
13	0x3ee4873f	0.44634435
14	0xbdc5e4f7	-0.09662812
15	0xbf078fc3	-0.5295374

lstm.weight_ih_l0 f4 [128, 16]
0	0xbdfa3472	-0.122170344
1	0x3d65bc8f	0.056088027
2	0xbc95fd01	-0.018309118
3	0xbdc9ef5d	-0.09860108
4	0xbdbe95a3	-0.09305885
5	0x3dc2e222	0.09515788
6	0x3d918cd1	0.07106937
7	0x3ddcc096	0.1077892
8	0x3e048bde	0.1294398
9	0xbd248afd	-0.040171612
10	0xbd9e2f96	-0.0772392
11	0x3de487dd	0.11158726
12	0x3d9dd597	0.07706755
13	0xbe21fdb7	-0.15819441
14	0xbcb75b58	-0.022382423
15	0x3d37bd2d	0.044858146
16	0xbdc6f858	-0.097153366
17	0x3e3cd55f	0.1844077
18	0xbe005d5b	-0.12535612
19	0xbde2a514	-0.110666424
20	0x3da75d4d	0.081720926
21	0x3cf1b625	0.029505799
22	0xbcd6388a	-0.026150007
23	0x3db2288e	0.086991414
24	0xbce9e7ee	-0.028552976
25	0x3d982d79	0.07430548
26	0x3dc97b60	0.09837985
27	0x3e16e4fb	0.14735787
28	0x3bd26102	0.0064202556
29	0x3d0b9cb5	0.034084994
30	0xbd3cf189	-0.046128783
31	0x3d93b5d3	0.072124146
32	0x3c80aa5d	0.015706236
33	0xbc87dbe1	-0.016584339
34	0x3bca5748	0.0061749555
35	0xbdd7c3bf	-0.105353825
36	0x3de1b33b	0.110205136
37	0xbd0039fe	-0.031305306
38	0xbe04f3f6	-0.12983689
39	0x3ceeac0d	0.029134775
40	0xbdf0535d	-0.1173465
41	0x3cbd4e27	0.023108555
42	0xbd9f84fd	-0.077890374
43	0x3e20f910	0.1572001
44	0xbe3ca716	-0.18423113
45	0xbdd8e0be	-0.10589741
46	0xbcad775c	-0.021175079
47	0x3dd1f585	0.10251907
48	0xbe3f0a9f	-0.18656395
49	0xbe175489	-0.14778341
50	0xbda6590d	-0.08122454
51	0x3d3e0173	0.0463881
52	0x3dc9156e	0.098185405
53	0x3dc8280e	0.09773265
54	0x3d863350	0.06552756
55	0xbdd61c7c	-0.10454652
56	0x3db12c9b	0.08651086
57	0x3dc19e45	0.09454016
58	0xbd0137d2	-0.031547375
59	0x3dfa9234	0.12234917
60	0x3d991ef2	0.074766055
61	0x3d8edf2a	0.06976159
62	0xbe0cdc11	-0.13755824
63	0x3cce13d3	0.025155937
64	0xbdf4689e	-0.11934017
65	0x3e273ac1	0.16331007
66	0x3c56e56c	0.013116222
67	0x3dc4c9e0	0.09608817
68	0x3cfc5d3f	0.030806182
69	0x3d9ced94	0.07662502
70	0x3e29b700	0.16573715
71	0xbdcd8831	-0.10035742
72	0x3cb4e96b	0.022083959
73	0xbccc48f0	-0.024937123
74	0x3d43b3ce	0.047778897
75	0xbd3b8ca5	-0.045788426
76	0x3e16fbe7	0.1474453
77	0x3d92fc3f	0.071770184
78	0xbc489622	-0.012242826
79	0x3d820c32	0.06349982
80	0xbd018493	-0.031620573
81	0x3e1081aa	0.14111963
82	0xbccfc8ad	-0.025364244
83	0xbce20412	-0.027589832
84	0xbd7e87b6	-0.062141143
85	0x3dec093e	0.115252
86	0x3e097798	0.13424528
87	0x3d18c8ce	0.037300877
88	0x3d620e60	0.05518949
89	0x3d62f9d5	0.05541404
90	0x3d405f0c	0.046965644
91	0x3e00c6cb	0.12575833
92	0xbd6c42c0	-0.057680845
93	0x3e1108fc	0.14163584
94	0xbdc91ec3	-0.098203205
95	0xbd490376	-0.049075566
96	0xbde674c8	-0.11252743
97	0x3e010030	0.12597728
98	0x3e1365f6	0.14394364
99	0xbe3811e9	-0.17975582
100	0xbb2af70f	-0.00260872
101	0xbe0c6611	-0.1371081
102	0xbdf152cb	-0.1178337
103	0x3d101c04	0.035182968
104	0xbdf49846	-0.11943106
105	0xbe3d6765	-0.18496473
106	0xbd5af1e4	-0.05345334
107	0xbd92df1b	-0.0717146
108	0x3ced9242	0.029000405
109	0x3d3185a9	0.04334036
110	0xbd8090a2	-0.062775865
111	0x3ca9fb1c	0.020749621
112	0x3ae47d4e	0.0017432363
113	0x3b0e01b3	0.0021668493
114	0x3db59107	0.088655524
115	0x3d544aed	0.051829267
116	0x3e0eaadf	0.1393237
117	0x3e252145	0.16125973
118	0xbcf0930a	-0.029366989
119	0xbd9c27d5	-0.07624785
120	0xbe12bf54	-0.14330798
121	0x3dde2f91	0.10848916
122	0xbd3d6bfe	-0.046245568
123	0x3e217bad	0.15769835
124	0x3e01f174	0.12689763
125	0xbad58799	-0.0016291022
126	0xbe1f5a87	-0.15561877
127	0xbdf55d29	-0.119806595
128	0xbe169649	-0.14705767
129	0x3d9f015c	0.07763931
130	0xbe28869b	-0.16457598
131	0x3dc9dd84	0.09856704
132	0xbd17a0f8	-0.037018746
133	0xbdd035cc	-0.10166511
134	0xbcc9e766	-0.024646472
135	0x3d299863	0.041405093
136	0xbe3e9112	-0.18610027
137	0x3c3b3f38	0.011428647
138	0xbe0251b2	-0.12726477
139	0x3b8ca3c4	0.0042919833
140	0x3e1563c2	0.14588836
141	0xbd8031b6	-0.062594816
142	0xbd95828d	-0.07300291
143	0xbe0c03b3	-0.13673286
144	0xbd9128a5	-0.070878305
145	0xbe12b1f3	-0.14325695
146	0xbd774408	-0.060367614
147	0xbe04ff26	-0.12987956
148	0x3e0215bc	0.12703604
149	0x3d8fa5f1	0.07014073
150	0x3b975562	0.0046183327
151	0xbcc9f975	-0.024655083
152	0xbd663599	-0.05620346
153	0xbe130ac9	-0.14359583
154	0xbe12358f	-0.14278243
155	0x3e03008a	0.12793174
156	0x3e20d73c	0.15707105
157	0xbd41ec63	-0.047344577
158	0x3d49ec86	0.049297832
159	0xbd3102da	-0.04321561
160	0x3e32ab91	0.1744826
161	0x3e209e22	0.15685323
162	0x3d885a73	0.06657877
163	0x3e0ac2a5	0.13550813
164	0x3d734139	0.059388373
165	0x3e3c7391	0.1840346
166	0x3e06051f	0.13087891
167	0xbdd6598e	-0.104663
168	0x3d2eabb2	0.04264421
169	0x3e20bfa4	0.15698105
170	0x3e2e522a	0.1702353
171	0x3da3456e	0.07972227
172	0x3dbca754	0.09211603
173	0x3e140348	0.14454377
174	0xbdb51926	-0.08842687
175	0x3e0d7abd	0.13816352
176	0x3dcdb44d	0.10044155
177	0x3d54c27f	0.0519433
178	0x3dffe2e5	0.124944486
179	0xbe152063	-0.14563136
180	0xbe12b946	-0.14328489
181	0xbe14e183	-0.14539151
182	0x3e0ce12e	0.13757774
183	0xbd5ad9be	-0.05343031
184	0x3de9c463	0.11414411
185	0x3d705676	0.058676206
186	0xbdfe9955	-0.124315895
187	0xbd62fea0	-0.05541861
188	0x3d86c897	0.06581228
189	0xbe162de7	-0.14665948
190	0x3dfecc37	0.12441295
191	0xbdb00d63	-0.08596303
192	0xbe417272	-0.18891314
193	0x3e056e52	0.13030365
194	0x3e065182	0.1311703
195	0x3c9ca2d3	0.01912061
196	0x3ddb266b	0.10700687
197	0xbe3b30de	-0.1828036
198	0xbe0d1110	-0.1377604
199	0x3e3e1076	0.18560967
200	0x3e023f81	0.12719537
201	0x3d964e2d	0.073391296
202	0xbe3cf185	-0.18451507
203	0xbd3459e4	-0.04403104
204	0xbe073956	-0.13205466
205	0xbd20dd45	-0.03927352
206	0x3dad14fc	0.08451268
207	0x3d65a58b	0.056066077
208	0xbdf4ea83	-0.11958792
209	0xbe2a5467	-0.1663376
210	0xba61911d	-0.00086046924
211	0xbe27d925	-0.16391428
212	0x3db83ad3	0.08995595
213	0x3e206740	0.15664387
214	0xbd646b0e	-0.055766158
215	0xbdda3dfd	-0.106563546
216	0x3debd8c7	0.11515956
217	0xbd1c0778	-0.03809306
218	0xbda45f14	-0.08025947
219	0x3caa4347	0.020784033
220	0x3e176d61	0.14787818
221	0x3dcfa3ba	0.1013865
222	0xbddf9e52	-0.10918869
223	0x3db83212	0.08993925
224	0xbdcff231	-0.10153616
225	0xbdbf4592	-0.09339441
226	0x3df565e8	0.11982328
227	0x3c9f24dc	0.019426756
228	0xbc966a60	-0.01836127
229	0xbd5a2851	-0.053261105
230	0xbe1a37ee	-0.15060398
231	0xbd8b1fcb	-0.067931734
232	0xbb66f36d	-0.0035240308
233	0xbe17e292	-0.14832523
234	0x3dc9fc82	0.09862615
235	0xbe459d3a	-0.19298258
236	0x3d49417f	0.049134728
237	0x3c6db89c	0.014509346
238	0xbe0ece5d	-0.13945909
239	0x3d9a6009	0.075378485
240	0x3d4b8abd	0.049692858
241	0x3d9f8c40	0.077904224
242	0x3dd29679	0.10282607
243	0xbde7a5f4	-0.1131095
244	0x3e2884c8	0.16456902
245	0xbdd6512b	-0.104647
246	0xbdbf6f44	-0.09347394
247	0x3e0e0543	0.13869195
248	0xbc0ebac5	-0.0087115215
249	0x3d0cc036	0.034362994
250	0xbd14cb17	-0.036326494
251	0xbc918cd7	-0.017767353
252	0x3e4933bd	0.19648643
253	0x3c763529	0.015027323
254	0x3de98ae9	0.11403448
255	0x3d5533e2	0.052051432

lstm.weight_hh_l0 f4 [128, 32]
0	0xbdd4a353	-0.10382714
1	0xbe3cf7c2	-0.18453887
2	0x3cc74e24	0.024329253
3	0xbcd5b5c1	-0.026087644
4	0x3e1a6dc4	0.15080935
5	0x3e254683	0.1614018
6	0xbe0dbfa1	-0.13842632
7	0x3d14dc86	0.03634312
8	0x3dd120bb	0.10211321
9	0x3da2af40	0.079435825
10	0xbc85b02f	-0.016319362
11	0x3d6f87a6	0.058478974
12	0xbde990c0	-0.11404562
13	0xbc956dff	-0.018240927
14	0xbcd28818	-0.02569966
15	0x3d3325c1	0.043737177
16	0xbdf22a15	-0.11824433
17	0xbcabffa9	-0.020995932
18	0xbcb73595	-0.022364417
19	0x3ca962e1	0.020677032
20	0x3d898a01	0.06715775
21	0x3e09c2fb	0.13453285
22	0xbc98cec9	-0.01865329
23	0x3c8f82d3	0.017518437
24	0xbdf3c436	-0.11902659
25	0xbdef88c4	-0.11696008
26	0x3debade0	0.115077734
27	0x3d333904	0.043755546
28	0xbd117a07	-0.035516765
29	0x3d0d7438	0.034534663
30	0xbd80d4f7	-0.0629062
31	0xbd97d6e6	-0.074140355
32	0x3e387e3c	0.18016905
33	0x3d9380e2	0.07202317
34	0xbd8bd49d	-0.06827662
35	0x3df187c0	0.117934704
36	0x3e2925d0	0.1651833
37	0x3df1af9a	0.118010715
38	0xbdad0844	-0.08448842
39	0xbe2bf72e	-0.1679351
40	0x3dddb75c	0.10825989
41	0xbdc1f68d	-0.09470854
42	0xbe17806d	-0.14795084
43	0x3df32a67	0.11873322
44	0x3c95198c	0.018200658
45	0x3c5ff009	0.013668069
46	0x3d34bc2e	0.044124775
47	0x3dfc8df1	0.12331761
48	0xbe0ede71	-0.13952042
49	0xbd801a49	-0.062550135
50	0x3e104018	0.1408695
51	0x3d973300	0.07382774
52	0x3e1e0cb8	0.1543454
53	0x3e3154ef	0.17317556
54	0x3d6caad8	0.057780117
55	0xbe220911	-0.15823771
56	0x3ddd2462	0.10797955
57	0xbdf4dce1	-0.11956192
58	0x3d89845c	0.06714699
59	0xbdbaa848	-0.09114128
60	0x3c98d86c	0.018657885
61	0x3b354279	0.002765803
62	0x3d427376	0.047473393
63	0x3e02ee94	0.12786323
64	0xbdbe11cc	-0.09280738
65	0x3d55d687	0.052206542
66	0xbdad3258	-0.08456868
67	0xbb9cbd80	-0.0047833323
68	0xbcdb0584	-0.026736028
69	0x3e134721	0.14382602
70	0xbd847537	-0.064676695
71	0x3d55eaa1	0.052225713
72	0xbd4a35c7	-0.049367692
73	0x3e0022d7	0.1251329
74	0x3bbd6c02	0.005780698
75	0xbe01d8a4	-0.12680298
76	0x3d5446cb	0.051825326
77	0xbce711fc	-0.028206818
78	0x3dc61e09	0.096736975
79	0xbd914ef9	-0.07095141
80	0xbe290931	-0.16507412
81	0x3936c128	0.00017428829
82	0x3e30ca0e	0.17264578
83	0x3e214262	0.1574798
84	0xbca40851	-0.020023497
85	0xbbe2ae4e	-0.0069177514
86	0xbda0bf16	-0.07848947
87	0x3df67cdb	0.12035533
88	0x3cee5f79	0.02909826
89	0x3ddc253e	0.10749291
90	0xbd9ef68e	-0.0776187
91	0x3c8522c7	0.016251935
92	0x3c4344f8	0.011918299
93	0xbe1ec343	-0.15504174
94	0x3d332c33	0.043743324
95	0xbd975ddb	-0.073909484
96	0x3ce05bee	0.027387585
97	0xbe378051	-0.17920043
98	0x39f95009	0.00047552612
99	0xbdcd2a4b	-0.10017832
100	0xbe20dc4f	-0.15709041
101	0x3e00a325	0.12562235
102	0xbdbdfe2b	-0.09276994
103	0x3da1a56e	0.07892881
104	0x3e1834d4	0.14863902
105	0x3e1e334b	0.15449254
106	0xbe071704	-0.13192374
107	0x3d67b192	0.05656583
108	0x3be2aba0	0.006917432
109	0xbd9c863c	-0.07642791
110	0xbe01f82c	-0.12692326
111	0x3d167809	0.03673557
112	0xbd22a52c	-0.0397083
113	0xbe204d92	-0.1565459
114	0x3d380d84	0.044934765
115	0xbd910b60	-0.07082248
116	0xbe17ef22	-0.14837316
117	0xbe14b212	-0.14521053
118	0x3e087eb0	0.13329577
119	0xbd5f0e74	-0.054457143
120	0x3e3bcd36	0.1834
121	0x3d5432b9	0.051806185
122	0xbe0cc426	-0.137467
123	0x3dc92545	0.09821562
124	0xbd3d7fb0	-0.04626435
125	0x3de4afda	0.111663535
126	0xbd1e1a87	-0.038599517
127	0x3dc654a0	0.0968411
128	0xbe0e8243	-0.13916878
129	0xbd52a8aa	-0.05143038
130	0x3e1c0551	0.15236403
131	0x3de97a69	0.11400301
132	0x3c2d31ec	0.010570984
133	0xbdf751f3	-0.120761774
134	0xbde4f854	-0.11180177
135	0x3daf934e	0.08573018
136	0xbd4f0efe	-0.050551407
137	0xbde06277	-0.10956281
138	0xbda22ea9	-0.07919056
139	0xbda64d27	-0.081201844
140	0xbe159706	-0.14608392
141	0x3da0c68a	0.07850368
142	0x3c2b4343	0.010453048
143	0xbd24f3d2	-0.040271588
144	0x3dca45ea	0.09876616
145	0xbcdd5641	-0.027018668
146	0xbdd7b1c0	-0.1053195
147	0xbce2f233	-0.02770338
148	0xbdd83549	-0.10557038
149	0x3e38363a	0.17989436
150	0xbe042ef2	-0.12908533
151	0xbda12448	-0.07868248
152	0xbdf91831	-0.12162817
153	0xbd75bec1	-0.05999637
154	0xbce09af0	-0.02741763
155	0x3df48dd7	0.11941116
156	0x3d43338c	0.04765658
157	0x3dfb9ca1	0.12285734
158	0xbd88bebe	-0.06677006
159	0x3dd6b40a	0.104835585
160	0x3dd769cc	0.10518226
161	0x3db86f58	0.09005612
162	0x3e1df3eb	0.15425079
163	0x3d56fbbd	0.05248617
164	0xbe43f40d	-0.19136067
165	0x3e225808	0.15853894
166	0x3dd9a854	0.10627809
167	0x3dd54a9e	0.10414623
168	0xbdc1e508	-0.09467512
169	0x3d2f9ab6	0.042872153
170	0x3e0d8fd8	0.13824403
171	0x3dd6f359	0.10495634
172	0x3e365dfa	0.17809287
173	0x3dbc998a	0.09208973
174	0xbe150ad0	-0.14554906
175	0x3e0d11f9	0.13776387
176	0xbe272bd9	-0.1632532
177	0x3e1289fb	0.14310448
178	0xbdab52bc	-0.0836539
179	0xbdf54beb	-0.11977371
180	0xbc307620	-0.010770351
181	0x3e12c760	0.14333868
182	0x3d936f76	0.07198994
183	0x3d9a838a	0.0754462
184	0x3daba8b8	0.0838179
185	0x3cbe1684	0.023204096
186	0x3dcdaca3	0.100426935
187	0x3d6ac613	0.057317805
188	0xbcb4d87b	-0.022075882
189	0xbbc91a84	-0.006137194
190	0xbdfd825b	-0.12378379
191	0x3dd93380	0.10605526
192	0xbd95b04a	-0.07309015
193	0x3cbb182b	0.022838673
194	0x3db690aa	0.08914311
195	0x3e0bc721	0.1365018
196	0x3bfbaa9d	0.007680251
197	0x3db1da03	0.086841606
198	0x3dd3bfda	0.10339327
199	0x3dab4cd4	0.08364263
200	0xbdc7af62	-0.097502485
201	0xbcc5c91a	-0.024143744
202	0xbd667321	-0.05626214
203	0xbca3c632	-0.019991968
204	0x3e1843f5	0.14869674
205	0x3e3bd8f1	0.18344475
206	0xbddd140f	-0.107948415
207	0x3e330546	0.1748248
208	0xbd4b0122	-0.049561627
209	0xbc4a68de	-0.012354104
210	0x3e075a91	0.13218142
211	0xbd0284cb	-0.031864922
212	0xbcf7aa92	-0.030232701
213	0x3d298f3e	0.041396372
214	0x3db6e150	0.08929694
215	0xbe1f585a	-0.15561047
216	0xbd3d2cd9	-0.04618535
217	0x3d7287de	0.059211604
218	0xbdc71f29	-0.0972274
219	0xbcaa2950	-0.020771652
220	0x3e128398	0.14308012
221	0x3e155565	0.14583357
222	0xbd836ca0	-0.06417203
223	0x3e0ad05c	0.13556045
224	0xbe220e36	-0.15825734
225	0xbdb7379b	-0.08946153
226	0x3c9f5c0e	0.019453075
227	0x3dc39b62	0.09551121
228	0x3e305b61	0.17222358
229	0xbe14660b	-0.14492051
230	0x3d3b9758	0.04579863
231	0xbe11cbbd	-0.14237876
232	0x3e254ee3	0.16143374
233	0xbe0a3f67	-0.13500749
234	0xbdd103a2	-0.10205771
235	0xbdcf036c	-0.101080745
236	0xbd537e09	-0.05163387
237	0x3d68b424	0.05681242
238	0xbe0f0cd7	-0.13969742
239	0x3e347a90	0.17624879
240	0xbe18f54a	-0.1493732
241	0x3d98d293	0.07462039
242	0xbe3e1566	-0.1856285
243	0xbe427c08	-0.18992627
244	0x3ca52d3b	0.02016317
245	0x3d84e5bc	0.06489131
246	0xbb72d86f	-0.0037055274
247	0x3d61af4e	0.055098824
248	0xbe1278ea	-0.14303938
249	0x3a8e1bba	0.0010842003
250	0x3dbc0e85	0.09182457
251	0x3ccaed40	0.024771333
252	0x3d8fc303	0.070196174
253	0xbd844b90	-0.06459725
254	0x3e012b67	0.12614213
255	0x3e1001c5	0.14063175

lstm.bias_ih_l0 f4 [128]
0	0xbd7a09a3	-0.061044347
1	0x3cc6e58d	0.02427938
2	0xbe20da64	-0.1570831
3	0xbe19b88a	-0.15011802
4	0x3dca4bc5	0.09877733
5	0xbd89dc7b	-0.067315064
6	0xbdc0617e	-0.09393595
7	0xbe241b48	-0.16026032
8	0x3dd8f503	0.10593607
9	0x3c0214af	0.007939502
10	0x3daa1a23	0.083057664
11	0xbdd33ae3	-0.10313966
12	0xbccc6d3d	-0.024954433
13	0xbd86c065	-0.06579665
14	0xbdfd9089	-0.123810835
15	0x3cf9ecaf	0.030508367
16	0x3e0ce32c	0.13758534
17	0x3d129a08	0.035791427
18	0xbd7d238c	-0.06180148
19	0xbd659383	-0.05604888
20	0xbd6bd39c	-0.057574853
21	0x3c43f369	0.011959889
22	0x3e231589	0.15926184
23	0x3db3d961	0.08781696
24	0x3e44afa9	0.19207634
25	0xbd287cd2	-0.041134663
26	0xbe0590b1	-0.13043477
27	0x3dd14cbe	0.102197155
28	0xbde77c8e	-0.11303054
29	0xbe40dd73	-0.18834476
30	0xbdf08a9b	-0.11745187
31	0x3b815d21	0.0039478694
32	0xbd7588ff	-0.059945103
33	0xbdc5fd2a	-0.09667428
34	0x3dc79be0	0.09746528
35	0x3daf90c4	0.08572534
36	0xbdc8b6b3	-0.09800472
37	0xbe079407	-0.13240062
38	0xbd8a147d	-0.06742189
39	0xbe0a8517	-0.13527332
40	0x3e45dac6	0.19321737
41	0x3df2445c	0.11829445
42	0x3e137f04	0.14403921
43	0x3c7d181c	0.015447643
44	0xbcdc7fbe	-0.026916381
45	0xbcf24910	-0.029575855
46	0xbe0b9f7a	-0.13635054
47	0x3d216811	0.039405886
48	0x3d7b2b1a	0.0613204
49	0xbd834173	-0.06408968
50	0xbcdc46f5	-0.026889304
51	0xbe20a821	-0.15689136
52	0x3d689b3d	0.05678867
53	0x3d95bbe0	0.07311225
54	0x3dc9c960	0.09852862
55	0xbd3752e5	-0.04475679
56	0xbdc4ae42	-0.096035495
57	0x3d71b3ae	0.059009247
58	0x3afb70f9	0.0019183449
59	0xbe077414	-0.13227874
60	0x3d11d0c0	0.03559947
61	0xbd95a57a	-0.07306953
62	0x3cb2651d	0.02177673
63	0xbd9efd88	-0.07763201
64	0x3d7c3513	0.061574053
65	0xbe253126	-0.1613203
66	0xbd78fb33	-0.060786437
67	0x3e064522	0.1311231
68	0x3ddb73e8	0.10715467
69	0xbd56662c	-0.052343532
70	0x3dae2cdf	0.08504652
71	0x3dab5f0e	0.083677396
72	0xbd0dc70e	-0.03461366
73	0xbe158b4e	-0.14603922
74	0x3d6dfead	0.058104206
75	0xbd39544e	-0.045246415
76	0xbddaae12	-0.106777325
77	0xbd2f8356	-0.04284986
78	0xbd31355c	-0.043263778
79	0xbe2333f9	-0.15937795
80	0xbe3dc9f1	-0.18534066
81	0x3ddb623d	0.10712097
82	0xbcf8426a	-0.030305106
83	0xbe3a38aa	-0.18185678
84	0x3dbeb43b	0.0931172
85	0xbda3ec4f	-0.08004057
86	0x3c715a4d	0.014731002
87	0xbe48bf3d	-0.19604202
88	0xbd7d4092	-0.061829157
89	0x3d3f5fb8	0.046722144
90	0xbe0ed259	-0.13947429
91	0x3d8ce266	0.068791196
92	0x3e05f011	0.1307986
93	0xbdf3c871	-0.119034655
94	0x3dba6163	0.09100606
95	0x3e09447d	0.13405032
96	0x3da6c345	0.081427135
97	0xbce7a452	-0.028276596
98	0x3baf7152	0.005354085
99	0xbdf9691b	-0.121782504
100	0xbd03eaa8	-0.032206208
101	0xbd24f0d6	-0.04026874
102	0x3db265a3	0.08710792
103	0x3d5926eb	0.05301563
104	0xbe2111ea	-0.1572949
105	0xbe19cccc	-0.1501953
106	0x3daf50fe	0.0856037
107	0xbdf685ce	-0.1203724
108	0x3b199ad9	0.0023438244
109	0x3e112530	0.14174342
110	0xbe09df95	-0.13464196
111	0xbcc4edc5	-0.024039159
112	0xbe0dec1c	-0.138596
113	0x3c3867de	0.011255233
114	0xbd84e414	-0.06488815
115	0xbdebf41a	-0.11521168
116	0x3dc3ae99	0.09554786
117	0x3e442003	0.19152837
118	0xbd889038	-0.066681325
119	0x3d1f548b	0.038898986
120	0x3dc0927f	0.09402942
121	0xbe1a6cca	-0.15080562
122	0x3db23cfe	0.087030396
123	0xbdc880a2	-0.0979016
124	0x3d4aaf1c	0.049483404
125	0x3e1631b1	0.14667393
126	0xbb29a964	-0.0025888318
127	0xbe26cb73	-0.16288547

lstm.bias_hh_l0 f4 [128]
0	0xbe04bf90	-0.129637
1	0xbdc86267	-0.09784394
2	0x3dd506d7	0.10401695
3	0x3d9472be	0.07248448
4	0xbdb3f149	-0.08786256
5	0xbe201274	-0.1563204
6	0xbe026330	-0.1273315
7	0xbd0016d3	-0.031271767
8	0xbc855780	-0.016277075
9	0x3e10cdd4	0.14141017
10	0xbd8e1857	-0.06938236
11	0x3ce0952c	0.02741488
12	0xbcb348d7	-0.021885319
13	0x3da181b7	0.07886069
14	0x3e07ccbd	0.13261695
15	0x3dcc297f	0.09968852
16	0x3e187fc1	0.14892484
17	0x3db65de8	0.0890463
18	0xbe3695a7	-0.17830525
19	0xbd9be11e	-0.07611297
20	0x3e106a1f	0.14102982
21	0xbdc562ce	-0.09637986
22	0xbe144f21	-0.1448331
23	0x3e320165	0.17383344
24	0x3d9a5e84	0.07537559
25	0x3cba14f9	0.022715079
26	0x3ddfe161	0.109316595
27	0x3d2a4bd9	0.04157624
28	0xbd017fd7	-0.03161606
29	0xbd03a420	-0.032138944
30	0xbcb8f4d1	-0.022577675
31	0xbe3c8212	-0.18408993
32	0x3c877914	0.016537227
33	0xbdf015b0	-0.117228866
34	0xbe079f3d	-0.13244338
35	0x3d86798c	0.06566152
36	0x3c5cd762	0.013479086
37	0xbd29f681	-0.04149485
38	0xbe28b355	-0.1647466
39	0x3d516723	0.05112375
40	0x3dfdb056	0.12387149
41	0xbd85e73e	-0.065382466
42	0x3d08d9c8	0.033410817
43	0xbdd95cc6	-0.10613398
44	0x3e2da54d	0.16957588
45	0xbc1da7ad	-0.009622497
46	0xbdeb8be0	-0.115012884
47	0xbd97284a	-0.073807314
48	0x3e363b72	0.17796114
49	0x3e2ced13	0.16887312
50	0xbdca0b2c	-0.09865412
51	0x3e388635	0.18019946
52	0xbd19f2a9	-0.037584934
53	0x3d3ff96e	0.046868734
54	0xbd382163	-0.044953715
55	0xbe16e2e7	-0.14734994
56	0xbe08e980	-0.13370323
57	0x3db62d2d	0.08895335
58	0xbdaa4bcf	-0.083152406
59	0x3d9a1250	0.07523024
60	0x3e3ca2bf	0.18421458
61	0x3de2e49a	0.110787585
62	0x3c206e22	0.009791883
63	0xbe0d472f	-0.13796686
64	0xbd438b4a	-0.04774026
65	0xbdc7d935	-0.09758226
66	0xbc3833d5	-0.0112428265
67	0x3de23924	0.11046055
68	0xbc8f769d	-0.017512614
69	0x3e3c244e	0.18373224
70	0xbe21d20e	-0.15802786
71	0xbcf28084	-0.029602297
72	0x3da779da	0.08177538
73	0x3db88e48	0.09011513
74	0x3e064e2c	0.13115758
75	0xbda512b6	-0.080602095
76	0x3d407eb5	0.046995837
77	0x3dfe94fc	0.1243076
78	0xbd4e8a01	-0.05042458
79	0xbd34b51e	-0.04411804
80	0x3e017dfe	0.12645718
81	0x3d402000	0.046905518
82	0xbe15c31c	-0.1462521
83	0xbdd9b87b	-0.1063089
84	0xbd4cef52	-0.05003292
85	0xbc64e289	-0.013970026
86	0x3d13ec77	0.036114182
87	0x3e089279	0.13337125
88	0x3e15f088	0.14642537
89	0xbe091177	-0.13385569
90	0x3dcded2d	0.10055003
91	0xbdec1a26	-0.11528425
92	0x3e422f8c	0.1896345
93	0xbe1abf6e	-0.15112087
94	0xbc810bc4	-0.01575268
95	0x3e1e76ff	0.15475081
96	0xb8bc0352	-8.965157e-05
97	0x3dc72443	0.09723713
98	0x3e167a54	0.14695102
99	0xbd22951e	-0.03969299
100	0xbd8c3b0c	-0.068472
101	0x3d124413	0.035709452
102	0xbdb84807	-0.08998113
103	0xbdea32b1	-0.1143545
104	0xbde909cf	-0.11378824
105	0x3d834583	0.06409743
106	0xbd944800	-0.072402954
107	0xbdf021fd	-0.11725233
108	0x3d789c9a	0.060696222
109	0x3d92f141	0.07174922
110	0xbdb2d6c9	-0.08732373
111	0x3d92cc1c	0.07167837
112	0x3e3b7333	0.18305664
113	0x3e23585e	0.15951678
114	0xbe122130	-0.14270473
115	0xbd41063c	-0.047125086
116	0x3de98555	0.11402384
117	0x3d87038c	0.065924734
118	0xbd7aa371	-0.061191026
119	0x3e36e4af	0.17860673
120	0x3ddb7763	0.107161306
121	0xbdbbdeab	-0.0917333
122	0x3d0dc831	0.034614746
123	0x3c5055f4	0.012715805
124	0x3d90918b	0.0705901
125	0x3d872b62	0.066000715
126	0x3e094ce5	0.13408239
127	0x3e053ac3	0.13010697

lstm.weight_ih_l0_reverse f4 [128, 16]
0	0xbe1687de	-0.14700267
1	0x3d529aae	0.051417045
2	0x3cafa0a7	0.02143891
3	0x3e22ae40	0.15886784
4	0x3dc4b5c0	0.096049786
5	0x3df39f8a	0.11895664
6	0x3d4884d7	0.04895481
7	0x3e2cf203	0.16889195
8	0xbd8ed329	-0.06973869
9	0xbd982c58	-0.07430333
10	0x3be7df69	0.007076193
11	0x3e1b12ef	0.15143941
12	0xbde707e4	-0.11280802
13	0x3db232c9	0.08701093
14	0xbd7940bd	-0.060852755
15	0xbdb3c24f	-0.08777296
16	0x3ded464e	0.11585675
17	0x3dd3c0c6	0.10339503
18	0x3e168988	0.14700902
19	0xbd570e34	-0.05250378
20	0xbce5970b	-0.028026124
21	0x3e0b2d8f	0.13591598
22	0xbd300f74	-0.042983487
23	0xbca28d15	-0.019842664
24	0xbdf8a6eb	-0.12141212
25	0x3d270bf6	0.04078289
26	0x3dd0cec3	0.10195687
27	0x3c28b19c	0.010296252
28	0xbd2c6081	-0.04208422
29	0x3d383091	0.04496819
30	0x3d643a60	0.055719733
31	0xbd01d989	-0.0317016
32	0xbd20ce0a	-0.039258994
33	0xbe2a8e24	-0.16655785
34	0x3e0fa43b	0.14027493
35	0xbc536d4e	-0.012904478
36	0x3da57801	0.080795296
37	0x3e21cee4	0.15801579
38	0xbda20c4f	-0.07912504
39	0xbd06352d	-0.032765556
40	0xbd90fb8e	-0.0707923
41	0xbd312da7	-0.043256428
42	0x3d641453	0.055683445
43	0xbdc1d3d4	-0.09464231
44	0x3d36c58a	0.04462198
45	0xbe1d689c	-0.15371937
46	0xbe1499f2	-0.1451185
47	0x3e117fe6	0.14208946
48	0x3e1f57bc	0.15560812
49	0x3cb62d8c	0.022238515
50	0x3d1dba23	0.038507592
51	0xbdd5b99e	-0.10435794
52	0x3d4800be	0.048828833
53	0xbe1f201d	-0.15539594
54	0xbc4feca3	-0.012690696
55	0xbda48486	-0.08033089
56	0xbbd020ee	-0.006351582
57	0xbdcd722e	-0.10031544
58	0xbdb244ab	-0.087045036
59	0x3d6839cc	0.056695744
60	0xbddf8050	-0.109131455
61	0xbe197a26	-0.14988002
62	0xbdf05c46	-0.1173635
63	0xbc2b000d	-0.010437024
64	0x3da6ce7a	0.08144851
65	0xbd4aa044	-0.049469247
66	0xbe125377	-0.14289652
67	0xbd1b1f4d	-0.037871648
68	0x3e3324b6	0.17494473
69	0xbe2b8b6b	-0.16752402
70	0x3df26ed9	0.11837549
71	0x3e1acdaa	0.15117517
72	0xbdfa9453	-0.12235322
73	0x3c08f02e	0.008358045
74	0xbca6c39a	-0.020356942
75	0xbd923819	-0.07139606
76	0xbd44425a	-0.04791484
77	0x3dcf0712	0.101087704
78	0xbe1c3158	-0.15253198
79	0xbe3524c4	-0.17689806
80	0x3c32366e	0.010877235
81	0xbe10f374	-0.1415537
82	0x3c843c03	0.016141897
83	0x3d569c2a	0.052395023
84	0xbdf40729	-0.11915428
85	0x3ddab0ff	0.106782906
86	0x3dd01445	0.10160116
87	0x3ddbd878	0.107346475
88	0x3d96dc9b	0.07366296
89	0x3d2779e1	0.040887717
90	0x3e2bcc18	0.16777074
91	0x3e35aab4	0.177409
92	0x3dfcb026	0.12338285
93	0xbe01f9e4	-0.12692982
94	0xbe230ab6	-0.15922055
95	0xbe10559d	-0.14095159
96	0xbd9c857f	-0.0764265
97	0x3d86a002	0.06573488
98	0xbdd28a1b	-0.10280248
99	0x3e09eacb	0.13468473
100	0xbe347265	-0.17621763
101	0xbdd69fb6	-0.10479681
102	0x3d5f176f	0.054465707
103	0x3d9899be	0.07451199
104	0x3e089992	0.13339832
105	0x3e073988	0.1320554
106	0xbe28e6f0	-0.16494346
107	0xbdb030db	-0.086030684
108	0x3d8930a6	0.06698732
109	0xbda547f7	-0.08070367
110	0xbe420522	-0.1894727
111	0xbde408e6	-0.1113451
112	0xbd504a65	-0.0508522
113	0xbe3949f1	-0.18094613
114	0x3de30f3c	0.1108689
115	0x3da0dbbc	0.07854411
116	0xbe2c8106	-0.16846094
117	0x3e12016a	0.14258352
118	0xbd203c7a	-0.039120175
119	0xbd4d27c3	-0.050086748
120	0x3df0a74a	0.11750658
121	0x3d7f4888	0.06232503
122	0xbd4aa75a	-0.049476005
123	0x3db905b1	0.09034289
124	0x3e30f38d	0.17280407
125	0xbe097833	-0.13424759
126	0x3ca07a30	0.019589514
127	0x3e04ed04	0.1298104
128	0xbde769cc	-0.11299476
129	0xbd344a94	-0.044016436
130	0xbdb56f05	-0.08859066
131	0x3d8f38f4	0.06993285
132	0x3ded6efb	0.115934335
133	0xbdadc4b3	-0.08484783
134	0xbd7b17e4	-0.06130208
135	0xbd7dd80c	-0.061973616
136	0xbe3372ab	-0.17524211
137	0xbda7a627	-0.08185988
138	0xbc2883d6	-0.010285338
139	0x3e1635b5	0.14668925
140	0xbd6a17bd	-0.057151545
141	0xbc816b32	-0.015798185
142	0xbd0eabe2	-0.03483189
143	0xbdff71fd	-0.124729134
144	0xbd81a675	-0.06330577
145	0x3cba4005	0.022735605
146	0xbdafd280	-0.085850716
147	0xbda53b42	-0.08067943
148	0xbce7c8fb	-0.028294077
149	0x3e0d01fc	0.13770288
150	0xbdaee900	-0.08540535
151	0xbd732277	-0.05935904
152	0xbdbe94ca	-0.09305723
153	0xbdf35111	-0.118806966
154	0xbd65f4c9	-0.05614165
155	0x3dfac4ef	0.12244593
156	0x3dcfcb21	0.10146166
157	0xbce2b159	-0.027672457
158	0xbd64d0fe	-0.055863373
159	0x3c1e0489	0.009644636
160	0x3e26b6eb	0.16280715
161	0xbd8347a9	-0.064101525
162	0xbd92201c	-0.071350306
163	0x3d2f44d9	0.042790268
164	0xbd88d108	-0.066804945
165	0x3debdb30	0.11516416
166	0xbdfbd7c7	-0.12297016
167	0xbe027c22	-0.12742665
168	0x3de4719f	0.11154484
169	0x3e41d48a	0.18928733
170	0xbe1a4dd9	-0.15068759
171	0xbe1e6df8	-0.15471637
172	0x3e112688	0.14174855
173	0xbd5a5b78	-0.053309888
174	0xbe21177a	-0.15731612
175	0xbe06789d	-0.13131948
176	0xbdf51132	-0.1196617
177	0x3dee349d	0.11631129
178	0x3d53eee0	0.05174148
179	0xbd8cdf03	-0.068784736
180	0x3d5c4c96	0.053783976
181	0xbdbefa93	-0.09325137
182	0xba86d62f	-0.001028722
183	0xbacd68b7	-0.0015671466
184	0x3e1f4678	0.15554225
185	0x3e1c8987	0.15286838
186	0x3d4fa0ea	0.05069057
187	0xbd03e700	-0.03220272
188	0x3d9ae67b	0.07563492
189	0x3de136fe	0.10996817
190	0xbd4b1cc2	-0.049587972
191	0xbda153c4	-0.07877305
192	0xbd3c4704	-0.045966163
193	0x3e43d481	0.19124033
194	0x3b9aefbb	0.004728285
195	0xbd2bd8d0	-0.041954815
196	0xbc76a568	-0.015054084
197	0x3dd60bd8	0.10451478
198	0x3df4ec18	0.11959094
199	0x3ddd58ca	0.10807951
200	0x3ccdadd8	0.02510731
201	0x3e23cd9e	0.15996405
202	0x3e281962	0.16415933
203	0xbc614d3f	-0.013751327
204	0x3d628110	0.055298865
205	0x3e0d3f2a	0.13793626
206	0x3e41d5bc	0.1892919
207	0xbe21686f	-0.15762495
208	0xbe241e3a	-0.16027156
209	0x3da6cfd1	0.081451066
210	0x3d97d04d	0.07412777
211	0x3da72f48	0.08163315
212	0xbd25b039	-0.040451262
213	0x3d60ba12	0.05486495
214	0xbe382e6f	-0.17986463
215	0x3bf8d38e	0.0075935787
216	0xbd19e8f1	-0.037575666
217	0xbdcc4f82	-0.099761024
218	0xbbeb01c3	-0.007171841
219	0xbddc82ae	-0.10767113
220	0xbdb97a34	-0.090565115
221	0xbd4ec939	-0.05048487
222	0xbdd895ff	-0.105754845
223	0xbde58371	-0.11206711
224	0x3dba0ed7	0.09084862
225	0x3e1bccb5	0.15214808
226	0x3c63b413	0.0138979135
227	0x3e252862	0.16128686
228	0xbced0cf1	-0.028936835
229	0xbcc98b31	-0.024602504
230	0xbdd3a5d4	-0.103343636
231	0x3e0e029c	0.13868183
232	0xbe119ddd	-0.14220376
233	0xbd6d289a	-0.05790005
234	0xbbb13aff	-0.005408644
235	0x3e08f55b	0.13374846
236	0x3e26c6ea	0.16286817
237	0x3d25d51a	0.040486433
238	0xbdf67374	-0.1203374
239	0xbd1883f2	-0.037235208
240	0x3e3d47ed	0.18484469
241	0x3a1726bc	0.0005765965
242	0xbd8ccb66	-0.06874733
243	0x3da1189f	0.07866024
244	0x3e2036c7	0.15645896
245	0x3d2fef06	0.04295256
246	0x3e27da0b	0.1639177
247	0xbe09c913	-0.1345561
248	0x3e0331cd	0.12811966
249	0x3dca058f	0.098643415
250	0xbbecbbaa	-0.0072245197
251	0xbd46509d	-0.048416723
252	0xbc0b3d49	-0.008498498
253	0x3e018f45	0.12652309
254	0x3db58302	0.088628784
255	0x3e06e850	0.13174558

lstm.weight_hh_l0_reverse f4 [128, 32]
0	0x3cd0cec0	0.025489211
1	0xbe34cddf	-0.17656659
2	0xbda82faa	-0.08212216
3	0xbddd21e8	-0.10797483
4	0x3df9f1ce	0.12204324
5	0xbe2400c5	-0.16015919
6	0x3e2bcbc9	0.16776957
7	0xbe29b8d0	-0.16574407
8	0xbe203063	-0.15643458
9	0xbdaf0ece	-0.08547746
10	0x3e0f2201	0.13977815
11	0xbc2cef40	-0.0105550885
12	0x3db02ae2	0.08601929
13	0x3dc34626	0.09534864
14	0x3dba7322	0.09103991
15	0xbe2818cd	-0.16415711
16	0x3df43a86	0.11925225
17	0xbe017536	-0.12642369
18	0xbc9e0ea0	-0.019294083
19	0xbd311a5c	-0.04323803
20	0xbdc09fc2	-0.094054714
21	0xbe026ecc	-0.12737578
22	0x3e11b9e5	0.1423107
23	0x3e021a5f	0.12705372
24	0xbdaee340	-0.08539438
25	0x3dbe967e	0.09306048
26	0x3ddcb9d6	0.10777633
27	0x3e023671	0.1271608
28	0x3dad7d4e	0.084711656
29	0xbc11fc40	-0.008910239
30	0x3e079743	0.13241296
31	0x3d9be0ce	0.076112375
32	0xbe12855a	-0.14308682
33	0x3dcb3bee	0.0992354
34	0x3d6357b0	0.055503547
35	0x3d3192f0	0.04335302
36	0x3dea19ce	0.11430703
37	0x3e287def	0.1645429
38	0xbe1a0783	-0.15041928
39	0x3ce75f58	0.028243706
40	0x3e0eb625	0.1393667
41	0xbd9dae43	-0.076992534
42	0xbdec08ae	-0.11525093
43	0xbd6c602a	-0.057708897
44	0xbe3118b8	-0.17294586
45	0x3cd97f38	0.02654992
46	0x3df8359a	0.12119599
47	0xbd3a9b68	-0.045558363
48	0x3cb50c80	0.022100687
49	0xbd938107	-0.072023444
50	0xbe1d0ccc	-0.15336913
51	0x3e003b6b	0.12522666
52	0x3b82eca0	0.003995493
53	0xbdb2249c	-0.08698389
54	0xbdb3d0dc	-0.08780071
55	0xbdcff56b	-0.10154232
56	0xbdfb6f0e	-0.122770414
57	0xbdcc29a4	-0.0996888
58	0x3da59c4e	0.080864534
59	0x3e022469	0.12709202
60	0xbd46873c	-0.048468813
61	0xbda52a20	-0.08064675
62	0x3e23b289	0.15986075
63	0x3dd3c862	0.10340954
64	0x3caa0728	0.020755365
65	0x3ba3c460	0.004997775
66	0x3deb6eea	0.114957646
67	0xbdb539c3	-0.08848908
68	0x3e013971	0.12619568
69	0x3db8e35a	0.09027739
70	0x3e13d607	0.14437114
71	0x3d9c5cee	0.076349124
72	0x3dd4a31e	0.10382675
73	0x3e2be5b9	0.16786851
74	0x3de2674a	0.11054857
75	0xbd6ab496	-0.057301126
76	0x3dd6193e	0.10454033
77	0xbd382604	-0.04495813
78	0xbe0d11e9	-0.13776363
79	0x3de40286	0.11133294
80	0x3d0dfd1c	0.034665212
81	0x3d9fa4ae	0.07795082
82	0xbbf37ae0	-0.0074304193
83	0xbd95e2ff	-0.07318687
84	0xbd7fa5a0	-0.06241381
85	0xbce4a140	-0.027908921
86	0x3cce45f8	0.025179848
87	0xbd8c6c67	-0.068566136
88	0xbd0bc794	-0.03412588
89	0x3d3a2990	0.045449793
90	0xbdaedbf8	-0.085380495
91	0x3e102e1d	0.14080091
92	0x3e11ba35	0.14231189
93	0x3dbac2fe	0.09119223
94	0xbe139335	-0.14411624
95	0xbce883d0	-0.028383166
96	0xbe152cd3	-0.1456788
97	0x3d5ff038	0.05467245
98	0x3ddc2e72	0.10751046
99	0xbdcb8a63	-0.099385045
100	0x3e10ddc9	0.14147104
101	0x3d338864	0.043831244
102	0x3e1dbf27	0.1540495
103	0x3cb07040	0.0215379
104	0x3dfc1ad2	0.12309803
105	0x3e1bdbf7	0.15220629
106	0xbd39cb34	-0.045359805
107	0x3da38efe	0.07986258
108	0x3c114480	0.008866429
109	0xbde6561f	-0.11246895
110	0x3db4df8e	0.08831702
111	0x3e1e618f	0.15466903
112	0x3d5c1820	0.053733945
113	0xbddaa583	-0.106761
114	0x3dbad0f6	0.091218874
115	0xbd6a8bba	-0.05726216
116	0xbdbe627c	-0.09296128
117	0xbcd8c928	-0.026463106
118	0x3dba7996	0.09105222
119	0x3e20a865	0.15689237
120	0xbcee9c78	-0.029127344
121	0xbe000f8e	-0.12505934
122	0xbd2d40a0	-0.04229796
123	0xbdd0d351	-0.101965554
124	0x3c7bb4e0	0.015362948
125	0x3da29142	0.07937862
126	0x3d8c7db2	0.06859912
127	0x3cc90658	0.024539158
128	0xbe25ab83	-0.16178708
129	0x3dc7b8ce	0.097520456
130	0x3e21bea7	0.15795384
131	0xbd9956c7	-0.074872546
132	0xbd144820	-0.036201596
133	0x3e2f5cd3	0.17125253
134	0xbd206cd4	-0.039166287
135	0x3dc8b276	0.09799664
136	0xbe07aa1e	-0.13248488
137	0x3b2c0240	0.0026246458
138	0x3db478ea	0.08812125
139	0x3ba77ce0	0.005111322
140	0xbd821e90	-0.063534856
141	0x3c23c9c0	0.009996831
142	0x3dd256ee	0.10270487
143	0xbb001000	-0.0019540787
144	0x3d8a8666	0.06763916
145	0x3d984ce2	0.07436539
146	0xbdd848f5	-0.105607904
147	0xbc8236e0	-0.015895307
148	0x3d2cd520	0.04219544
149	0xbe13ef40	-0.14446735
150	0xbd468024	-0.04846205
151	0xbcffa900	-0.031208515
152	0x3da75de2	0.081722036
153	0x3e0a15f1	0.13484932
154	0xbd5fa66a	-0.054602064
155	0x3e12c4a7	0.1433283
156	0xbd2b5464	-0.041828528
157	0x3cec8480	0.028871775
158	0x3ddd37d2	0.108016625
159	0xbe0b5587	-0.13606845
160	0x3e29263b	0.1651849
161	0x3e277177	0.16351877
162	0xbe2061fc	-0.15662378
163	0x3cbab750	0.022792488
164	0x3cee97b8	0.02912508
165	0xbe203812	-0.15646389
166	0xbba07480	-0.0048967004
167	0x3d91e9fc	0.07124707
168	0xbd7b0cb0	-0.061291397
169	0xbcd0a4d8	-0.025469229
170	0x3a039b00	0.000502035
171	0x3e29b3fb	0.16572563
172	0x3ddc901a	0.10769673
173	0x3dfa543e	0.12223099
174	0x3d6ad5e4	0.05733289
175	0xbcfdfc00	-0.031003952
176	0x3da8a3c6	0.08234362
177	0xbe210b49	-0.15726961
178	0x3d0fbaec	0.035090372
179	0x3d8c2178	0.06842321
180	0xbdc87a51	-0.09788955
181	0xbd13b994	-0.036065653
182	0x3ceec4a8	0.029146507
183	0x3dbc3b6e	0.09191023
184	0xbd8483bc	-0.06470439
185	0x3d8da562	0.0691631
186	0x3e0cc83f	0.13748263
187	0x3dd481de	0.10376333
188	0x3af0c380	0.001836881
189	0x3da56c96	0.08077352
190	0xbdfef458	-0.124489486
191	0x3d77638c	0.06039767
192	0xbcb18d20	-0.021673739
193	0x3e20784f	0.15670894
194	0xbe31d1c7	-0.1736518
195	0x3d9cbd66	0.076533124
196	0x3d93ba3c	0.07213256
197	0xbd5fc444	-0.054630533
198	0x3d443fcc	0.047912404
199	0x3e12a415	0.14320405
200	0xbd8735d4	-0.06602064
201	0x3d8825f2	0.066478625
202	0x3e1c738f	0.15278457
203	0x3de1569e	0.11002849
204	0xbe0894d8	-0.1333803
205	0x3ddd6516	0.10810296
206	0xbd170cb0	-0.036877334
207	0xbe10d0f2	-0.14142206
208	0x3e34145f	0.17585896
209	0x3ddec192	0.10876764
210	0x3e088487	0.13331805
211	0x3cabfa10	0.020993263
212	0x3ce9daf8	0.028546795
213	0xbde624cf	-0.112374894
214	0x3e0d14b7	0.13777433
215	0x3c96b760	0.018397987
216	0x3d431d5c	0.04763542
217	0xbe008e0b	-0.12554185
218	0xbe27c51d	-0.16383786
219	0xbd0f8b30	-0.03504485
220	0xbd9220cf	-0.07135164
221	0xbe07bf10	-0.13256478
222	0xbe30dae4	-0.17271
223	0xbd823270	-0.063572764
224	0x3d529cf4	0.051419213
225	0x3dfb1ea2	0.12261702
226	0x3c90c368	0.017671302
227	0xbc809510	-0.015696079
228	0xbe29fef5	-0.16601165
229	0xbd6d369e	-0.057913415
230	0x3e1d7029	0.15374817
231	0x3dbc24a6	0.09186678
232	0x3dc6dc9a	0.09710045
233	0xbdc32466	-0.09528427
234	0x3c45ea50	0.01207979
235	0xbde32920	-0.11091828
236	0x3db7bee6	0.08971958
237	0x3dc15522	0.09440066
238	0xbdc665ab	-0.096873604
239	0x3db973b2	0.0905527
240	0x3e331303	0.17487721
241	0x3d6ed638	0.058309764
242	0xbe28c894	-0.16482764
243	0xbd32f13c	-0.04368709
244	0xbd9799f4	-0.07402411
245	0x3bf50340	0.007477194
246	0xbcf83268	-0.030297473
247	0xbe1d91fe	-0.15387723
248	0xbd02a7dc	-0.031898364
249	0x3da04c92	0.07827105
250	0xbce4f830	-0.027950376
251	0x3e1eed01	0.15520097
252	0xbda16c5f	-0.07881998
253	0x3dea6a2e	0.114460334
254	0x3e21efd9	0.15814151
255	0xbd2d3f50	-0.042296708

lstm.bias_ih_l0_reverse f4 [128]
0	0x3e0028cc	0.12515563
1	0xbd565b3a	-0.052333094
2	0x3e49dcab	0.19713084
3	0xbe2f6a42	-0.17130378
4	0x3e117038	0.14202964
5	0xbdb02811	-0.08601392
6	0xbdb4dca2	-0.08831145
7	0xbd2d6145	-0.04232909
8	0x3dd87bf3	0.105705164
9	0x3d7af8df	0.0612725
10	0xbdf26853	-0.118363045
11	0x3dd68e2a	0.104763344
12	0x3c5d3537	0.013501457
13	0xbdcc0304	-0.09961513
14	0x3e0e9c1b	0.13926737
15	0x3e150106	0.14551172
16	0x3de5c572	0.112193
17	0x3d980247	0.07422309
18	0xbe2b7e56	-0.16747412
19	0xbd69f092	-0.05711419
20	0xbca797b8	-0.020458087
21	0x39d17552	0.00039950997
22	0x3ceb5d63	0.028731054
23	0xbd1e68b6	-0.03867408
24	0xbe270149	-0.16309084
25	0x3cb9ffb2	0.022704933
26	0x3df0a51b	0.11750241
27	0xbc9be491	-0.019029887
28	0xbdf77953	-0.12083688
29	0xbce6e8f7	-0.028187258
30	0xbd42d14e	-0.04756289
31	0xbe1002b0	-0.14063525
32	0x3d9e206a	0.07721026
33	0xbc8b8010	-0.017028838
34	0xbe177174	-0.14789373
35	0xbd09f148	-0.03367737
36	0x3e210939	0.15726174
37	0x3dfa26be	0.12214421
38	0x3ddefd0e	0.1088811
39	0x3df8adc2	0.12142517
40	0x3d491768	0.049094588
41	0x3d732290	0.059359133
42	0x3ddcd996	0.10783689
43	0xbd6e0e48	-0.05811909
44	0x3c39af10	0.011333242
45	0x3d1ac314	0.037783697
46	0xbd9d960e	-0.07694636
47	0xbdf9ffec	-0.12207016
48	0xbcb8fae8	-0.022580579
49	0x3e2e128d	0.16999264
50	0xbe202e7f	-0.15642737
51	0xbd24ec54	-0.040264443
52	0x3d17e8c4	0.037087217
53	0xbe2d8937	-0.16946875
54	0x3c4aabf0	0.012370095
55	0xbd9abad7	-0.07555168
56	0xbe0dd66e	-0.1385133
57	0xbd84d0e6	-0.06485157
58	0xbe080d6b	-0.13286369
59	0x3dabc7a6	0.08387689
60	0x3e248087	0.16064654
61	0xbdaf5e41	-0.085628994
62	0x3da460a6	0.08026247
63	0x3d7d8ca0	0.06190169
64	0x3e05d424	0.13069206
65	0x3dc2e010	0.09515393
66	0x3cbe579e	0.023235139
67	0xbe2660c6	-0.16247854
68	0xbde9bef5	-0.11413375
69	0xbd909d59	-0.07061262
70	0xbd23ea34	-0.040018275
71	0xbcc15a44	-0.023602612
72	0xbd9536d3	-0.072858475
73	0xbdcdab1b	-0.100424014
74	0xbd7b2d4f	-0.061322507
75	0x3ccf38c9	0.025295632
76	0xbe479211	-0.19489314
77	0xbd862cb0	-0.06551492
78	0xbdf392fb	-0.11893269
79	0xbd8fb989	-0.0701781
80	0xbd2f89f1	-0.04285616
81	0xbe43543a	-0.19075099
82	0xbc946252	-0.018113289
83	0x3e49e005	0.19714363
84	0xbd5725db	-0.052526336
85	0xbd90fc63	-0.07079389
86	0xbd673061	-0.056442622
87	0xbc0d7280	-0.008633256
88	0xbd84b254	-0.06479326
89	0xbcbb5682	-0.022868399
90	0xbdf07e16	-0.11742799
91	0xbb463f05	-0.0030249965
92	0x3d7f9293	0.062395643
93	0xbe40cf82	-0.18829158
94	0xbd0188da	-0.031624652
95	0x3e0b623f	0.13611697
96	0xbd066c41	-0.032818083
97	0x3db169d1	0.08662761
98	0x3dbc5db2	0.091975585
99	0x3e164fd9	0.14678897
100	0xbde36492	-0.11103167
101	0x3e487195	0.19574578
102	0xbdab9285	-0.08377556
103	0xbd97b2f8	-0.074071825
104	0xbe40dbd3	-0.18833856
105	0x3d9bac41	0.07601214
106	0xbdc9cacb	-0.09853133
107	0xbd99b2b6	-0.075047895
108	0x3e35d925	0.17758615
109	0x3c93c437	0.018037898
110	0x3d76113d	0.060075033
111	0xbd4493a1	-0.047992352
112	0xbd98058d	-0.07422934
113	0x3bda7c8e	0.00666768
114	0xbdd75f35	-0.10516206
115	0x3d649927	0.05581012
116	0x3b6e5f0e	0.0036372575
117	0x3e1f2384	0.15540892
118	0xbd1f3b7c	-0.038875088
119	0xbdaecfce	-0.08535729
120	0xbdd9484a	-0.10609491
121	0xbc396709	-0.011316069
122	0xbdab048b	-0.08350476
123	0xbdd408f6	-0.10353272
124	0xbda2dda1	-0.079524286
125	0xbccf68a0	-0.025318444
126	0x3e2475e5	0.16060598
127	0x3e2e7e9e	0.17040488

lstm.bias_hh_l0_reverse f4 [128]
0	0x3e16df88	0.14733708
1	0xbdb8e8da	-0.09028788
2	0xbe10d830	-0.14144969
3	0x3d79894c	0.060921952
4	0xbe02d338	-0.12775886
5	0x3da49d2a	0.08037789
6	0x3dc37a2d	0.095447876
7	0x3df0229b	0.117253505
8	0x3db217bf	0.086959355
9	0xbd8d8f15	-0.06912056
10	0x3d9945fd	0.07484052
11	0x3d3e7b62	0.046504386
12	0xbd286121	-0.041108254
13	0xbdd3c3c6	-0.10340075
14	0xbd634a0b	-0.055490535
15	0x3cf709d6	0.030156057
16	0x3e203e45	0.15648754
17	0xbe040f10	-0.12896371
18	0xbe30224b	-0.17200582
19	0x3dafb1c2	0.085788265
20	0x3de52cb7	0.11190169
21	0x3df75863	0.12077405
22	0x3d8528de	0.065019354
23	0x3d5383de	0.05163943
24	0xbdcb06ed	-0.0991343
25	0x3e48fcf9	0.19627751
26	0xbd7b44bd	-0.06134485
27	0xbd5048dd	-0.050850738
28	0x3c4afc07	0.01238919
29	0x3e136457	0.14393745
30	0x3bcd855f	0.0062720026
31	0xbdaa4310	-0.083135724
32	0xbe162d0f	-0.14665626
33	0xbdd303a5	-0.103034295
34	0x3e1ced27	0.15324841
35	0xbd98cfbe	-0.07461499
36	0x3d988e0a	0.07448967
37	0xbe0b01fd	-0.13574977
38	0xbd237e98	-0.03991565
39	0xbe0f3955	-0.13986714
40	0x3e146b2b	0.14494006
41	0xbda58b27	-0.08083182
42	0x3dc32f2e	0.09530483
43	0xbd29f5bc	-0.041494116
44	0x3e100add	0.14066644
45	0xbdfa0bef	-0.122093074
46	0xbb307f00	-0.0026931167
47	0x3e28b719	0.16476096
48	0x3d909972	0.07060517
49	0xba2a7100	-0.00065018237
50	0xbc3cb460	-0.011517614
51	0xbe0c6c30	-0.13713145
52	0xbd011c44	-0.031521097
53	0x3dcdc7f2	0.10047902
54	0xbdad6257	-0.084660225
55	0xbcc48ce0	-0.023992956
56	0xbdf983ed	-0.12183366
57	0xbd512904	-0.051064506
58	0xbde8d7bb	-0.11369272
59	0xbe0a12a3	-0.13483672
60	0xbe269c9c	-0.16270679
61	0xbd321e38	-0.04348585
62	0xbe0d272f	-0.13784479
63	0x3e236687	0.1595708
64	0xbd602126	-0.054719113
65	0x3df47c34	0.11937752
66	0x3ccaab1e	0.024739798
67	0xbe39af5a	-0.18133298
68	0x3d5eeab4	0.05442305
69	0x3db24c13	0.08705916
70	0x3e15dd17	0.1463512
71	0xbe15fe1e	-0.1464772
72	0xbd2e2a4c	-0.042520806
73	0xbd755be1	-0.059902076
74	0x3d88af7a	0.066740945
75	0xbcf53206	-0.02993108
76	0x3db53a76	0.08849041
77	0xbbbbe409	-0.005733971
78	0x3db23a78	0.08702558
79	0x3e3650ae	0.17804214
80	0x3d633345	0.055468816
81	0xbd9b93df	-0.075965635
82	0x3d99894a	0.07496889
83	0x3be32969	0.0069324267
84	0xbd83b968	-0.06431848
85	0x3e3cf54b	0.18452947
86	0xbd805049	-0.06265313
87	0x3cf1fa82	0.029538397
88	0x3de32f94	0.11093059
89	0x3bf9cfa4	0.0076236296
90	0x3e03c829	0.12869324
91	0x3dd2ba53	0.10289445
92	0x3c5b745c	0.013394441
93	0xbe34a41e	-0.1764073
94	0x3dcd2688	0.10017115
95	0xbe0c99e4	-0.1373058
96	0xbd5375b4	-0.051625922
97	0x3dcafef1	0.099119075
98	0x3e3b586a	0.18295446
99	0x3c3695a9	0.01114408
100	0xbcc49f56	-0.024001759
101	0xbde3520f	-0.11099636
102	0x3cc2720f	0.023736028
103	0xbcfe46c8	-0.03103961
104	0x3d7f461e	0.06232273
105	0x3df0d9c1	0.11760283
106	0x3a8d68fd	0.0010788735
107	0xbdc432fc	-0.09580037
108	0xbdb02a56	-0.08601825
109	0x3dd9b760	0.10630679
110	0x3d8ca749	0.068678446
111	0x3d860ab2	0.06545009
112	0x3dcc0491	0.099618085
113	0xbe0e77b0	-0.13912845
114	0x3d0c7298	0.034288973
115	0xbe0c10db	-0.13678305
116	0x3d5dfec1	0.05419803
117	0x3d41d8a0	0.04732573
118	0x3d0f4880	0.03498125
119	0xbdff01cd	-0.12451515
120	0x3c5a5e8e	0.013328208
121	0x3d9fb119	0.077974506
122	0x3e0961eb	0.13416259
123	0xbc4f2569	-0.012643197
124	0x3deed788	0.11662203
125	0x3d068fa2	0.032851823
126	0x3d8be795	0.0683128
127	0xbcec4a75	-0.028844098

fc.weight f4 [1, 64]
0	0xbd6be5e2	-0.05759228
1	0xbdcb40a0	-0.099244356
2	0x3d894722	0.06703021
3	0xbd2cbb5b	-0.042170864
4	0xbda5bc84	-0.08092597
5	0x3d5a9337	0.05336305
6	0xba102b8b	-0.00054996525
7	0x3d46e411	0.048557345
8	0x3de98c71	0.1140374
9	0x3e0eac98	0.13933027
10	0xbd96254e	-0.07331334
11	0x3da0b948	0.078478396
12	0x3d48a964	0.04898967
13	0x3d910865	0.07081679
14	0x3d3fb4cc	0.04680328
15	0xbced04c1	-0.02893293
16	0xbce364f2	-0.027758095
17	0xbccd73be	-0.025079604
18	0x3db9f977	0.09080785
19	0xbd9d334e	-0.07675801
20	0x3d3f1d0c	0.04665856
21	0x3e0e9dbf	0.13927363
22	0xbdf2c3cf	-0.11853754
23	0xbdaa3f5e	-0.083128676
24	0x3d509963	0.05092753
25	0xbdcd7773	-0.10032549
26	0xbd176518	-0.036961645
27	0xbdcbbd57	-0.09948223
28	0x3e017995	0.12644036
29	0x3cae1cfc	0.021254055
30	0xbd9ee617	-0.0775873
31	0xbc855897	-0.016277594
32	0xbd80a6a2	-0.06281783
33	0x3beeb352	0.0072845602
34	0x3dec8435	0.11548654
35	0xbdae733a	-0.085180715
36	0xbdf34b71	-0.11879624
37	0x3dce1a9a	0.100636676
38	0x3d952713	0.072828434
39	0xbc2ecb1b	-0.010668541
40	0xbdad1b9b	-0.08452531
41	0x3dded924	0.1088126
42	0xbe02ce62	-0.12774041
43	0x3cd04bd4	0.025426783
44	0xbdc337c5	-0.095321216
45	0x3d996221	0.0748942
46	0xbd634f98	-0.05549583
47	0x3c9362cf	0.017991452
48	0x3e0c301b	0.13690226
49	0xbca1aa65	-0.01973457
50	0xbcecf398	-0.028924748
51	0x3e07022c	0.13184422
52	0x3c6625dd	0.014047113
53	0x3dbce091	0.0922252
54	0xbd4d6f82	-0.05015517
55	0xbc43f3c8	-0.011959977
56	0x3b01b3e5	0.0019791063
57	0x3d3e2d9f	0.046430226
58	0xbd3b025a	-0.04565654
59	0x3d999d5c	0.07500717
60	0xbdcdd6fa	-0.10050769
61	0xbdddcb40	-0.108297825
62	0x3dd73f9e	0.10510181
63	0x3d1b2613	0.037878107
