best_model.pt (torch, 167714 bytes, 27 tensors)

conv1.weight f4 [16, 1, 5]
0.063722305 0.37664837 0.06453865 0.43216395 -0.3539915 0.21882796 0.03561475 -0.3113016
0.33878842 0.22601846 0.23955388 -0.13294972 -0.19808847 -0.14264458 -0.061414912 0.2622579
-0.22279593 -0.0702704 0.13198693 0.19865178 -0.042087026 -0.085575245 0.15994655 0.29512292
0.32558614 -0.18338953 0.23938689 0.2443454 -0.30986407 0.21364078 -0.033584286 0.27829078
0.2493025 -0.23353726 0.42679867 -0.14004043 -0.09940401 -0.36628798 0.45197076 0.51722455
-0.09375682 -0.34917748 0.44628975 -0.29286057 -0.28639337 0.033685062 -0.21345781 0.14693558
0.50057703 0.040749963 0.31492007 -0.2418989 -0.38496697 0.20916042 -0.22278146 -0.39560017
-0.04465786 -0.31524014 -0.5187898 -0.48511928 -0.3303419 0.10875591 -0.10292491 0.052410524
0.14480096 -0.2039334 0.10334011 -0.2022509 -0.26257402 -0.5054579 0.11970179 0.15984683
0.08443318 -0.19412181 -0.081861526 -0.14174558 -0.07031023 0.22756375 0.17012963 -0.38366535
00000000: d780 823d 0ed8 c03e d72c 843d 9844 dd3e
00000010: 603e b5be 7014 603e c6e0 113d ec62 9fbe
00000020: ad75 ad3e 6271 673e 9d4d 753e f923 08be
00000030: b4d7 4abe 6c11 12be 348e 7bbd ab46 863e
00000040: 9e24 64be ede9 8fbd 9527 073e 5f6b 4b3e
00000050: 7263 2cbd 1342 afbd 07c9 233e 5a1a 973e
00000060: 3ab3 a63e 77ca 3bbe d621 753e ae35 7a3e
00000070: 81a6 9ebe a6c4 5a3e ad8f 09bd 217c 8e3e
00000080: 2849 7f3e 6424 6fbe 5b85 da3e c266 0fbe
00000090: 5494 cbbd 198a bbbe b668 e73e d468 043f
000000a0: 9303 c0bd 64c7 b2be 1780 e43e d2f1 95be
000000b0: 27a2 92be 59f9 093d af94 5abe 4876 163e
000000c0: d125 003f 6fe9 263d 343d a13e 58b4 77be
000000d0: 641a c5be 262e 563e d320 64be 1b8c cabe
000000e0: 29eb 36bd 2867 a1be 69cf 04bf 8e61 f8be
000000f0: 9322 a9be 6bbb de3d 4cca d2bd 6bac 563d
00000100: b446 143e ebd3 50be fba3 d33d dc1a 4fbe
00000110: 1a70 86be b065 01bf 3626 f53d e3ae 233e
00000120: 4eeb ac3d dec7 46be 04a7 a7bd c125 11be
00000130: cffe 8fbd 7906 693e 7636 2e3e c96f c4be

conv1.bias f4 [16]
0.35114527 -0.18150802 -0.43945217 -0.21125454 0.06491536 -0.11296559 0.049990036 0.3814147
0.06458447 0.13484317 -0.27361923 0.13063769 0.081838116 0.36981076 0.20971407 -0.109931186
00000000: 50c9 b33e 3ddd 39be e0ff e0be 1c53 58be
00000010: 58f2 843d 815a e7bd 5ac2 4c3d ca48 c33e
00000020: dd44 843d 5414 0a3e d217 8cbe e3c5 053e
00000030: be9a a73d d657 bd3e 49bf 563e 9a23 e1bd

conv2.weight f4 [16, 16, 5]
0.012684688 0.21093015 0.19976814 0.07699122 -0.11267296 0.09663109 0.12433918 0.14325438
0.092540875 0.08758013 -0.060202345 -0.06547134 0.018274434 -0.06900732 -0.009559513 0.08548209
0.11793902 0.026752552 0.06954187 -0.010648884 0.0076007443 0.15183313 -0.0029631346 0.09236737
-0.046081044 0.12113277 0.08919458 0.057936724 0.09383221 0.0051823007 0.22376746 0.18932842
0.22323945 0.09608882 0.05246617 -0.09270443 -0.18304151 -0.16488107 -0.098401345 -0.13405564
-0.23653911 -0.13438255 -0.018687027 0.027730487 -0.12564056 0.06446866 -0.06119187 0.025214825
-0.091516666 -0.05616689 -0.00093060127 -0.1253842 -0.05683789 0.04740477 0.03998894 -0.2288752
-0.16294311 0.011594751 -0.089191966 -0.1507112 -0.18693662 -0.16835704 -0.21793005 -0.032995984
-0.044258136 -0.08733976 -0.21005909 0.059184376 -0.09397021 -0.1429746 0.11723329 0.14043686
0.20840754 -0.10067082 -0.07961463 -0.15026316 -0.024369558 -0.14465621 -0.03836076 0.10869435
0.11711316 0.045433044 0.035484105 0.09022964 0.121877044 0.1527409 0.07339959 0.09820335
-0.101631984 -0.0036779537 -0.063962586 -0.036748447 0.13015118 0.097902045 -0.03864626 0.012533888
0.006523589 0.012746969 0.014139827 -0.013910604 0.036362085 0.055229396 -0.010494793 0.10877054
0.049337458 0.117673844 -0.03131904 0.06420321 0.03751555 -0.08398955 0.015201951 0.13984181
0.052337144 0.12126446 0.16685648 -0.0443779 -0.017706068 0.049036294 0.17206684 0.12065152
-0.18805656 -0.11601469 -0.042219833 -0.0764591 0.018145941 0.08395218 0.073715724 0.102672145
0.12960911 0.113546744 -0.14192493 -0.1028684 0.06990241 0.039270334 0.112417065 0.023404093
-0.1533963 -0.05338316 0.13086045 0.08238992 -0.081237234 -0.04377012 -0.090259776 -0.04280287
-0.07393434 -0.117060184 -0.0935662 0.019297061 -0.05219751 0.039075818 0.082634784 0.070565574
0.020035807 0.0135280695 0.11273959 -0.10794093 -0.131817 0.017160513 0.01674977 -0.053977847
0.10875744 -0.005435846 0.028973917 -0.07300923 0.030916443 -0.02392557 0.1412266 0.18468809
-0.045181897 0.14286575 -0.021671519 -0.03230563 0.2552728 0.13667381 0.14352895 -0.10348524
0.08495769 0.244737 0.110349566 -0.014510726 0.07280311 -0.051788744 0.053479705 -0.15315722
0.021209525 0.010799244 0.15455014 0.039273933 0.13276422 0.030029941 0.044876736 -0.061340198
0.07876894 -0.14899914 -0.084993854 0.026262 -0.11004173 -0.035235178 -0.11469279 -0.08355745
0.06115551 -0.03223254 0.017687716 0.10923407 0.13557453 0.097560965 -0.04115137 -0.14002793
-0.010069358 0.0071279993 -0.041924346 0.052957553 0.10031068 0.015667351 0.0043543787 0.104516424
0.06200294 0.04796492 -0.052339762 -0.1575694 -0.08647007 -0.14256534 0.047347557 -0.17002346
-0.018311251 0.17136589 0.09025964 -0.18126 0.018561551 0.028350165 0.03360247 0.082893476
-0.027491156 -0.16056603 -0.02224567 0.034382712 -0.02751786 0.107792966 0.06767871 0.14717056
0.063441746 0.10298635 0.07609419 0.14573638 0.13749962 -0.05010548 -0.003026369 0.01942158
-0.17643557 -0.036392286 -0.046566654 -0.022165332 -0.042922802 -0.047989562 -0.10389172 -0.09223894
00000000: 70d3 4f3c 13fe 573e 0590 4c3e 93ad 9d3d
00000010: 15c1 e6bd 85e6 c53d 8aa5 fe3d 47b1 123e
00000020: 1286 bd3d 365d b33d bc96 76bd d715 86bd
00000030: 44b4 953c b653 8dbd 819f 1cbc 3c11 af3d
00000040: 038a f13d 2b28 db3c f86b 8e3d a878 2ebc
00000050: aa0f f93b 257a 1b3e 2631 42bb 1b2b bd3d
00000060: 7abf 3cbd 7514 f83d a6ab b63d 0f4f 6d3d
00000070: 1a2b c03d 4ad0 a93b 4c23 653e 4fdf 413e
00000080: e298 643e 37ca c43d c4e6 563d d2db bdbd
00000090: 3c6f 3bbe 95d6 28be a586 c9bd e245 09be
000000a0: 4f37 72be 949b 09be 8915 99bc 0c2b e33c
000000b0: eba7 00be 2508 843d 54a4 7abd 528f ce3c
000000c0: 176d bbbd 410f 66bd 98f3 73ba b764 00be
000000d0: d9ce 68bd 812b 423d 71cb 233d 435e 6abe
000000e0: 8fda 26be e9f7 3d3c 47aa b6bd 0954 1abe
000000f0: 506c 3fbe ca65 2cbe 0e29 5fbe cc26 07bd
00000100: 0548 35bd 30df b2bd bb19 57be 516b 723d
00000110: 7473 c0bd ef67 12be 0218 f03d aece 0f3e
00000120: c968 553e 812c cebd ff0c a3bd 96de 19be
00000130: aba2 c7bc c220 14be 2c20 1dbd 259b de3d
00000140: 06d9 ef3d 0018 3a3d c857 113d 51ca b83d
00000150: ac9a f93d 1c68 1c3e 8652 963d d71e c93d
00000160: 6e24 d0bd d309 71bb d1fe 82bd 8a85 16bd
00000170: 5a46 053e de80 c83d 8a4b 1ebd f05a 4d3c
00000180: d5c3 d53b aad8 503c bcaa 673c 4de9 63bc
00000190: 69f0 143d 3838 623d 5af2 2bbc 17c3 de3d
000001a0: 1316 4a3d fcfe f03d 6548 00bd f97c 833d
000001b0: e8a9 193d b702 acbd 9b11 793c b132 0f3e
000001c0: 795f 563d 8059 f83d 6ddc 2a3e 9ac5 35bd
000001d0: 510c 91bc 48da 483d 4a32 303e 2518 f73d
000001e0: e691 40be 1c99 edbd b4ee 2cbd 9796 9cbd
000001f0: cca6 943c 1fef ab3d 45f8 963d c645 d23d
00000200: 40b8 043e 328b e83d c554 11be abac d2bd
00000210: ff28 8f3d eed9 203d eb3a e63d f1b9 bf3c
00000220: eb13 1dbe 4da8 5abd 4800 063e 0cbc a83d
00000230: b55f a6bd 4c48 33bd 1eda b8bd 1052 2fbd
00000240: e36a 97bd 40bd efbd a39f bfbd df14 9e3c
00000250: 0ecd 55bd f70d 203d 6d3c a93d af84 903d
00000260: 2222 a43c d6a4 5d3c 04e4 e63d 2210 ddbd
00000270: 09fb 06be 3494 8c3c d036 893c e017 5dbd
00000280: 38bc de3d 2e1f b2bb b55a ed3c dd85 95bd
00000290: 7b44 fd3c 8fff c3bc b59d 103e e01e 3d3e
000002a0: a710 39bd 664b 123e 7888 b1bc e952 04bd
000002b0: 1eb3 823e 38f4 0b3e 41f9 123e 12f0 d3bd
000002c0: 4cfe ad3d 569c 7a3e f4fe e13d 65be 6dbc
000002d0: cc19 953d 6f20 54bd 890d 5b3d 3fd5 1cbe
000002e0: 99bf ad3c 50ef 303c 6442 1e3e b4dd 203d
000002f0: 58f3 073e 5a01 f63c abd0 373d dc3f 7bbd
00000300: 9c51 a13d 3b93 18be 4211 aebd 6823 d73c
00000310: 8f5d e1bd c352 10bd 0ee4 eabd 2b20 abbd
00000320: 337e 7a3d 4506 04bd d4e5 903c 1db6 df3d
00000330: 0dd4 0a3e 0bce c73d 578e 28bd 7b63 0fbe
00000340: f3f9 24bc fe91 e93b ddb8 2bbd 05ea 583d
00000350: b06f cd3d d158 803c 2daf 8e3b b50c d63d
00000360: cbf6 7d3d dd76 443d 3862 56bd df59 21be
00000370: 3817 b1bd a6fc 11be 83ef 413d a11a 2ebe
00000380: 7a01 96bc 8a7a 2f3e 0cda b83d 399c 39be
00000390: 650e 983c 9b3e e83c bea2 093d 0ec4 a93d
000003a0: 2235 e1bc 6c6b 24be 8d3c b6bc e3d4 0c3d
000003b0: 236d e1bc 8fc2 dc3d 239b 8a3d e1b3 163e
000003c0: bfed 813d 82ea d23d 45d7 9b3d eb3b 153e
000003d0: b3cc 0c3e 673b 4dbd 0c56 46bb 011a 9f3c
000003e0: 87ab 34be 1410 15bd adbc 3ebd 1294 b5bc
000003f0: d2cf 2fbd b490 44bd 2fc5 d4bd c5e7 bcbd

conv2.bias f4 [16]
0.1518841 0.028815323 -0.1540094 0.097128 -0.10622725 -0.010808274 -0.04728996 0.090904064
-0.051803075 -0.11988466 0.049353573 -0.14829901 0.0869089 0.054656874 -0.018025002 0.019901188
00000000: 8187 1b3e 1d0e ec3c a4b4 1dbe 0beb c63d
00000010: ac8d d9bd 3015 31bc 1eb3 41bd e92b ba3d
00000020: 762f 54bd 1786 f5bd f926 4a3d b2db 17be
00000030: 4bfd b13d e3df 5f3d 2ba9 93bc d107 a33c

batchnorm.weight f4 [16]
1.1161039 1.0509013 0.84556854 0.93951946 0.880792 0.98737377 0.933166 0.90145624
0.92690337 0.9712765 1.0471951 0.8689167 0.9634335 0.9499513 1.0036898 0.9954963
00000000: 7edc 8e3f ef83 863f 2e77 583f 5984 703f
00000010: 967b 613f 87c4 7c3f f8e3 6e3f d6c5 663f
00000020: 8a49 6d3f 94a5 783f 7d0a 863f 5371 5e3f
00000030: 94a3 763f 0230 733f e878 803f d8d8 7e3f

batchnorm.bias f4 [16]
0.013480705 -0.017618205 0.042423405 0.010499606 -0.027112877 -0.08496817 0.0007897215 0.021781076
-0.08944171 0.06949583 -0.008642042 0.025112223 0.06261739 0.019331157 0.00041197496 -0.06590692
00000000: 2dde 5c3c 0e54 90bc 2ac4 2d3d 8a06 2c3c
00000010: d31b debc cb03 aebd 5005 4f3a 3a6e b23c
00000020: 372d b7bd d453 8e3d 5a97 0dbc 26b8 cd3c
00000030: 8c3d 803d 605c 9e3c 58fe d739 35fa 86bd

batchnorm.running_mean f4 [16]
-0.04018821 0.1378228 -0.1811484 0.26091373 -0.06820866 0.3115953 0.42137465 0.09497591
-0.015182194 -0.26429206 0.31858322 -0.002843959 0.26145434 0.001808585 0.11385401 0.0028334085
00000000: 649c 24bd 6c21 0d3e f77e 39be 7c96 853e
00000010: fbb0 8bbd 6b89 9f3e 6bbe d73e bb82 c23d
00000020: bdbe 78bc 4a51 87be 571d a33e b761 3abb
00000030: 58dd 853e 0b0e ed3a 4b2c e93d b5b0 393b

batchnorm.running_var f4 [16]
0.11593035 0.23601691 0.054249834 0.043758288 0.13847283 0.062078007 0.27617067 0.037027635
0.030121904 0.0042237826 0.1441328 0.09147099 0.02925333 0.017642774 0.15170908 0.005192605
00000000: e46c ed3d 6bae 713e 1335 5e3d e43b 333d
00000010: d2cb 0d3e 8245 7e3d 3e66 8d3e 4aaa 173d
00000020: 36c2 f63c a867 8a3b 8c97 133e 2455 bb3d
00000030: aea4 ef3c 9487 903c a059 1b3e ba26 aa3b

fc_small.weight f4 [16, 16]
-0.16077618 0.08946997 -0.14489448 0.07123504 -0.06527222 0.13850254 0.10927959 0.18123642
-0.028357282 -0.105307795 -0.13220161 0.03441126 0.07449169 -0.020380322 -0.053051017 -0.11436557
-0.11258655 -0.064491965 0.02238635 -0.01697764 0.074353516 0.1261077 0.09527416 -0.18226747
0.2556691 -0.14002384 0.23838161 0.01590795 0.11597703 -0.15001822 0.14316678 -0.010894677
0.28157046 -0.29793388 -0.14289564 0.08462157 0.17958677 -0.060498115 0.12926257 -0.09608227
0.17017217 -0.07959613 -0.2571621 -0.009755919 0.017368823 -0.19216989 0.097443104 0.029144533
-0.17005767 0.038334258 0.043665025 -0.14314908 -0.22230133 0.01711297 0.31385893 -0.053038474
-0.16325372 -0.21470633 -0.13068846 0.0033095242 -0.13325231 0.1119684 0.14988016 -0.106555864
0.05333893 0.027220037 0.09421482 -0.02876477 0.061546735 -0.115461715 0.2559095 0.24216203
0.18006349 -0.2112607 -0.044490956 0.0074086376 0.1416835 0.19357441 -0.16923763 -0.10866584
-0.15614018 -0.26560473 -0.18851867 -0.06461764 -0.030103898 -0.15766947 0.21385689 0.18686791
-0.1266419 -0.08302096 0.020473458 -0.030724429 -0.088684805 -0.14857592 0.072164066 0.33285114
-0.23055254 -0.031610716 -0.13176787 0.037129812 -0.050798632 0.0781072 -0.20898202 0.23557459
0.12336237 -0.17356862 -0.35309246 -0.17050113 -0.28000483 0.023343159 -0.14064163 0.27948588
0.13219608 -0.049251154 0.115102306 0.17683636 -0.054326292 0.18049152 0.09848015 -0.09018725
0.2674657 0.17967962 0.17398487 0.12343298 0.019566612 -0.062034488 0.30382374 0.077186935
0.13029964 -0.18851785 0.067171216 0.19630943 -0.1257989 -0.20093073 0.16437246 -0.033340134
-0.11464949 -0.2741872 0.23893864 0.21405184 -0.19756652 -0.1382362 0.06673525 -0.11897932
0.059220694 -0.21864247 -0.092775576 0.15883923 0.2573688 -0.11175898 -0.18073118 -0.13998629
-0.07031112 -0.035869204 0.24300404 -0.031584073 -0.15975112 0.16179891 0.008278308 0.16393295
-0.23662138 0.18349105 0.061553866 -0.20996544 -0.18586984 -0.046983458 0.10505367 0.08147706
0.20790386 0.025513012 0.19272949 -0.09146942 0.17549914 -0.09943217 0.028278887 0.026129492
0.14670989 0.26130491 -0.1439723 -0.1026698 -0.052236497 -0.15419999 -0.12119396 -0.20798638
-0.12840083 0.23950332 0.20096795 -0.08996617 -0.085783996 -0.042245 0.00059006654 -0.013736147
0.058372587 -0.03196177 0.14672786 0.086521566 0.22096686 0.26977792 -0.0309732 -0.1295172
-0.08040995 0.2619053 0.1414468 -0.16071825 -0.16850717 0.27564937 -0.08486407 0.2310874
0.3016842 -0.28843835 0.23617305 -0.09287884 0.02097927 -0.15513803 0.023925047 -0.25972825
0.11169373 0.22780545 -0.2606292 -0.14743519 0.033276793 -0.26013422 -0.26777044 -0.058305293
-0.18604599 -0.049053576 -0.1143512 0.028032362 0.29067704 0.13147089 0.056596514 0.08434613
0.27379045 -0.14030887 0.014333825 0.095271155 -0.3335781 0.18093058 0.11788466 0.0033342242
-0.1707422 -0.13819581 -0.228293 0.30711004 -0.059453465 0.053328034 -0.029576693 0.17300032
0.1986448 0.08376851 -0.07158395 -0.29975665 -0.081850655 -0.16073522 0.14705594 -0.07297387
00000000: 83a2 24be 083c b73d 385f 14be ade3 913d
00000010: 71ad 85bd 9cd3 0d3e facd df3d 0a96 393e
00000020: 884d e8bc 9dab d7bd dc5f 07be d2f2 0c3d
00000030: 198f 983d a2f4 a6bc 064c 59bd 7f38 eabd
00000040: c793 e6bd 5d14 84bd 9463 b73c b114 8bbc
00000050: a846 983d 6022 013e 191f c33d 53a4 3abe
00000060: 0fe7 823e 6962 0fbe 4f1a 743e 6451 823c
00000070: 5d85 ed3d 609e 19be 509a 123e 967f 32bc
00000080: 012a 903e ca8a 98be 3c53 12be 134e ad3d
00000090: 98e5 373e dfcc 77bd 685d 043e c8c6 c4bd
000000a0: 9d41 2e3e 4c03 a3bd c0aa 83be 4ad7 1fbc
000000b0: 1049 8e3c 2fc8 44be 4090 c73d 84c0 ee3c
000000c0: 9923 2ebe 6204 1d3d 19da 323d ac95 12be
000000d0: f6a2 63be 8030 8c3c 1eb2 a03e df3e 59bd
000000e0: fc2b 27be fadb 5bbe 32d3 05be 9ae4 583b
000000f0: 4b73 08be b04f e53d 2f7a 193e f639 dabd
00000100: ec79 5a3d 8efc de3c b3f3 c03d 18a4 ebbc
00000110: 6e18 7c3d 3177 ecbd 9206 833e 53f9 773e
00000120: 9062 383e ba54 58be 263c 36bd 28c4 f23b
00000130: 7b15 113e 5f38 463e a14c 2dbe 328c debd
00000140: 36e3 1fbe 58fd 87be 0a0b 41be 4156 84bd
00000150: 739c f6bc 1b74 21be 4dfd 5a3e 4d5a 3f3e
00000160: 6aae 01be e506 aabd f4b7 a73c ccb1 fbbc
00000170: 61a0 b5bd 4924 18be c1ca 933d 776b aa3e
00000180: f715 6cbe 3d7a 01bd 28ee 06be 6e15 183d
00000190: 3a12 50bd abf6 9f3d 62ff 55be 773a 713e
000001a0: 69a5 fc3d f9bb 31be 89c8 b4be d997 2ebe
000001b0: cb5c 8fbe 273a bf3c 5c04 10be c618 8f3e
000001c0: 695e 073e 94bb 49bd c2ba eb3d 9714 353e
000001d0: 3f85 5ebd c5d2 383e f6af c93d 18b4 b8bd
000001e0: 44f1 883e effd 373e 1729 323e 6eca fc3d
000001f0: 294a a03c e017 7ebd c98e 9b3e 2f14 9e3d
00000200: 456d 053e d30a 41be 1091 893d 5705 493e
00000210: 6dd1 00be c9c0 4dbe 4151 283e aa8f 08bd
00000220: 5acd eabd 4462 8cbe 55ac 743e 6830 5b3e
00000230: e14e 4abe ca8d 0dbe 7eac 883d 6eab f3bd
00000240: 6691 723d d0e3 5fbe 1f01 bebd c0a6 223e
00000250: d8c5 833e e4e1 e4bd 9811 39be 9158 0fbe
00000260: 47ff 8fbd 96eb 12bd 0dd6 783e 4d5e 01bd
00000270: cc95 23be 9dae 253e bea1 073c 0ade 273e
00000280: e04c 72be 14e5 3b3e e81f 7c3d 2e01 57be
00000290: aa54 3ebe ba71 40bd 6126 d73d 72dd a63d
000002a0: c0e4 543e aa00 d13c e15a 453e 5254 bbbd
000002b0: 0cb6 333e 18a3 cbbd 20a9 e73c 840d d63c
000002c0: 1e3b 163e c2c9 853e 7a6d 13be 8b44 d2bd
000002d0: f0f5 55bd 9ae6 1dbe 8a34 f8bd 62fa 54be
000002e0: 827b 03be 5c40 753e 8bca 4d3e 2f40 b8bd
000002f0: 85af afbd 1809 2dbd b2ae 1a3a 940d 61bc
00000300: 1818 6f3d 58ea 02bd d43f 163e 3832 b13d
00000310: 2345 623e 5520 8a3e 82bb fdbc 28a0 04be
00000320: f9ad a4bd 7418 863e 6ed7 103e 5393 24be
00000330: 258d 2cbe ea21 8d3e 37cd adbd 2da2 6c3e
00000340: 5a76 9a3e 31ae 93be 59d7 713e 4337 bebd
00000350: b8dc ab3c 81dc 1ebe 76fe c33c 1afb 84be
00000360: afbf e43d d545 693e 3171 85be 40f9 16be
00000370: 3f4d 083d 5030 85be 3519 89be 88d1 6ebd
00000380: d782 3ebe 67ec 48bd f630 eabd 20a4 e53c
00000390: 9fd3 943e 4ea0 063e bfd1 673d aabd ac3d
000003a0: 432e 8c3e 21ad 0fbe 6bd8 6a3c 861d c33d
000003b0: c0ca aabe de45 393e 836d f13d 0083 5a3b
000003c0: 0bd7 2ebe 3483 0dbe a4c5 69be 873d 9d3e
000003d0: 7a85 73bd 7f6e 5a3d d24a f2bc ff26 313e
000003e0: 8b69 4b3e d38e ab3d 9b9a 92bd b479 99be
000003f0: 51a1 a7bd c697 24be d595 163e 5373 95bd

fc_small.bias f4 [16]
-0.07289573 0.016176326 0.21202993 -0.014077369 -0.06651686 -0.109840885 -0.039396785 -0.06233904
-0.009997683 -0.15382832 0.2073623 0.096823364 0.11789205 -0.17087221 0.07589009 -0.078107975
00000000: 5b4a 95bd 3784 843c 601e 593e c4a4 66bc
00000010: fe39 88bd 42f4 e0bd 865e 21bd 3957 7fbd
00000020: 52cd 23bc 2c85 1dbe c856 543e 544b c63d
00000030: 6371 f13d 20f9 2ebe 436c 9b3d 13f7 9fbd

lstm.weight_ih_l0 f4 [128, 16]
0.050887316 -0.21364674 0.057756104 -0.13954052 0.12304113 -0.008014378 0.04087842 -0.12479064
-0.27786577 -0.08017974 -0.14049879 -0.083550006 -0.09355355 -0.12530889 -0.18703847 0.09465154
-0.16319962 -0.07173829 -0.16436931 -0.13807048 0.04773334 0.08305597 -0.06257716 -0.12598667
0.05284299 -0.1415635 0.099577434 0.079997286 0.09144338 0.14016593 -0.008917715 -0.07524303
0.30973288 -0.1364854 -0.099196255 0.20043346 0.18501705 0.093186244 0.017891152 0.09147346
-0.03348657 0.082015604 -0.15542793 -0.2423758 0.040257677 -0.0067577274 0.14670405 0.25914222
0.08120164 0.11497917 -0.089460544 0.098074086 -0.035885166 0.05157211 -0.028153867 -0.06903947
0.1192135 0.13995694 0.097190484 0.117503226 0.025434434 0.10915027 0.09856555 0.041206274
0.19367886 0.01977534 -0.09942607 -0.14246124 0.011380763 -0.1354812 0.008246623 0.035980742
-0.10139455 -0.15917152 0.1350657 0.07408546 0.17787026 -0.17748544 -0.14202824 0.096574664
0.19768687 -0.09317458 -0.04408314 0.20828235 -0.101223536 -0.17733754 0.18519652 -0.12799041
0.08532261 0.055389024 -0.10849001 -0.057349388 -0.064451836 -0.15122132 -0.11946053 0.0810405
0.0031431385 -0.079814255 -0.04856194 0.18124652 0.1595405 0.09028186 0.14980447 -0.056508686
0.031544454 0.06784827 -0.17771946 -0.041237764 -0.20452003 0.12277421 -0.036675584 0.1564966
0.22572793 -0.22394559 -0.1940621 0.1187415 0.23108633 0.02401516 0.104356475 0.10125567
-0.08147682 0.056208182 0.048410516 -0.18769804 -0.07812223 0.029074615 0.092815064 0.05804677
-0.030604519 -0.1196224 -0.15380509 0.2457402 0.06646898 -0.04956269 -0.03960418 0.04958502
-0.07889357 -0.055552304 -0.104645334 0.11024447 0.09173375 -0.04090343 0.023371587 0.019223632
0.02326371 0.05040374 0.08469205 -0.24056704 -0.20702152 -0.02003322 -0.12691914 -0.101552926
-0.13398698 0.12625706 -0.087736845 0.07946251 -0.07679466 0.118795626 -0.036110602 -0.04774795
-0.00060584757 -0.25762007 -0.23105493 0.13104826 -0.017111573 0.20718147 -0.054111246 -0.019973392
0.0024631384 -0.11405367 -0.1788775 -0.2531221 0.021062842 -0.02494508 -0.13183846 0.25494614
-0.10169334 -0.1654908 0.12331373 0.07262195 -0.05084789 0.19408055 0.11610551 0.15013972
0.15611133 0.039985467 -0.18793124 -0.024589822 0.0036984629 -0.03156145 -0.07010602 0.10836562
0.14940415 -0.263461 0.021009458 -0.051134385 0.007144531 0.24089779 -0.15086906 -0.02918796
0.17699566 0.10167309 0.044277567 0.16121008 0.0384148 0.0746082 -0.13250357 0.2208274
0.09865725 -0.1332707 0.05186957 0.04430603 0.0074727796 -0.0854168 0.14605004 0.13213886
-0.08329485 0.118395805 0.14969613 0.12846024 -0.10440713 -0.00910239 0.089060485 0.12845634
0.19726123 -0.2538308 0.06696157 0.020199742 -0.026221367 -0.081536174 0.0042085676 0.048481923
0.09557538 0.18621586 -0.07370259 0.10980947 -0.03081863 0.21699671 0.06474127 0.07934763
0.07172104 -0.09514418 0.11619407 -0.009860779 -0.050597105 -0.06323411 0.050914247 -0.08704914
0.033968262 -0.14497551 0.117168605 -0.01874747 -0.024282662 0.009638933 0.0901059 -0.16821648
00000000: 386f 503d 36c6 5abe aa91 6c3d b6e3 0ebe
00000010: fdfc fb3d bd4e 03bc 2170 273d 3c92 ffbd
00000020: 6c44 8ebe 4735 a4bd eade 0fbe 441c abbd
00000030: 0199 bfbd f950 00be 0387 3fbe abd8 c13d
00000040: cd1d 27be 86eb 92bd 6e50 28be 5962 0dbe
00000050: 0984 433d 4019 aa3d 7428 80bd a602 01be
00000060: e471 583d 06f6 10be 41ef cb3d 9ed5 a33d
00000070: ab46 bb3d a887 0f3e 9c1b 12bc 0519 9abd
00000080: 4f95 9e3e d4c2 0bbe 6827 cbbd 6e3e 4d3e
00000090: 1c75 3d3e 6ed8 be3d 7790 923c 7056 bb3d
000000a0: 3729 09bd ccf7 a73d 8028 1fbe 5d31 78be
000000b0: 3ce5 243d ed6f ddbb 9639 163e 4aae 843e
000000c0: 0c4d a63d 337a eb3d 1737 b7bd 11db c83d
000000d0: 53fc 12bd 473d 533d f0a2 e6bc 9164 8dbd
000000e0: 3526 f43d df50 0f3e ce0b c73d 88a5 f03d
000000f0: e05b d03c 2d8a df3d bcdc c93d e9c7 283d
00000100: c053 463e e5ff a13c e59f cbbd 5ce1 11be
00000110: 6176 3a3c 95bb 0abe d81c 073c 8b60 133d
00000120: f2a7 cfbd dcfd 22be aa4e 0a3e 1eba 973d
00000130: 9f23 363e bebe 35be da6f 11be f0c8 c53d
00000140: 6d6e 4a3e 50d2 bebd 8690 34bd f847 553e
00000150: 494e cfbd f997 35be 28a4 3d3e eb0f 03be
00000160: 9fbd ae3d 9adf 623d 0330 debd 31e7 6abd
00000170: 53ff 83bd c3d9 1abe b9a7 f4bd 90f8 a53d
00000180: 1dfd 4d3b a875 a3bd e3e8 46bd b098 393e
00000190: 965e 233e b2e5 b83d 5866 193e a775 67bd
000001a0: c234 013d 09f4 8a3d 17fc 35be eee8 28bd
000001b0: b36d 51be 0c71 fb3d 2339 16bd a540 203e
000001c0: 3925 673e fe51 65be 37b8 46be be2e f33d
000001d0: e5a1 6c3e 71bb c43c d9b8 d53d 225f cf3d
000001e0: 52dd a6bd 8d3a 663d 1b4a 463d ea33 40be
000001f0: 8cfe 9fbd e32d ee3c d315 be3d 73c2 6d3d
00000200: 54b6 fabc 97fc f4bd 157f 1dbe 52a3 7b3e
00000210: e320 883d 3f02 4bbd fe37 22bd a919 4b3d
00000220: f492 a1bd d08a 63bd 4b50 d6bd dac7 e13d
00000230: e8de bb3d 5b8a 27bd c575 bf3c e17a 9d3c
00000240: 8993 be3c 2774 4e3d 0773 ad3d 3557 76be
00000250: 73fd 53be b51c a4bc 17f7 01be fbfa cfbd
00000260: e233 09be 8849 013e 60af b3bd 3ebd a23d
00000270: 8546 9dbd 1f4b f33d b6e8 13bd 5b93 43bd
00000280: bed1 1eba c7e6 83be aa99 6cbe 8431 063e
00000290: 922d 8cbc 6127 543e c1a3 5dbd 3d9f a3bc
000002a0: 9b6c 213b f894 e9bd aa2b 37be 3899 81be
000002b0: fb8b ac3c a059 ccbc a900 07be 4d88 823e
000002c0: 9944 d0bd 6c76 29be e98b fc3d d1ba 943d
000002d0: e145 50bd 0dbd 463e bac8 ed3d 3abe 193e
000002e0: a6db 1f3e cdc7 233d 0c71 40be 9870 c9bc
000002f0: e961 723b 9446 01bd bf93 8fbd cbee dd3d
00000300: 67fd 183e 5ce4 86be 071c ac3c 4a72 51bd
00000310: ab1c ea3b e9ad 763e 6b7d 1abe 971b efbc
00000320: 5a3e 353e fb39 d03d 655c 353d 4114 253e
00000330: d658 1d3d 2fcc 983d 04af 07be 9420 623e
00000340: d00c ca3d 1d78 08be 3075 543d 3d7a 353d
00000350: 38de f43b 01ef aebd 248e 153e 694f 073e
00000360: 7e96 aabd 8079 f23d f149 193e 158b 033e
00000370: 68d3 d5bd 3122 15bc 5865 b63d 0f8a 033e
00000380: d9fe 493e 1cf6 81be 2623 893d ee79 a53c
00000390: 31ce d6bc 70fc a6bd 06e8 893b fb94 463d
000003a0: 06bd c33d 5faf 3e3e 62f1 96bd cae3 e03d
000003b0: 5a77 fcbc 6334 5e3e 1297 843d 0381 a23d
000003c0: 7be2 923d f4da c2bd 28f7 ed3d 1b8f 21bc
000003d0: e93e 4fbd e380 81bd 758b 503d d246 b2bd
000003e0: 4e22 0b3d 7674 14be 18f6 ef3d 4b94 99bc
000003f0: 6fec c6bc 9eec 1d3c 7189 b83d f140 2cbe

lstm.weight_hh_l0 f4 [128, 32]
0.11792737 -0.18593772 0.25165024 0.17185166 0.06445642 0.14757298 0.15331233 -0.059486564
0.20694636 -0.04871397 -0.2003303 0.030303169 0.14605416 0.15731195 -0.07081067 -0.15891203
0.1278736 -0.15931728 -0.08764461 0.16382556 -0.094733566 0.28090692 0.06861289 0.06799907
0.03283093 0.21333696 0.009021154 -0.056434087 0.11205808 -0.05599717 0.0024553903 -0.06066807
-0.15141192 -0.08013137 0.040235084 0.12248935 -0.1007559 0.00319117 -0.042271163 0.0742785
0.09063526 0.12383483 -0.2915487 -0.064039305 -0.055538736 -0.10132579 0.18643002 0.10380866
0.12792307 -0.049622476 -0.022348931 0.0116220275 -0.03745735 0.212933 0.20364797 -0.17706999
0.16294917 0.17283376 0.144334 0.06653534 -0.145863 -0.07547967 -0.03589613 -0.018785166
-0.22153084 -0.11492164 0.21311347 0.13901088 0.18984792 -0.049954627 0.038979415 0.08390311
-0.01770499 0.050058387 -0.22001752 0.2159028 -0.027226787 -0.08358979 0.22275905 -0.18970087
0.03862324 -0.08945967 -0.04900304 0.20791677 -0.025020309 0.08554874 0.097640604 -0.018552499
0.015962286 0.18127647 0.06581755 -0.05484004 -0.18450317 -0.13232957 -0.065013275 0.20021464
-0.08282738 0.027573207 0.12698299 -0.022764463 -0.12970652 -0.035948098 -0.05677428 -0.0316464
-0.09115509 0.05819139 0.05196759 0.052590244 -0.0049509797 0.054805502 -0.09501721 -0.13980259
-0.18326972 0.14319333 -0.030310294 0.010954362 0.0072342893 0.13730636 0.11005173 0.012050699
0.12505421 -0.045904472 0.017521225 -0.12230784 0.10702661 -0.0106456 0.08970574 0.0664233
0.09532688 -0.11803677 0.24680385 -0.060588762 0.19729964 0.077543475 -0.1126776 -0.041053105
-0.10598266 0.13447128 -0.21161795 0.06605255 -0.08267101 0.07880562 -0.024363799 -0.17074907
0.09923322 -0.07447003 0.16321613 0.13975787 -0.07735461 0.055262763 -0.05013458 -0.18763238
-0.2069182 0.15300593 0.028612452 0.086800784 -0.045541015 0.0943829 0.045403473 0.035479862
0.09337462 -0.22132903 0.11959616 0.102793865 0.09097837 0.11282777 0.11182971 -0.004695164
0.09051257 -0.09591481 -0.1059195 0.099346675 0.2544752 -0.06969611 0.106950834 -0.08599884
0.019489752 0.0925919 -0.043888837 0.014769476 -0.033026233 0.13270758 0.009728132 -0.19608703
0.028969115 -0.0760035 -0.0607638 -0.21868064 -0.16254546 -0.17169449 -0.073199 -0.03547749
-0.070354044 -0.120223485 0.010507659 -0.0702262 -0.115083024 0.12099209 0.11763013 0.19416885
0.054824322 -0.19978172 -0.1035704 0.1891128 -0.062670454 0.16869155 0.16695473 0.05442585
-0.0116587095 0.015519024 0.13945805 0.1994848 0.06821728 -0.06556686 -0.10487381 -0.17096652
0.08825068 0.033099126 -0.060449 0.016753076 0.041057114 0.116468854 0.15601146 0.21208511
-0.22041118 -0.0684284 0.122021504 0.09309913 0.17664346 0.08726937 0.054506127 0.12611975
0.21802054 0.015679682 0.09749845 0.24234585 0.03250819 0.11457398 -0.046413787 0.09172114
0.043105643 0.004414282 -0.08873072 0.23427139 -0.0061001554 -0.10249744 -0.07016542 0.052284
-0.014421907 0.18980126 -0.07713368 -0.20653203 -0.04745332 -0.16907239 0.26138017 0.028718153
00000000: e883 f13d 7566 3ebe 4dd8 803e e2f9 2f3e
00000010: ba01 843d 5f1d 173e e8fd 1c3e 2fa8 73bd
00000020: bfe9 533e 4d88 47bd 6323 4dbe 5a3e f83c
00000030: 398f 153e 6216 213e 2f05 91bd d6b9 22be
00000040: 4cf1 023e 1224 23be 047f b3bd e3c1 273e
00000050: ac03 c2bd 08d3 8f3e ea84 8c3d 1943 8b3d
00000060: ba79 063d 0175 5a3e 76cd 133c 6e27 67bd
00000070: b57e e53d 4a5d 65bd 9dea 203b 157f 78bd
00000080: ba0b 1bbe ea1b a4bd 8bcd 243d b2db fa3d
00000090: 1c59 cebd f322 513b 8724 2dbd 541f 983d
000000a0: fb9e b93d 1e9d fd3d df45 95be 0a27 83bd
000000b0: 967c 63bd e583 cfbd 83e7 3e3e a299 d43d
000000c0: 44fe 023e f040 4bbd 1b15 b7bc 516a 3e3c
000000d0: e16c 19bd 1c0b 5a3e 1889 503e d651 35be
000000e0: 26dc 263e 55fb 303e 4bcc 133e ae43 883d
000000f0: 1c5d 15be 1695 9abd d207 13bd 59e3 99bc
00000100: fbd8 62be 095c ebbd 6b3a 5a3e de58 0e3e
00000110: 7e67 423e 399d 4cbd e1a8 1f3d 65d5 ab3d
00000120: 0e0a 91bc 060a 4d3d 464c 61be a015 5d3e
00000130: b60a dfbc 2031 abbd f31a 643e f240 42be
00000140: 6733 1e3d a236 b7bd 69b7 48bd 22e8 543e
00000150: 64f7 ccbc 2e34 af3d ccf7 c73d 69fb 97bc
00000160: 57c3 823c 8aa0 393e 5acb 863d f39f 60bd
00000170: 66ee 3cbe 6781 07be ae25 85bd 1105 4d3e
00000180: 67a1 a9bd 35e1 e13c d407 023e 8a7c babc
00000190: c9d1 04be 503e 13bd 268c 68bd a89f 01bd
000001a0: 85af babd 185a 6e3d f8db 543d de68 573d
000001b0: d43b a2bb bc7b 603d 6298 c2bd 6928 0fbe
000001c0: 0fab 3bbe 46a1 123e 4b4d f8bc ed79 333c
000001d0: 9e0d ed3b 0a9a 0c3e cd62 e13d 4c70 453c
000001e0: 360e 003e 5406 3cbd ac88 8f3c 887c fabd
000001f0: c430 db3d e26a 2ebc a5b7 b73d f008 883d
00000200: bd3a c33d 43bd f1bd 26ba 7c3e ec2b 78bd
00000210: eb08 4a3e 1dcf 9e3d 83c3 e6bd 4d27 28bd
00000220: 700d d9bd d7b2 093e 60b2 58be 8f46 873d
00000230: 6b4f a9bd d764 a13d 9796 c7bc d8d8 2ebe
00000240: c93a cb3d be83 98bd 2122 273e b01c 0f3e
00000250: 186c 9ebd 355b 623d eb59 4dbd b422 40be
00000260: 5de2 53be 96ad 1c3e a964 ea3c 9cc4 b13d
00000270: 3789 3abd d24b c13d fef8 393d 5553 113d
00000280: 313b bf3d 14a4 62be d5ee f43d 9785 d23d
00000290: de52 ba3d 3f12 e73d fa06 e53d e4d9 99bb
000002a0: a85e b93d fc6e c4bd 53ec d8bd 4576 cb3d
000002b0: 934a 823e d6bc 8ebd 0a09 db3d 2920 b0bd
000002c0: f9a8 9f3c d2a0 bd3d c8c4 33bd acfb 713c
000002d0: 8446 07bd 7fe4 073e be62 1f3c 0acb 48be
000002e0: a350 ed3c b9a7 9bbd 76e3 78bd d1ed 5fbe
000002f0: 5172 26be aed0 2fbe 5be9 95bd d850 11bd
00000300: c815 90bd bb37 f6bd 5128 2c3c c1d2 8fbd
00000310: a6b0 ebbd b3ca f73d 11e8 f03d 33d4 463e
00000320: 788f 603d 9493 4cbe b81c d4bd c9a6 413e
00000330: 5e59 80bd 7abd 2c3e 2ef6 2a3e a4ed 5e3d
00000340: 2c04 3fbc 8143 7e3c 17ce 0e3e be45 4c3e
00000350: 80b5 8b3d eb47 86bd 15c8 d6bd d911 2fbe
00000360: c6bc b43d f392 073d 5f99 77bd bf3d 893c
00000370: 812b 283d 3987 ee3d 78c1 1f3e d72c 593e
00000380: 78b3 61be 3024 8cbd 69e6 f93d c2aa be3d
00000390: 06e2 343e 49ba b23d d141 5f3d 8925 013e
000003a0: c740 5f3e ad72 803c 44ad c73d 8329 783e
000003b0: 4f27 053d c3a5 ea3d 621c 3ebd 4bd8 bb3d
000003c0: 8b8f 303d aea5 903b 74b8 b5bd d7e4 6f3e
000003d0: d0e3 c7bb 2eea d1bd e3b2 8fbd bf27 563d
000003e0: dd49 6cbc 435b 423e 43f8 9dbd 227d 53be
000003f0: 6a5e 42bd 5021 2dbe 9fd3 853e 5542 eb3c

lstm.bias_ih_l0 f4 [128]
-0.16639298 -0.21337205 -0.16222706 0.13798055 0.13020849 0.029701956 -0.14284995 -0.15612191
-0.12978674 0.13826086 -0.15643139 -0.05712421 0.017985182 -0.11190775 -0.14689462 0.076777704
0.053212464 -0.19717713 -0.16795729 -0.112159014 -0.09801332 -0.31248486 -0.03097821 -0.14540952
-0.2105704 0.019064525 0.034165997 0.04279525 -0.10504281 0.04368803 -0.2558854 -0.13165125
-0.012437352 -0.18395472 -0.07814901 -0.026292872 0.12927198 0.060969617 -0.06361261 -0.034466
-0.1262502 0.025244923 -0.1297152 -0.04982891 0.017026847 -0.049474914 -0.20743555 0.18974577
-0.0007534326 -0.22509652 -0.19320779 0.13742389 -0.049400955 -0.17823607 -0.17186522 -0.054039404
-0.09152491 -0.08600843 -0.11892169 -0.08229992 -0.15928076 -0.031142911 -0.04149803 -0.14931022
0.14620325 0.15367766 -0.07854596 -0.21578832 -0.12330386 -0.17310318 -0.10675324 -0.05181094
-0.19046272 0.17763859 -0.00778611 -0.13127087 0.11703585 -0.04007983 -0.053606562 0.24251743
-0.116895005 0.04029964 -0.13534054 -0.21344027 -0.114504 -0.008404691 -0.22302824 0.064046234
-0.13793764 -0.24144652 -0.05054133 0.06491359 0.0055173887 0.13905832 -0.033064075 0.05192668
-0.024905864 -0.17938034 0.055468567 -0.15518908 0.12229519 -0.1549956 -0.13249528 -0.12252737
-0.18161258 0.055621047 -0.12680282 -0.007590433 -0.07708711 0.0063361996 -0.09712219 0.09117707
0.10633949 -0.11237071 0.012106556 0.0635032 -0.11376575 -0.3068309 -0.07098419 -0.28614062
-0.1009254 -0.13405713 0.04131639 -0.047961503 0.046881612 0.11463226 -0.100000344 0.046744533
00000000: ec62 2abe 347e 5abe da1e 26be c64a 0d3e
00000010: 6055 053e 8451 f33c 4247 12be 6cde 1fbe
00000020: d1e6 04be 4194 0d3e 8d2f 20be 13fb 69bd
00000030: a955 933c e42f e5bd 8b6b 16be a13d 9d3d
00000040: 50f5 593d cde8 49be fffc 2bbe a0b3 e5bd
00000050: 35bb c8bd 04fe 9fbe 04c6 fdbc 3ce6 14be
00000060: c49f 57be 352d 9c3c a5f1 0b3d 124a 2f3d
00000070: af20 d7bd 38f2 323d 6903 83be 96cf 06be
00000080: 09c6 4bbc a05e 3cbe 970c a0bd 2664 d7bc
00000090: e05f 043e 47bb 793d 5447 82bd 382c 0dbd
000000a0: bc47 01be 71ce ce3c 10d4 04be 6619 4cbd
000000b0: e37b 8b3c 35a6 4abd fc69 54be b74c 423e
000000c0: 0282 45ba b47f 66be 43d8 45be d9b8 0c3e
000000d0: a858 4abd 8483 36be 70fd 2fbe 6c58 5dbd
000000e0: 6971 bbbd 3025 b0bd 378d f3bd dc8c a8bd
000000f0: 7f1a 23be 6b1f ffbc d7f9 29bd c7e4 18be
00000100: 4eb6 153e ad5d 1d3e b4dc a0bd 9df7 5cbe
00000110: bc86 fcbd f641 31be 71a1 dabd b537 54bd
00000120: a908 43be e4e6 353e a022 ffbb df6b 06be
00000130: 7eb0 ef3d bf2a 24bd 8e92 5bbd 7d56 783e
00000140: a666 efbd 3c11 253d b696 0abe 1690 5abe
00000150: 1381 eabd d4b3 09bc 8461 64be ac2a 833d
00000160: 863f 0dbe c23d 77be 6d04 4fbd 6bf1 843d
00000170: 36cb b43b 4e65 0e3e 326e 07bd 12b1 543d
00000180: 6207 ccbc 7baf 37be 0233 633d e3e9 1ebe
00000190: e775 fa3d 2bb7 1ebe d8ac 07be a1ef fabd
000001a0: a6f8 39be e5d2 633d 99d8 01be 2bb9 f8bb
000001b0: d9df 9dbd e59f cf3b 00e8 c6bd 0bbb ba3d
000001c0: 85c8 d93d 9d22 e6bd 945a 463c f70d 823d
000001d0: 04fe e8bd f118 9dbe 2960 91bd 0681 92be
000001e0: fab1 cebd 4646 09be 603b 293d 4873 44bd
000001f0: ef06 403d 51c4 ea3d fbcc ccbd 3277 3f3d

lstm.bias_hh_l0 f4 [128]
-0.17848222 -0.15838139 -0.23249711 -0.032210324 -0.0044764075 0.16529505 0.097624935 -0.10561943
-0.070615895 0.1479576 -0.20897518 -0.026040358 0.075065814 -0.08064062 -0.1393603 -0.055186
-0.07612653 -0.26393664 0.059985027 0.10007497 -0.012759568 -0.18586549 0.008832849 -0.019617576
-0.12574293 -0.015968602 0.006480066 -0.2053782 0.006711427 -0.0735864 -0.19150965 -0.15035418
0.045860246 0.007835306 -0.10570336 -0.026288182 0.10001348 -0.054715864 0.034513194 -0.14756085
0.032707028 0.085975535 -0.07702622 -0.07278872 -0.17387325 0.13779053 0.020446068 0.009205522
-0.036775716 -0.12757654 -0.09401973 0.11434779 -0.25044346 -0.34072194 -0.15171835 -0.26247615
-0.24019551 0.083153985 0.0032029673 -0.0056367544 -0.1569419 0.018616492 -0.09894661 -0.07313253
0.080924004 -0.11340988 -0.12013621 -0.12660195 -0.13252154 -0.033557527 -0.13536806 -0.09822711
0.088853225 0.07242304 0.04867217 -0.00856681 0.088535964 -0.17177412 -0.052576374 0.23603442
0.19081403 0.048375335 -0.060799614 -0.047225088 0.08750919 -0.05632832 -0.01671973 -0.10751397
0.089093834 -0.21507509 0.122591585 0.057573915 0.19871627 0.030473692 0.05750783 -0.11428758
0.10970019 -0.10210258 -0.04715254 0.01761796 -0.05242812 -0.029180506 -2.285646e-05 -0.13514331
0.025621088 -0.06411267 0.046841998 -0.19241217 -0.19478475 0.07856611 -0.20375101 -0.012401847
-0.04405807 -0.14867637 -0.04912636 -0.13481636 -0.19802752 -0.09386423 -0.14328367 -0.15593192
-0.027631333 0.08217821 -0.20321059 -0.13037369 -0.09221742 0.021543773 -0.23801014 0.12105491
00000000: 0bc4 36be bb2e 22be b913 6ebe f9ee 03bd
00000010: d4ae 92bb 1b43 293e 95ef c73d 004f d8bd
00000020: 119f 90bd 3282 173e 97fd 55be 9752 d5bc
00000030: 1bbc 993d e926 a5bd 77b4 0ebe b70a 62bd
00000040: 3ae8 9bbd b422 87be dcb2 753d 1bf4 cc3d
00000050: 820d 51bc 8653 3ebe a7b7 103c 0ab5 a0bc
00000060: c1c2 00be 96d0 82bc bc56 d43b aa4e 52be
00000070: 88eb db3b 77b4 96bd 1b1b 44be 72f6 19be
00000080: f4d7 3b3d a85f 003c 017b d8bd 505a d7bc
00000090: ded3 cc3d be1d 60bd b55d 0d3d 311a 17be
000000a0: cef7 053d f113 b03d ecbf 9dbd 4112 95bd
000000b0: d40b 32be f618 0d3e 837e a73c c2d2 163c
000000c0: 22a2 16bd 6da3 02be 6b8d c0bd 2d2f ea3d
000000d0: 203a 80be 1b73 aebe 0e5c 1bbe 4663 86be
000000e0: d0f5 75be a34c aa3d e0e8 513b 86b4 b8bb
000000f0: 61b5 20be 9d81 983c 85a4 cabd 82c6 95bd
00000100: 7cbb a53d 7043 e8bd f909 f6bd f1a3 01be
00000110: bab3 07be 9e73 09bd ed9d 0abe 4c2b c9bd
00000120: aef8 b53d 8852 943d 785c 473d ce5b 0cbc
00000130: 5852 b53d 8ee5 2fbe 535a 57bd 02b3 713e
00000140: c164 433e 3725 463d 0409 79bd 186f 41bd
00000150: 0538 b33d 86b8 66bd d1f7 88bc 4930 dcbd
00000160: d476 b63d a53c 5cbe 4c11 fb3d a0d2 6b3d
00000170: 477c 4b3e f7a3 f93c 558d 6b3d 9b0f eabd
00000180: 7eaa e03d 281b d1bd 0623 41bd 8a53 903c
00000190: debe 56bd f50b efbc e0bb bfb7 0263 0abe
000001a0: 51e3 d13c 814d 83bd 65dd 3f3d b207 45be
000001b0: a775 47be 45e7 a03d 1ba4 50be 1e31 4bbc
000001c0: 3c76 34bd 9e3e 18be b938 49bd 4d0d 0abe
000001d0: bac7 4abe e43b c0bd f4b8 12be 9eac 1fbe
000001e0: 1b5b e2bc 0d4d a83d 7016 50be ae80 05be
000001f0: 7ddc bcbd 917c b03c eeb8 73be a3eb f73d

lstm.weight_ih_l0_reverse f4 [128, 16]
-0.17254396 -0.06704093 -0.10789462 0.0065685892 -0.021751503 -0.066269994 0.007419806 -0.0014140541
-0.038450006 0.0008777696 -0.10045824 -0.056757923 0.21873763 -0.05690745 0.1391486 -0.07657853
0.008710249 -0.1597998 -0.1924769 -0.051447082 0.09273601 0.094901465 -0.08012769 0.06755267
-0.15425198 -0.2677823 -0.10481566 -0.18166271 -0.122659124 0.06578613 -0.012931534 -0.034673102
0.033090282 -0.047315095 -0.15595132 0.095345825 -0.21996224 -0.20295593 -0.061575163 0.0022680687
-0.062486812 -0.12796442 -0.11268281 0.023421472 0.13004029 0.036658287 -0.034476213 -0.022549497
0.23292531 0.09688986 0.057543702 0.21795583 0.15205629 -0.17516501 0.19431706 0.11062901
-0.0774732 -0.11226557 0.08749824 0.05881644 0.14476407 0.08777739 0.076744474 0.09749976
-0.027695946 0.0304405 0.05784178 -0.036392074 0.06862606 -0.11586015 0.114097424 0.05284747
-0.074717715 -0.21085933 -0.049919985 -0.25478524 0.07010295 0.08970613 -0.10249289 0.1155842
0.12597679 -0.07334325 -0.018278116 0.23468983 -0.024642328 -0.07721784 0.020713717 -0.033072647
-0.00051513396 -0.07356466 -0.17511587 0.011297383 -0.110336706 0.089163944 0.117282316 0.26471585
0.1599109 -0.049982913 -0.12826672 0.22186458 -0.11953248 -0.0069554676 -0.017240288 -0.14895505
0.24611786 0.063958 0.25930613 0.0038945614 0.023277538 -0.11440007 -0.009602239 -0.00058928225
0.34185237 -0.097502604 0.06610319 0.22418742 0.08858292 0.08824022 0.21997921 0.040789314
-0.15825228 0.12813601 -0.05596523 -0.21268864 -0.008440771 0.08931179 -0.03153893 0.082996346
-0.098691516 -0.013672376 -0.04694572 -0.14867456 0.00138508 -0.19926906 0.2101961 0.0047908938
0.021134894 -0.06651816 -0.048467875 -0.118262105 -0.05348596 0.13706155 0.030218678 0.09797739
0.20287378 -0.11388327 0.19260514 0.019909581 0.053843744 0.006526427 0.07414356 -0.032468688
-0.020120915 0.18823096 -0.020981273 -0.014741976 -0.05380263 0.042392775 0.26686227 -0.018629838
-0.09475072 -0.018007815 0.009320553 -0.16113752 -0.2108871 -0.14123258 -0.04140024 -0.0616391
-0.1106495 0.0069164787 -0.009634166 -0.29194912 0.14067411 -0.044709776 -0.08713915 -0.019076277
0.28247592 -0.014414658 0.083046325 0.045913357 0.08718306 0.0934064 0.03618526 0.25938004
0.1662364 -0.017335104 0.10225951 -0.00042092998 -0.16427904 0.24821842 -0.18674585 0.028739277
0.024998456 -0.07072914 0.1541515 -0.07573788 0.16075534 -0.07700255 0.27288008 0.14260992
0.1617419 -0.035952225 0.083259456 -0.055341076 -0.034705117 0.15442109 0.11854464 -0.03900665
0.13660805 -0.107446894 -0.06356266 0.012675083 0.13816085 0.112249576 0.030642685 0.15357885
0.15118186 0.020009134 -0.035177168 0.17013226 -0.26889053 0.07578971 -0.014139734 -0.054995142
0.2702999 -0.18281884 0.06127748 -0.060488578 0.24345972 0.2267084 -0.07380231 0.22271715
-0.059904072 0.080442265 -0.018227065 -0.2054175 0.0072474713 0.20309757 -0.24639067 0.23927985
-0.17347671 0.14411078 -0.041001804 -0.17945397 0.22335286 0.16195613 -0.06667134 -0.020558415
0.080548935 0.17763965 -0.088379286 -0.18228509 0.144439 -0.09720848 -0.023138577 0.09469809
00000000: 5daf 30be c14c 89bd dbf7 dcbd 523d d73b
00000010: 3530 b2bc 90b8 87bd d821 f33b c857 b9ba
00000020: c17d 1dbd 1f1a 663a 0dbd cdbd ff7a 68bd
00000030: c2fc 5f3e c917 69bd f87c 0e3e 34d5 9cbd
00000040: 6fb5 0e3c 8fa2 23be aa18 45be 2dba 52bd
00000050: 61ec bd3d b35b c23d fd19 a4bd 0e59 8a3d
00000060: 3bf4 1dbe c31a 89be 98a9 d6bd ca05 3abe
00000070: b534 fbbd e1ba 863d c9de 53bc 6205 0ebd
00000080: ad89 073d 79cd 41bd b4b1 1fbe ac44 c33d
00000090: c83d 61be aed3 4fbe 3d36 7cbd e1a3 143b
000000a0: 2cf2 7fbd 1b09 03be 3fc6 e6bd 63de bf3c
000000b0: 4829 053e 0027 163d ee36 0dbd b9b9 b8bc
000000c0: f983 6e3e 316e c63d f2b2 6b3d d02f 5f3e
000000d0: a5b4 1b3e 755e 33be 0dfb 463e 7691 e23d
000000e0: 45aa 9ebd 7eeb e5bd 4732 b33d 82e9 703d
000000f0: 083d 143e a2c4 b33d 352c 9d3d f4ad c73d
00000100: 9ce2 e2bc 5b5e f93c 81eb 6c3d db0f 15bd
00000110: d28b 8c3d 1648 edbd e9ab e93d 9776 583d
00000120: 9a05 99bd 82eb 57be e678 4cbd 3673 82be
00000130: 2392 8f3d d9b7 b73d cbe7 d1bd 69b7 ec3d
00000140: 0f00 013e fc34 96bd fdbb 95bc 8852 703e
00000150: b5de c9bc 6324 9ebd d0af a93c 2f77 07bd
00000160: 0e0a 07ba 12a9 96bd 9351 33be a918 393c
00000170: 36f8 e1bd 969b b63d b631 f03d d688 873e
00000180: afbf 233e e2ba 4cbd 5a58 03be 7830 633e
00000190: 72cd f4bd b1ea e3bb 813b 8dbc ac87 18be
000001a0: 5206 7c3e 69fc 823d c6c3 843e e63b 7f3b
000001b0: 89b0 be3c 954a eabd b652 1dbc 107a 1aba
000001c0: 4607 af3e 72af c7bd 1c61 873d 6391 653e
000001d0: f66a b53d 4ab7 b43d 3b42 613e b212 273d
000001e0: e30c 22be 1636 033e cc3b 65bd 0dcb 59be
000001f0: 294b 0abc 1ae9 b63d f72e 01bd fdf9 a93d
00000200: c71e cabd 1a02 60bc 284a 40bd 253e 18be
00000210: 938b b53a 300d 4cbe a53d 573e eefc 9c3b
00000220: 1623 ad3c ac3a 88bd 4086 46bd 6733 f2bd
00000230: 1814 5bbd dd59 0c3e 298d f73c 5fa8 c83d
00000240: 25be 4f3e a23b e9bd 483a 453e 6b19 a33c
00000250: 428b 5c3d a3db d53b 94d8 973d e3fd 04bd
00000260: 9ed4 a4bc 9ebf 403e ebe0 abbc 5488 71bc
00000270: 2660 5cbd 0ca4 2d3d 2ca2 883e 9a9d 98bc
00000280: aa0c c2bd 2085 93bc 3cb5 183c 3c01 25be
00000290: caf2 57be 469f 10be 4c93 29bd 4879 7cbd
000002a0: 349c e2bd a1a3 e23b 9fd8 1dbc 5b7a 95be
000002b0: e00c 103e 9921 37bd 0376 b2bd da45 9cbc
000002c0: afa0 903e 752b 6cbc 3114 aa3d a50f 3c3d
000002d0: 088d b23d db4b bf3d ff36 143d 76cd 843e
000002e0: e039 2a3e 5902 8ebc 6f6d d13d 44b0 dcb9
000002f0: c438 28be f82c 7e3e 4e3a 3fbe a26e eb3c
00000300: 90c9 cc3c 70da 90bd e4d9 1d3e 761c 9bbd
00000310: 0c9d 243e 83b3 9dbd f0b6 8b3e 5608 123e
00000320: ab9f 253e a442 13bd ef83 aa3d 53ad 62bd
00000330: f426 0ebd 9020 1e3e 88c7 f23d 70c5 1fbd
00000340: fbe2 0b3e 1e0d dcbd 242d 82bd 27ab 4f3c
00000350: 0a7a 0d3e 1be3 e53d 5e06 fb3c c643 1d3e
00000360: 6bcf 1a3e 32ea a33c ef15 10bd 2737 2e3e
00000370: 05ac 89be a337 9b3d 58aa 67bc 9642 61bd
00000380: c064 8a3e dd34 3bbe 18fe 7a3d dfc2 77bd
00000390: 814d 793e 3f26 683e aa25 97bd f70f 643e
000003a0: f95d 75bd eabe a43d ed50 95bc f758 52be
000003b0: 327c ed3b cff8 4f3e d64d 7cbe c705 753e
000003c0: e1a3 31be c791 133e 82f1 27bd c8c2 37be
000003d0: 9db6 643e d4d7 253e fc8a 88bd 1f6a a8bc
000003e0: d7f6 a43d 2be7 353e 3300 b5bd f1a8 3abe
000003f0: d1e7 133e 3d15 c7bd 1d8d bdbc 12f1 c13d

lstm.weight_hh_l0_reverse f4 [128, 32]
0.20225711 0.005246737 0.06575711 0.058406524 -0.07214704 -0.20940599 0.124395445 -0.07903129
0.10641876 0.093248196 0.093239754 -0.0546133 0.14569688 0.120796114 0.013936797 -0.03435925
0.14293826 0.15998417 0.031450238 -0.0039554127 0.1785338 0.11697305 -0.07962633 -0.074166805
0.027152045 0.09063959 -0.07357121 -0.06430301 0.088540606 -0.17368725 -0.009787094 -0.1090321
0.022229424 -0.0459314 -0.10033647 0.16871521 -0.093981676 -0.071959645 -0.1261998 -0.009383046
0.08809225 -0.1964361 0.20282 0.16432671 -0.07830578 -0.27394938 -0.024953207 -0.09883427
-0.16952536 -0.068240546 -0.13445476 -0.1331172 -0.17775531 -0.05548757 -0.13337222 -0.039312374
0.13940662 -0.061238278 0.032271437 0.062900566 -0.1032989 0.054849636 0.20018652 0.23449254
0.16619238 -0.046060972 0.0029024975 0.079593584 0.07186741 0.030438555 -0.20160036 -0.0024036565
-0.12358439 -0.03622927 -0.09740568 0.056868605 0.0018769761 -0.13645703 0.1474666 -0.005996572
-0.16779375 -0.010850948 -0.15621246 -0.046638805 0.100629285 0.15404655 0.049852323 0.11605273
0.058166474 0.03232339 -0.044930976 0.1488503 0.14113851 -0.09931299 0.017988816 -0.00023943809
-0.095744334 -0.038690932 -0.026713986 -0.076595746 -0.17080516 0.05791866 0.095035255 -0.054057695
0.056148022 -0.061821476 -0.18508121 0.109445766 -0.06577359 0.089433946 0.21355186 -0.08446184
-0.07736402 0.09145164 -0.00051236904 -0.1134052 0.22491376 -0.13180424 0.12126726 0.14452387
0.19394171 -0.120247714 0.16783105 -0.04292032 0.09520936 0.009088914 0.0011991246 -0.053840235
0.013885855 -0.03821709 0.10792701 0.12585366 0.14187457 -0.11222227 0.08695065 -0.1052984
0.100969315 0.11918732 -0.08615821 -0.050461583 -0.09530205 -0.15433022 0.0579645 -0.07338645
-0.11161416 -0.16990721 -0.0038526056 -0.21030907 0.06864583 -0.10207152 0.16117617 -0.0075243856
0.18747218 -0.012995164 -0.16982266 0.04618299 0.23269278 -0.06573495 -0.07677839 0.06732791
0.12395375 0.036140315 -0.10927612 -0.14284675 0.05517738 -0.13789223 0.005964069 -0.110499516
-0.10427303 0.23412174 -0.26627624 -0.21879824 -0.10289063 -0.031229405 -0.005287975 0.077269256
0.17617866 0.09134828 0.15458184 -0.09525001 -0.049860224 -0.012964492 0.10797685 0.10981059
0.2558526 -0.061971903 0.0765651 -0.070618026 -0.17990334 0.03496445 0.11578172 -0.150154
-0.0077360594 0.11442486 -0.20929667 0.08499732 0.0013488717 0.13789846 0.18086675 -0.01692156
-0.20913868 -0.06418691 -0.068476565 0.047468327 -0.2630056 0.15856224 0.20900413 -0.14074962
0.111606024 -0.15740916 0.01955424 -0.08663776 0.010889206 -0.013870723 -0.0038308026 -0.20152164
0.112029985 -0.19305663 -0.09760081 -0.15027411 -0.13659972 0.06293157 0.15199617 0.09075308
0.030092528 -0.06940224 -0.21913141 0.062083453 -0.01982383 -0.2885728 -0.15002258 0.058944773
-0.097711354 -0.23414366 -0.15373375 0.16252834 -0.2273376 -0.04587915 0.19552875 0.04559265
-0.082183674 -0.12307403 0.08814356 -0.21015827 0.054143272 -0.006271887 -0.11361298 -0.10362164
0.006325894 -0.21469651 0.21314159 -0.09930931 -0.17411107 0.29676253 0.2849945 0.16515374
00000000: 7d1c 4f3e d2ec ab3b aaab 863d ae3b 6f3d
00000010: d4c1 93bd 866e 56be 0ac3 fe3d 28db a1bd
00000020: 14f2 d93d e9f8 be3d 7cf4 be3d 32b2 5fbd
00000030: 9031 153e f463 f73d 2a57 643c 49bc 0cbd
00000040: 685e 123e e4d2 233e f7d1 003d 689c 81bb
00000050: 91d1 363e 918f ef3d 2113 a3bd c4e4 97bd
00000060: f76d de3c 40a1 b93d 81ac 96bd 4cb1 83bd
00000070: c754 b53d 12db 31be 0c5a 20bc 394c dfbd
00000080: 7b1a b63c 9022 3cbd 357d cdbd aec3 2c3e
00000090: 7779 c0bd 945f 93bd 853a 01be 59bb 19bc
000000a0: b669 b43d 8c26 49be 0cb0 4f3e 4345 283e
000000b0: c85e a0bd 1843 8cbe ab6a ccbc 9f69 cabd
000000c0: 0e98 2dbe b3c1 8bbd 82ae 09be e04f 08be
000000d0: 7d05 36be ef46 63bd ba92 08be 0306 21bd
000000e0: 9cc0 0e3e fdd4 7abd 0e2f 043d 03d2 803d
000000f0: 608e d3bd 03aa 603d b2fd 4c3e d01e 703e
00000100: 562e 2a3e 6eaa 3cbd d437 3e3b f601 a33d
00000110: 382f 933d 475a f93c 5370 4ebe aa86 1dbb
00000120: d019 fdbd 2565 14bd a17c c7bd 0eef 683d
00000130: de04 f63a 64bb 0bbe 7c01 173e e47e c4bb
00000140: 20d2 2bbe 2dc8 31bc 29f6 1fbe 5508 3fbd
00000150: ba16 ce3d 61be 1d3e f331 4c3d 0ead ed3d
00000160: f83f 6e3d 8865 043d 8b09 38bd 376c 183e
00000170: 9d86 103e 9c64 cbbd 485d 933c ac11 7bb9
00000180: 9b15 c4bd 627a 1ebd 4ad7 dabc 3bde 9cbd
00000190: 8ce7 2ebe 1e3c 6d3d d8a1 c23d 9a6b 5dbd
000001a0: 78fb 653d 8438 7dbd ee85 3dbe 1a25 e03d
000001b0: 4eb4 86bd 2529 b73d 57ad 5a3e 54fa acbd
000001c0: 0771 9ebd ff4a bb3d 8150 06ba fc40 e8bd
000001d0: cb4f 663e b1f7 06be f85a f83d 11fe 133e
000001e0: a898 463e 6f44 f6bd e7db 2b3e 38cd 2fbd
000001f0: 20fd c23d abe9 143c f22b 9d3a 9487 5cbd
00000200: 7f81 633c 8689 1cbd d608 dd3d c8df 003e
00000210: 9147 113e cad4 e5bd 2f13 b23d b0a6 d7bd
00000220: 00c9 ce3d 7b18 f43d b773 b0bd ceb0 4ebd
00000230: b92d c3bd be08 1ebe 2f6c 6d3d a34b 96bd
00000240: f795 e4bd 28fc 2dbe ff7b 7cbb 435b 57be
00000250: 2f96 8c3d e00a d1bd 5e0b 253e 1f8f f6bb
00000260: b5f8 3f3e abe9 54bc fee5 2dbe 602a 3d3d
00000270: 0447 6e3e 0ca0 86bd fd3d 9dbd 37e3 893d
00000280: 77db fd3d de07 143d 29cc dfbd 6b46 12be
00000290: ad01 623d 9f33 0dbe 3d6e c33b 924d e2bd
000002a0: 198d d5bd 9cbd 6f3e 5c55 88be a50c 60be
000002b0: 53b8 d2bd cfd4 ffbc c046 adbb 583f 9e3d
000002c0: 2e68 343e cf14 bb3d b44a 1e3e 7012 c3bd
000002d0: 3c3a 4cbd 0569 54bc f722 dd3d 60e4 e03d
000002e0: 1dff 823e 40d6 7dbd 2ace 9c3d 2fa0 90bd
000002f0: 9538 38be e236 0f3d f71e ed3d f8c1 19be
00000300: c57e fdbb 9557 ea3d de51 56be 1313 ae3d
00000310: a0cc b03a 4135 0d3e 2235 393e 159f 8abc
00000320: 7328 56be 6d74 83bd 713d 8cbd 266e 423d
00000330: aca8 86be 245e 223e 2e05 563e ab20 10be
00000340: b391 e43d de2f 21be 3730 a03c 236f b1bd
00000350: a468 323c 0742 63bc 340e 7bbb b05b 4ebe
00000360: fa6f e53d a3b0 45be efe2 c7bd 75e1 19be
00000370: cce0 0bbe 44e2 803d e2a4 1b3e c0dc b93d
00000380: 9b84 f63c c322 8ebd fc63 60be 384b 7e3d
00000390: 9665 a2bc d0bf 93be 859f 19be 1370 713d
000003a0: e41c c8bd 5bc3 6fbe 616c 1dbe d46d 263e
000003b0: 30cb 68be c7eb 3bbd b038 483e 5cbf 3a3d
000003c0: ea4f a8bd 3d0e fcbd 9c84 b43d bb33 57be
000003d0: 56c5 5d3d 6784 cdbb ecad e8bd 9537 d4bd
000003e0: 7249 cf3b 67d9 5bbe ca41 5a3e ae62 cbbd
000003f0: 2c4a 32be 42f1 973e cdea 913e 101e 293e
