best_model.pt (torch, 167714 bytes, 27 tensors)

conv1.weight f4 [16, 1, 5]
000000 d0 b0 e4 3e 28 9f 1a 3e 28 59 98 be 7f 1e b3 3e
       0.44666147 0.15099776 -0.2975552 0.34984204
000010 4c 14 ee bc 3e bc 59 bd 76 3d d9 3e 1f 2f 00 be
       -0.029062413 -0.053158037 0.42429703 -0.12517975
000020 f0 70 d4 bd 1f 29 83 be c0 1d c7 3e c9 5c 9d 3e
       -0.103731036 -0.2561731 0.38889885 0.30734852
000030 da 82 d8 be a7 b3 6f bd 26 ba 83 bd 90 72 73 3e
       -0.42287332 -0.05852094 -0.06431989 0.23774171
000040 68 b3 e9 3e 85 81 e2 3e e6 c9 6e be 7e 8f f1 be
       0.4564469 0.4423944 -0.23319206 -0.47179788
000050 97 ac 5b be f5 d4 ef be 22 1a c3 be 9d e5 17 3e
       -0.21452557 -0.4684216 -0.38105875 0.14833684
000060 b1 77 f4 bd b0 36 e8 be e5 da a1 3e f7 b8 1e be
       -0.11936892 -0.45354223 0.31612316 -0.15500246
000070 73 17 4a 3e 07 6a 52 3e 14 1e 5e be 8d 98 e6 3e
       0.19735508 0.20548259 -0.21691161 0.45038262
000080 84 35 ce be ac a1 a0 3e ed 20 a5 3e a9 d5 e3 3c
       -0.40275204 0.31373346 0.32251683 0.027811842
000090 dd c1 be bc 82 f5 b0 bd 50 75 5a be 38 31 28 bc
       -0.0232858 -0.08640577 -0.21333814 -0.010265641
0000a0 38 5e e4 be 6b 1f 95 3d 72 3a d1 3e 3d 44 ef 3e
       -0.44603133 0.07281383 0.40864903 0.4673175
0000b0 b6 39 92 3e 1e 33 d7 be 54 79 c0 3e 46 02 1f 3e
       0.28559655 -0.42031187 0.37592566 0.15528211
0000c0 a2 26 25 be 6f ca 86 3e 30 c1 8e 3d b4 39 ee 3e
       -0.16128018 0.2632632 0.06970441 0.465284
0000d0 63 a1 16 3e 51 08 95 bd bb 60 89 3d 2c 18 d7 3e
       0.14710002 -0.07276977 0.06707903 0.4201063
0000e0 e1 51 cf 3e 7f 07 5a be 94 a8 8d 3e 5f 4c e3 be
       0.40492156 -0.21291922 0.27667677 -0.44394204
0000f0 73 90 99 bd c4 33 83 b7 bd ca a1 3e 8f eb 94 3e
       -0.074982546 -1.5640522e-05 0.3159999 0.29085967
000100 90 50 b5 be a9 b8 83 be 1c a0 82 3d 52 ac b8 3e
       -0.35413027 -0.25726822 0.06378195 0.3606897
000110 51 e2 d6 bd 8c 2c d6 bd 61 2a 94 3e 99 a6 2d 3e
       -0.10492385 -0.104577154 0.28938583 0.16958083
000120 9d ca ba 3e 13 1f 47 be cd ec 24 3e 18 d1 b4 bd
       0.36482707 -0.19445448 0.16105957 -0.08828944
000130 0b a2 1a 3e 94 2a 1c be 19 3d d4 3e c7 be 89 3d
       0.15100877 -0.15250617 0.41452864 0.06725841

conv1.bias f4 [16]
000000 9e 9c 60 3d fe cd a3 3c f3 de c8 be 92 42 2c be
       0.05483686 0.019995686 -0.39232597 -0.1682227
000010 e6 e1 3b be f0 f8 7a 3d 03 20 3f be 45 91 72 be
       -0.18347892 0.06127256 -0.18664555 -0.23688228
000020 c3 64 b7 3e a8 fa 9d be 5e e7 ba 3e 1c e4 e2 3e
       0.35819063 -0.30855298 0.36504644 0.4431466
000030 c8 f2 91 3e 18 25 ed bc df ae c0 be 7f c8 54 3e
       0.2850554 -0.028948352 -0.37633416 0.20779608

conv2.weight f4 [16, 16, 5]
000000 c4 7e b1 bc b0 da 81 3d 21 66 d7 3c 7c 44 a8 3d
       -0.021666892 0.063405395 0.026293816 0.08216187
000010 3a 78 e3 3d 57 d1 08 bd 60 a8 bb bd 01 d3 9c 3d
       0.11106916 -0.033402767 -0.09162974 0.07657433
000020 aa 6d 99 bd 38 7d d8 3d dc ba 32 3c a2 75 61 3d
       -0.0749162 0.105707586 0.010908809 0.055043824
000030 9e 5c 70 3d dd 59 f0 bc 6e 65 93 bc e8 2a 04 ba
       0.058682077 -0.029339725 -0.017992701 -0.0005041794
000040 77 d5 b7 3d 0d aa 48 3d c2 f1 8b 3c a3 b5 12 3e
       0.08976262 0.048990298 0.017083053 0.14327101
000050 f7 94 98 3d 04 a2 a6 bc 7e 54 0e 3c 97 04 8b 3d
       0.07450288 -0.020340927 0.008687137 0.06787985
000060 5c 22 81 3c 20 80 47 3d 3c 3a a7 3d 92 28 50 3d
       0.015763454 0.048706174 0.08165404 0.05081994
000070 53 4c 8b 3d 11 f6 e6 bc 13 91 a3 3d 93 47 ae bd
       0.06801667 -0.028193505 0.07986655 -0.085097454
000080 8d 1e 49 bd ed 07 15 bd f3 cd ef bd 46 87 ae bd
       -0.0491014 -0.03638451 -0.117092036 -0.08521895
000090 43 f4 0f bd b2 77 0a be 2c 75 2c bc 17 01 a5 3c
       -0.035145056 -0.13522223 -0.010525983 0.020142121
0000a0 23 4f 45 3d 45 86 f2 bc 5b a8 94 3d c3 c2 94 bd
       0.048171174 -0.02960504 0.07258674 -0.0726371
0000b0 60 fa 99 3d 77 21 95 3c bf 5c a5 3d 02 f0 e0 bc
       0.07518458 0.018204434 0.080743305 -0.027458195
0000c0 83 e2 a8 bd f6 af c3 3d fe d4 e8 3d 5a 55 66 3d
       -0.08246329 0.09555046 0.1136875 0.05623374
0000d0 c6 62 13 3e ef 64 08 3e 6b 5f e5 3d 97 23 a7 bc
       0.14393148 0.13319753 0.1119984 -0.020402713
0000e0 40 c6 09 3e a2 ff 30 bd 4a 13 ba 3d 78 41 06 bd
       0.13454533 -0.04321254 0.0908571 -0.03277728
0000f0 05 84 51 3d 3b cf e8 bc 3c bb e5 3d 57 c0 17 3d
       0.051151294 -0.028419128 0.11217353 0.037048664
000100 70 64 8b bd 38 b9 80 bd f3 ed dc 3d dd c9 2c 3d
       -0.06806266 -0.06285328 0.10787573 0.0421847
000110 67 aa b7 bd 1b 47 cd bc d7 92 82 bd ed 4e bc 3d
       -0.089680485 -0.02505832 -0.06375664 0.091947414
000120 35 83 fb 3d b4 22 2c 3d 4d 96 ce 3d dc 48 6e bd
       0.12280885 0.042025283 0.10087261 -0.058174953
000130 f2 e8 e2 3d ab 99 89 3d 20 94 e6 bd 35 fa c9 bc
       0.11079587 0.06718763 -0.11258721 -0.02465544
000140 97 3e d1 bc 82 ac 00 bd 4a c8 be bd bc 47 eb bd
       -0.02554254 -0.031414516 -0.09315546 -0.114882916
000150 44 d7 89 bc a6 69 9c 3d 79 45 d2 3d e0 4b 5a bd
       -0.01682628 0.07637338 0.10267157 -0.053295016
000160 53 d6 1c bd 92 77 f7 bc 9d 8f b8 3d 2b b3 f7 bd
       -0.038290333 -0.030208383 0.09011767 -0.120947205
000170 d3 33 93 bd 77 b3 18 bd 59 23 b8 bd d2 49 95 3c
       -0.07187619 -0.037280526 -0.08991117 0.018223677
000180 8e 60 10 be 57 27 e1 bd 8c 8b 00 bd eb 9d 02 be
       -0.14099333 -0.109938316 -0.031383082 -0.12755553
000190 fa d0 a6 3d 41 6e b9 bd 4f 5f 18 3b c7 01 a9 bd
       0.08145328 -0.090542324 0.0023250168 -0.08252292
0001a0 76 e9 3a 3d ce 34 1d bd ca 19 8d 3d db 84 a4 3d
       0.045632802 -0.038380437 0.068896845 0.08033153
0001b0 a2 55 e6 3d c4 b2 08 3e e2 8a dc bd ce 69 11 be
       0.11246802 0.13349444 -0.10768677 -0.14200518
0001c0 7f 87 ea bd f6 59 5d bd 7d 6a bd bd 7b 1b 78 bb
       -0.11451625 -0.05404087 -0.09248827 -0.0037858177
0001d0 7b fe 45 bc 0e 6a 8f 3d 70 03 a0 bd bf e0 f9 3c
       -0.012084599 0.0700265 -0.07813156 0.030502675
0001e0 e2 e4 99 b8 b1 ca 98 3d d2 76 9a bd a3 dc 1b 3d
       -7.338241e-05 0.07460535 -0.075421944 0.038052212
0001f0 87 51 9e bd d6 17 a3 3d 33 3c 11 3d fa bc 08 3d
       -0.07730394 0.07963531 0.0354578 0.033383347
000200 8a 41 85 bd e4 2e cd 3d e5 cc 30 3d c0 f3 04 be
       -0.06506641 0.10018709 0.043164153 -0.12983608
000210 70 17 02 be 3b 80 c3 3c 76 8c 51 bd 2c c8 39 bd
       -0.12704253 0.023864856 -0.051159345 -0.045356914
000220 66 c2 f7 3b c8 97 44 bd fc d1 88 3d 60 b6 2f bd
       0.007561016 -0.047996312 0.06680676 -0.042898536
000230 2a 8a d5 3c 49 1a bd bd 11 ae 80 bd ee 0e d9 3c
       0.026066858 -0.09233529 -0.062832005 0.026496377
000240 b7 94 9b 3d 48 de 63 3c 26 1c 27 3b 11 d9 d9 bd
       0.075967245 0.013907976 0.0025498956 -0.10637105
000250 a8 b3 87 bd 47 d0 b9 bd 4e 2a b6 bc a6 90 22 bd
       -0.066260636 -0.09072929 -0.02223697 -0.03968873
000260 82 14 67 3c bf 2a 52 bd 8f 41 40 bd 73 dd ac 3c
       0.014104011 -0.051310297 -0.04693752 0.021101689
000270 e9 3a 00 be 80 93 e5 bc 54 ea d7 bd a3 39 f6 3d
       -0.12522472 -0.028024435 -0.105427414 0.12022712
000280 ab df 13 3d 73 29 27 3d fc 66 bc bc 69 3b 4a bd
       0.03610198 0.040811013 -0.022998326 -0.049373064
000290 90 09 d7 3d a6 9f 83 bd 3e 53 05 3e 20 27 7e bd
       0.10499871 -0.06426935 0.13020036 -0.06204903
0002a0 e1 d0 54 3d a6 c7 b7 bd e2 e0 6e bc 97 8a 68 3d
       0.051957015 -0.08973627 -0.014579983 0.056772795
0002b0 ad e2 d5 bc 6d ea 0b bd 6a 4b f9 3c b0 65 a9 3d
       -0.026109064 -0.034159113 0.030431468 0.082713485
0002c0 cc 36 5d bd 72 e2 73 3d 85 a6 c7 bd 7d 85 dc bd
       -0.054007336 0.059542127 -0.09748558 -0.10767648
0002d0 d4 ec 2a bd 6d 09 9d 3d 82 bb 0c 3b 34 3e d8 3d
       -0.041729763 0.076678135 0.0021474068 0.10558739
0002e0 cc 1d 7d 3d 41 56 b7 3c e3 e1 fe 3c d7 70 ef 3b
       0.061795995 0.022379996 0.03111357 0.0073071527
0002f0 14 b7 30 bd c7 54 a3 bd c2 4f ba bc 46 e8 bf 3c
       -0.043143347 -0.07975154 -0.02274311 0.023426186
000300 c1 7c 2f 3c 27 3a 04 3d 1d 12 13 3d 12 92 6f 3b
       0.010710896 0.03228202 0.035905946 0.003655557
000310 15 95 81 bd 83 cc 29 3d 66 b0 ad bd dd cd e2 bd
       -0.06327263 0.041454803 -0.08480911 -0.110744216
000320 d9 f1 84 3d 84 2f 5e bd 97 a8 85 3d d9 81 9e bd
       0.06491441 -0.054244533 0.065262966 -0.0773961
000330 5b c4 33 3d 1b f8 07 3d 8e 90 e2 bd 0a f7 4a 3d
       0.04388843 0.033195596 -0.11062728 0.049552
000340 4a 9a 86 bd d9 d9 ee 3c 1b ba 68 3d b2 1b d6 bc
       -0.06572397 0.029156612 0.05681811 -0.026136253
000350 16 58 da 3d 5a d4 b9 3d 44 a7 4f bd 42 8c 1e 3c
       0.10661332 0.09073706 -0.050696626 0.009676995
000360 f5 96 ae 3d 5f 47 15 bd 74 de 75 3d 8c e5 d3 3d
       0.085248865 -0.036445018 0.0600266 0.10346517
000370 44 d7 55 bd cb c4 89 3b 68 ec a8 3d 58 84 70 3d
       -0.052207246 0.0042043678 0.08248216 0.058719963
000380 20 ca bc 3d 01 65 f1 3c 7b fd 06 3d 68 79 75 3d
       0.0921824 0.029467108 0.03295658 0.059930235
000390 b0 b6 b2 bd 96 e4 4b 3d a8 7e 81 bd 54 a8 7a bd
       -0.08726251 0.049778543 -0.06322986 -0.061195686
0003a0 f8 f4 b3 3d 48 5d 35 bc 38 53 5e bd f4 72 51 bd
       0.087869585 -0.011069603 -0.054278582 -0.05113502
0003b0 10 d1 d0 bd fc ba a2 bd 24 77 62 3c 1f 0b 52 3d
       -0.101961255 -0.07945821 0.013822351 0.051280137
0003c0 6c 95 c0 3c 73 7c e2 bd 5a 8f c2 bb 0a 63 6c 3c
       0.02350875 -0.11058893 -0.005937499 0.01442791
0003d0 dd c4 b8 bd 98 a8 60 bd 4c a5 92 3d 50 07 60 3d
       -0.09021924 -0.054848284 0.07160434 0.054694474
0003e0 09 71 df bb 34 d9 ee bc 50 52 00 be d3 13 35 3d
       -0.0068188948 -0.029156305 -0.125314 0.04420836
0003f0 aa a4 ae ba c8 c6 db bd d1 84 f5 3c 08 a2 82 3d
       -0.001332422 -0.10731274 0.029970558 0.06378561

conv2.bias f4 [16]
000000 75 d2 e7 ba fe 7d f1 bc 83 16 1d bd 70 c7 84 3c
       -0.0017686622 -0.029479023 -0.038351547 0.01620838
000010 9a 02 bf 3d 59 8f 76 bd e9 0f 42 3d 0e 82 3a 3d
       0.09326668 -0.0601953 0.047378454 0.045534186
000020 6f d9 88 3d f8 89 d9 bc 48 db 93 3d e7 e7 33 3d
       0.06682097 -0.026555046 0.07219559 0.04392233
000030 56 90 c5 bd b1 bd 16 3d 5f 12 50 bb cb 55 d6 3d
       -0.096466705 0.036801998 -0.0031749231 0.104655825

batchnorm.weight f4 [16]
000000 b1 6e 82 3f ae da 82 3f ef 7f 80 3f 26 ad 82 3f
       1.019003 1.0222986 1.0039042 1.0209091
000010 8f f2 80 3f f3 d5 7c 3f 07 d7 83 3f 05 65 81 3f
       1.0074023 0.9876396 1.0299996 1.0108954
000020 2a 4f 7a 3f 36 95 82 3f 49 41 81 3f 58 89 83 3f
       0.97777045 1.0201786 1.0098048 1.0276289
000030 59 89 7b 3f ab d1 82 3f cb 9c 83 3f aa 12 84 3f
       0.9825645 1.0220236 1.0282224 1.0318196

batchnorm.bias f4 [16]
000000 54 d2 0c 3d 41 ba 0c bd d9 a8 9f 39 c2 15 0b bd
       0.034380272 -0.034357313 0.00030452645 -0.033956297
000010 e5 83 f0 3c f4 84 0a bd 1c 80 11 3d 79 5f 06 bd
       0.029359767 -0.0338182 0.035522565 -0.032805894
000020 ef e8 e1 3c 7f 1f 7c 3c 45 9a 6e 3c 9d d8 f6 3c
       0.027576892 0.015388369 0.014563148 0.030132586
000030 e9 0b 08 3d 81 9b f8 3c b9 ca 0b bd 1e d5 0b bd
       0.033214483 0.030347588 -0.03412888 -0.03413879

batchnorm.running_mean f4 [16]
000000 9c 05 f1 3d 56 cf d7 ba 9f 10 bc 3d 97 b7 af bd
       0.11768648 -0.0016464989 0.09182858 -0.08579939
000010 c0 2f a7 3d c8 7a 70 3d b1 7e f2 3d 9d 1e ab bd
       0.081634045 0.058710843 0.11840571 -0.083554484
000020 a6 67 b7 b9 3a e0 cc bc bf 08 42 3e e8 a8 fc 3d
       -0.00034981704 -0.025009263 0.18948649 0.12336904
000030 7b 36 8d 3b 8d dd 09 3d 61 b5 0e bd 30 7e 71 3d
       0.004309473 0.033658553 -0.034840945 0.058958232

batchnorm.running_var f4 [16]
000000 38 ff d0 3b 46 b9 93 39 1e 74 b6 3c be c3 09 3c
       0.0063780807 0.00028176064 0.022272166 0.008408485
000010 1f aa f5 39 7b e8 93 39 b0 68 98 39 81 8a 0f 3e
       0.00046856792 0.00028211236 0.00029069697 0.14017679
000020 31 1c 92 39 f3 c8 d0 3b 6c f3 96 39 c7 70 93 39
       0.00027868294 0.0063716113 0.00028791593 0.0002812205
000030 bf 35 9f 39 40 f2 c6 39 22 34 c7 3d 0e 39 1f 3e
       0.00030366887 0.00037945993 0.097267404 0.15549108

fc_small.weight f4 [16, 16]
000000 6d 25 c2 bd 77 7b 11 3e 86 11 6b 3e 2d 33 a7 bd
       -0.09479795 0.14207254 0.22955903 -0.08164058
000010 df c7 65 3d f2 a0 29 3d e2 b7 a6 bc 52 73 33 bd
       0.056098815 0.041413255 -0.020351354 -0.04381115
000020 0a 7d be 3d ac 4a 13 bd 0d d2 9a 3c 1e c2 60 be
       0.09301193 -0.035959885 0.018898988 -0.2194905
000030 5c aa 48 bd 56 6b 0b bd 60 0f 15 be 79 3a e0 bd
       -0.048990592 -0.03403791 -0.14556646 -0.10948653
000040 60 58 24 3d 0f 09 7a 3e 0e e7 7a be 1b 1c 09 3e
       0.040123343 0.24417518 -0.24502203 0.13389628
000050 1e 16 6c bd 86 0d 32 3d 1c e7 0d 3d 67 80 3f 3e
       -0.05763828 0.04346993 0.03464423 0.18701325
000060 5c 30 31 be a8 e5 ac bc 19 d0 46 bd ba 09 00 3e
       -0.17303604 -0.021105602 -0.0485383 0.1250371
000070 7c 39 10 3c e7 56 3d 3e d8 c5 36 be 42 68 15 3e
       0.008802768 0.18490182 -0.17848909 0.14590552
000080 c0 ee 1e be 0d 7e 62 3e 93 89 09 3d 01 ac 32 3e
       -0.15520763 0.22118397 0.033578467 0.17448427
000090 44 5e 16 be f9 39 8a 3d bd 98 75 be 79 87 6f 3d
       -0.14684397 0.06749339 -0.23984046 0.058478806
0000a0 be d9 3b 3d e0 96 22 3e 2b 3c fe 3d 57 e9 8c bd
       0.045861952 0.15877867 0.1241382 -0.068804435
0000b0 fb e8 82 be 46 70 bc 3d af 2e be bd 45 ed 3a 3e
       -0.25568375 0.09201102 -0.09286248 0.18254574
0000c0 24 d9 58 be f7 2b d0 bd e7 05 7b bc 21 95 c8 bd
       -0.21176583 -0.10164636 -0.015321231 -0.09794069
0000d0 7c 17 6d 3d 4d 11 3f be b6 3d bb 3c 55 ce df bc
       0.057883725 -0.18658943 0.022856575 -0.027320066
0000e0 20 26 3b bd 41 55 1f 3e 15 4d 82 3d 4b 27 00 3e
       -0.045690656 0.15559866 0.063623585 0.12514989
0000f0 77 7a 12 3d af ad 52 be 8e ea 66 be bb 96 45 3e
       0.035761323 -0.20574068 -0.22550413 0.1929578
000100 d7 0e 13 3e 80 9e 5d be 20 09 05 bd d0 c9 22 be
       0.1436113 -0.21642494 -0.032479405 -0.15897298
000110 51 71 3e 3d 72 47 85 3e 0a 9e 01 bd 5a 98 a9 bd
       0.046494786 0.2603107 -0.03164486 -0.08281012
000120 db de 26 bd ef 52 fd 3d b8 3f bf 3c 2d 94 8c bc
       -0.040739875 0.12369334 0.023345813 -0.0171605
000130 3c 7d f1 3d db a2 88 3e 44 93 06 be 06 9d 5c be
       0.11791465 0.2668675 -0.13142115 -0.21544275
000140 e4 ec bf bd 79 87 53 be 51 79 38 3d cd 75 ef bd
       -0.09371355 -0.20657147 0.04503757 -0.116923906
000150 2b 35 86 3d 52 b3 1a be 5a ea cb bd bb 1f 29 3e
       0.0655311 -0.15107468 -0.099568084 0.1651601
000160 65 e5 48 be ee 62 44 3e c5 6a 72 3d ed 99 18 3e
       -0.19618757 0.19178364 0.059183855 0.14902468
000170 31 ba d7 3c 33 02 b4 3c 57 75 c0 bc fe f0 2d 3e
       0.0263339 0.021973705 -0.023493452 0.16986462
000180 e4 2c 32 bd 3e ef 55 bd 57 18 61 be 0f 55 3b 3e
       -0.043499842 -0.052230112 -0.21981941 0.18294166
000190 47 08 7a be 91 b8 08 be 35 57 5f be 33 43 53 3e
       -0.2441722 -0.13351656 -0.2181061 0.20631103
0001a0 68 b2 81 3e e1 78 66 3e ea 55 f2 bc fc 99 6a 3e
       0.25331426 0.22507049 -0.029581983 0.22910303
0001b0 7f d0 b9 bd 2e b2 87 3d 7e 4d 8a 3e 23 c4 1a bd
       -0.090729706 0.06625782 0.27012247 -0.037784707
0001c0 be b0 7e be 7d d2 16 3e f1 1e 74 be ec b0 fd 3d
       -0.2487211 0.14728732 -0.23839928 0.12387261
0001d0 7c d1 4b bd 7a a5 5e 3e b3 26 41 bd 33 52 5e be
       -0.049760327 0.21742812 -0.047156047 -0.21711044
0001e0 6e 27 2c be 76 f4 9b bd 78 89 2b be 71 1c 2b 3d
       -0.16811916 -0.076149866 -0.16751659 0.04177517
0001f0 71 b1 93 3d a6 fd 76 be d2 df 92 bd b0 ae 89 3e
       0.07211579 -0.24120197 -0.071715966 0.26891088
000200 f6 90 a5 3c b9 a2 0a bd fb cb a7 bd 1d 9b 1f bc
       0.020210724 -0.03384659 -0.08193203 -0.009741572
000210 71 ae 05 be b2 9c 34 3e d2 d8 2f be 3f 07 a3 bd
       -0.13054825 0.176379 -0.17172554 -0.079603665
000220 67 1a 55 3e 38 cf 25 3e dc 5e 43 3d 20 23 1a be
       0.20810853 0.16192329 0.047697887 -0.15052462
000230 8b a6 9b 3c 66 33 5c 3b ef 76 ae bd 8d 0f 52 3d
       0.019000312 0.0033599972 -0.085187785 0.05128436
000240 8c 89 02 be 08 26 ee bc f1 f1 4a be e9 1a 2d be
       -0.12747782 -0.02907087 -0.19818856 -0.16904797
000250 30 27 e0 bd f0 d9 aa bd 7e 21 c7 bc 40 bf 58 3e
       -0.109449744 -0.083423495 -0.024307963 0.21166706
000260 cb 20 2f 3e 3d 83 c8 bd 16 34 1a be 05 72 8e 3d
       0.17102353 -0.09790657 -0.15058932 0.06955341
000270 83 df d2 bd f4 d1 e0 bd ae 1c 6c be e7 2b 74 3e
       -0.10296538 -0.109775454 -0.23057815 0.23844872
000280 ef e7 52 3e 02 18 b1 bd 1a df f2 3d 53 93 2d 3e
       0.20596288 -0.08647157 0.118589595 0.16950731
000290 bb cf 76 3e ee a9 09 be 26 8a 01 be b4 a6 35 3e
       0.2410268 -0.1344373 -0.12650356 0.17739373
0002a0 1c ac 57 bd 16 34 1a bd 9f 51 25 3e 9f 27 01 3e
       -0.05265437 -0.03764733 0.16144417 0.1261277
0002b0 f2 75 06 bd 89 cd 72 3e b1 3e 58 3e 5e d4 b1 bb
       -0.032827325 0.23711218 0.21117665 -0.0054269275
0002c0 5f be 43 3c d7 43 2a 3d 21 c8 05 bd e5 6d cc bd
       0.0119472435 0.041568603 -0.03266156 -0.09981898
0002d0 74 ea 16 bd cd f9 fe 3d 9c 15 22 be 1e 2f 75 3c
       -0.036844686 0.124499895 -0.15828556 0.014964847
0002e0 5b 41 1d bd ec 1a 85 be 17 3a 50 bd 3b 2a 0d 3e
       -0.038392406 -0.25997102 -0.05083665 0.13785641
0002f0 87 99 a9 3c e5 96 2c be 69 a6 1a be b7 83 9f bc
       0.02070309 -0.16854437 -0.15102543 -0.019471986
000300 33 06 1b be 89 5c 41 3e dd 06 3d be 99 b6 df bd
       -0.15139084 0.18882956 -0.1845965 -0.109234996
000310 5e 43 6f be c6 e0 41 3e 54 69 31 be 65 61 0e 3e
       -0.23365542 0.189334 -0.17325336 0.1390434
000320 fe c8 b9 3d a9 6d 60 be d5 65 ee 3d dd 75 29 be
       0.09071539 -0.21916832 0.11640517 -0.16548868
000330 8f 76 ab bd 5e 60 84 bd eb 22 2f be 40 28 dd 3d
       -0.08372223 -0.06463693 -0.17103164 0.10798693
000340 49 58 19 3e 74 3c 12 3e 4d 97 7f bd fe 4c ba 3c
       0.14975084 0.14280874 -0.06240015 0.02274179
000350 19 cb e4 bc 80 f5 fb bd 6e b1 4c be e9 dc bd 3d
       -0.027928876 -0.12302685 -0.19989559 0.09270651
000360 75 f0 17 3e 1f af 92 3d e4 61 d1 bc ee 9e 96 3d
       0.14837821 0.07162308 -0.025559373 0.07354532
000370 cf 6a fe bd be df cd bd 4c ef fd 3d ef f1 8e 3e
       -0.12422716 -0.10052441 0.12399158 0.27918956
000380 bf fe 30 3e 8d 9d 8c be 8d f8 af bd d5 a2 8d be
       0.17284678 -0.27463952 -0.08592329 -0.27663293
000390 82 c1 f5 3c 4d c0 21 be 02 dc 75 3e 50 55 76 be
       0.029999498 -0.15796013 0.24009708 -0.24055982
0003a0 f6 c6 49 3e df 1f 80 3d f3 5a c8 3d b0 16 18 3e
       0.19704804 0.06256079 0.09782972 0.14852405
0003b0 ed 68 28 3d 49 b8 2e ba 18 9f 55 bd 80 c5 e1 bd
       0.04111569 -0.0006665034 -0.052153677 -0.11023998
0003c0 a5 ce a6 bc a3 a5 06 3d d3 87 a9 3d 5c 52 58 be
       -0.020362208 0.032872807 0.082778595 -0.21125168
0003d0 ba ae bc 3d 12 ac 2c be 3d 8a 2a bd 4d c4 ea bd
       0.09213014 -0.16862515 -0.04163574 -0.11463223
0003e0 74 1e 3f be 83 c7 06 3d f7 1f 6a bd f9 5e 0e be
       -0.1866396 0.032905113 -0.05715939 -0.13903417
0003f0 32 58 30 bd 32 63 a9 3d 16 c1 8e 3e 3b 05 fb 3d
       -0.04305286 0.08270873 0.27881688 0.12256857

fc_small.bias f4 [16]
000000 c9 68 b5 3d 78 e2 28 3b 5e 22 39 3e 64 91 38 3e
       0.08857877 0.0025769752 0.18079516 0.18024212
000010 15 be 62 3e fe 16 74 3d 47 6a 33 be e9 1f 66 be
       0.22142823 0.05959224 -0.1752101 -0.2247311
000020 a9 6e 40 3b 29 23 9e 3d f5 d8 54 3e 5f ba 19 3e
       0.0029362834 0.0772155 0.20785888 0.15012501
000030 dd 3e 67 3e cd 05 40 3d f6 ed 8a 3e e1 7a 00 be
       0.22582574 0.046880532 0.27134675 -0.12546875

lstm.weight_ih_l0 f4 [128, 16]
000000 2d 6e a8 bd 36 91 d4 3d a5 65 37 be 51 3a 1c be
       -0.08224139 0.10379259 -0.17909868 -0.15256621
000010 32 60 0d 3e a5 e1 9b 3d 62 c0 83 3d 16 26 8c 3d
       0.13806227 0.07611398 0.064331785 0.06843202
000020 e8 35 d9 bc 0f 95 b0 3d 22 86 21 3e 4b ac a0 bd
       -0.026514962 0.08622181 0.15773824 -0.07845362
000030 a9 e3 97 bc bd d5 1d 3e 50 6a 60 3c e6 bb 83 bd
       -0.018541174 0.15413566 0.013697222 -0.06432323
000040 2d 80 d3 bd 7f 02 ce 3d b7 46 e8 3d c5 d9 f4 bc
       -0.10327182 0.1005907 0.11341613 -0.029888997
000050 04 1f 23 3e dc 7e 17 3e 05 67 23 be 40 31 77 bd
       0.159298 0.14794487 -0.15957268 -0.060349703
000060 3f 5f 18 3e 6c 49 fd 3d 6e 72 50 3d b6 6e 90 3d
       0.14880084 0.1236752 0.05089038 0.070523664
000070 9c 61 34 be a9 a9 28 be 10 81 d3 bd e1 46 1c 3e
       -0.1761536 -0.1647097 -0.10327351 0.15261413
000080 76 6a 99 bd 90 fc 48 3e 89 d1 a7 bd 91 c3 e9 bd
       -0.07491009 0.19627595 -0.081942625 -0.114142545
000090 d7 11 bc bd 4b c4 ca bc 53 a6 3f be ac 42 de 3c
       -0.0918309 -0.024751803 -0.18715791 0.027131401
0000a0 ea 7f e2 3d 9f 7d 04 be 69 08 c1 3d 52 40 87 3d
       0.11059554 -0.12938546 0.09425432 0.06604065
0000b0 53 4b 04 3e 24 61 a5 3c 13 31 17 be 56 80 08 be
       0.12919359 0.020187922 -0.14764814 -0.13330206
0000c0 b5 9f 57 bd 62 2e fb 3d 40 5e 95 3c 4d 7a c2 bc
       -0.052642543 0.12264706 0.018233418 -0.023739958
0000d0 db 03 82 3d 37 b3 27 3e 69 72 e5 3d 22 59 07 be
       0.063483916 0.16376959 0.11203463 -0.13217595
0000e0 a0 77 31 3d a1 c3 0a 3c ba dc ad 3d 50 fa 19 3e
       0.043326974 0.008469493 0.08489366 0.15036893
0000f0 d1 0a d6 bd 2b 7e 22 be ae 3d 1e be 92 33 7d bd
       -0.10451282 -0.15868442 -0.15453216 -0.06181676
000100 49 95 59 bd 66 c4 b0 3d 55 76 03 3e 10 dd b9 bb
       -0.053120885 0.0863121 0.12838109 -0.0056721047
000110 9e ae 83 3d 76 bb 29 be 92 c0 5c 3d f7 fd 41 be
       0.0642979 -0.16575417 0.053894587 -0.18944536
000120 8b c4 51 3c 56 ea fe bd f9 72 51 3c 9d bb 2a 3d
       0.012803207 -0.1244704 0.012783759 0.04168283
000130 c2 ec cf 3c ac ea 36 bd c8 08 21 3e d3 d6 de 3d
       0.02538145 -0.044657394 0.15726006 0.10880818
000140 5d 65 17 be d2 29 ab 3d 30 da a7 3d b1 ff e3 bd
       -0.14784761 0.08357586 0.08195913 -0.11132754
000150 75 8b be 3b 0b c0 09 be a7 73 0d 3e 4d ea 08 3e
       0.0058149644 -0.13452165 0.13813649 0.13370629
000160 19 20 f3 3d 01 fe 74 3d 0b 10 93 bd b9 1b 0c 3e
       0.118713565 0.05981255 -0.07180794 0.1368245
000170 d1 8b 16 be 72 2e 89 bd 74 25 8b 3d c7 25 5b bc
       -0.14701773 -0.06698312 0.06794253 -0.013375706
000180 e5 9f e6 bd 4f 4d f7 3c 5b 19 21 bd 0e 5a 14 be
       -0.11260966 0.03018823 -0.03933082 -0.14487478
000190 19 d8 16 be a9 cc 81 bd 53 0f a8 3d 91 14 f9 bd
       -0.14730872 -0.06337864 0.08206048 -0.12162126
0001a0 b9 98 53 bc 15 5a c1 bd 7e ad 94 3d 3d 2c ab 3c
       -0.01291483 -0.0944101 0.072596535 0.020895118
0001b0 4f 54 f3 bd 82 1b 40 bd 3f 6b 61 3d b9 3d 23 3d
       -0.11881315 -0.046901233 0.05503392 0.039853785
0001c0 59 74 f5 3b 9a 47 e9 3d 59 6b 0d 3e b2 76 82 3d
       0.0074906764 0.1139061 0.13810481 0.063702956
0001d0 26 ad cb 3d af 5c 62 bd cb d1 05 be c8 b9 40 bd
       0.09945135 -0.05526417 -0.13068311 -0.047052175
0001e0 91 e4 16 be 58 50 27 3e 48 14 c7 bd e2 0b ec bd
       -0.14735629 0.16339242 -0.09720665 -0.11525704
0001f0 72 6f f9 bd 65 39 85 3d b1 0a 1b be 42 86 21 3e
       -0.1217946 0.06505088 -0.15140797 0.15773872
000200 ea 37 c4 bd f0 6c 14 3e c9 7c a7 3d dc d1 0d 3e
       -0.09580977 0.14494681 0.08178098 0.13849586
000210 03 0c d1 3c ae 9b d9 3d 0e 0d 15 be 1e 22 92 bd
       0.025518423 0.10625397 -0.14555761 -0.071354136
000220 10 0d 2f 3b d6 4c 24 3e 69 1e 17 3e 1a 0f 27 3e
       0.0026710667 0.16044936 0.14757694 0.16314355
000230 32 fd 62 bd 2f 96 2c be fc dc e2 3d c8 fc eb bd
       -0.055417247 -0.16854165 0.11077306 -0.115228236
000240 9a f8 f0 bc e1 3c 1f 3e f1 b8 e2 bc 6f fe 17 3e
       -0.029415417 0.15550567 -0.027676078 0.14843152
000250 08 d7 0b be 93 54 90 3d b5 71 c3 3d b9 18 ec bd
       -0.13656247 0.07047381 0.09543172 -0.11528153
000260 72 38 11 be f4 a1 80 3d 59 fc ad bd 4a d8 e4 bc
       -0.14181688 0.0628089 -0.08495397 -0.027935166
000270 0c 48 80 bd 18 c6 09 bd ab 42 8f 3c 26 d2 d5 3d
       -0.06263742 -0.033636183 0.017487844 0.10440473
000280 fc 01 06 3e 7b a5 f1 3d 80 98 dd bc 04 ff fe 3d
       0.13086694 0.11799141 -0.027050257 0.12450984
000290 66 6e 26 bd f5 1a 1b 3e ef 29 15 3e 44 47 34 3e
       -0.040632628 0.15147002 0.14566778 0.1760531
0002a0 49 45 a3 bd 9d de 33 be e2 94 58 3d 79 2d 50 3d
       -0.079721995 -0.17565389 0.05287636 0.050824616
0002b0 05 3e 73 bd 91 14 cc bd 16 5b a5 3c 61 f4 ba 3d
       -0.05938532 -0.0996486 0.020185035 0.09128643
0002c0 9a 0e 07 be b0 da e0 3d 1d 51 3a bd 36 8f 1f be
       -0.13189164 0.10979211 -0.045487512 -0.15581974
0002d0 a0 e0 1b bd d9 b2 66 bd e6 85 62 3d 67 86 8e bd
       -0.038056016 -0.056322906 0.055303477 -0.06959229
0002e0 1e 58 21 3e e9 6e 10 3e b7 ad 01 be 92 87 6e 3c
       0.1575627 0.14104809 -0.12663923 0.01455869
0002f0 8b 05 1e be 7d 76 d2 3d d2 dd 09 bd c5 1d 1d 3e
       -0.15431802 0.10276506 -0.03365881 0.15343387
000300 1b f8 ed 3d 39 9f 40 3c 0f 3d 99 3d 1c 3a ef bd
       0.11619588 0.011756712 0.07482349 -0.11681005
000310 a1 4b 26 bd ed 74 f8 3d a8 a0 86 bd 31 14 02 3d
       -0.04059947 0.12131677 -0.065736115 0.031757537
000320 f8 97 82 3d c0 92 42 bd 79 82 1a 3e c2 69 aa 3d
       0.06376642 -0.047503233 0.15088834 0.08320953
000330 d3 d4 0d bc c9 2b f5 bc e5 f7 b0 3d 5f 14 0a 3d
       -0.008656698 -0.029928105 0.08641032 0.033710834
000340 c9 f7 8d bd b2 fa 3b 3e 32 e3 0a 3d e8 ee 05 be
       -0.06932027 0.18357351 0.033908077 -0.13079417
000350 b4 d4 33 be 44 0b e3 3d 24 ec 05 3e af b3 06 be
       -0.17561609 0.11086133 0.13078362 -0.13154481
000360 fa a4 eb 3d c5 52 d6 3d d0 9e 55 3b a2 6e 2e 3c
       0.11506076 0.10465006 0.003259588 0.010646494
000370 99 82 18 3e 36 56 08 be 02 64 97 bd c1 20 e8 bd
       0.14893569 -0.13314137 -0.07392122 -0.11334372
000380 65 b3 2e 3e 03 02 94 bd e8 13 0a 3e 98 ea 04 be
       0.17060621 -0.07226946 0.13484156 -0.12980115
000390 7e c9 b8 bd 8b 06 7b 3d 73 4f 78 bd f0 d1 7b bd
       -0.090228066 0.061285537 -0.060622644 -0.06147951
0003a0 eb b2 4e 3d c9 d0 02 3e 33 c6 03 bd 20 25 f4 3c
       0.0504636 0.12774958 -0.03217144 0.029802859
0003b0 80 16 28 3e 31 72 86 bd 73 6f 11 3e aa 48 bd bd
       0.16414833 -0.06564749 0.14202671 -0.09242375
0003c0 61 67 1c be aa 5f c4 3d 73 c4 12 3e 46 ad 64 bd
       -0.15273811 0.09588559 0.14332752 -0.05582931
0003d0 d3 58 86 3d 6e bf 1f be 46 7f 0d be 8f 83 77 3c
       0.065599106 -0.15600368 -0.13818082 0.01510705
0003e0 e5 76 f0 3d e4 31 1b be fc 68 2d 3e 01 45 08 bd
       0.11741427 -0.1515575 0.1693458 -0.033268932
0003f0 2e 3b 89 3d 75 7b 40 be 42 ee 38 3e 02 9e 9b bd
       0.06700741 -0.18797095 0.18059638 -0.07598497

lstm.weight_hh_l0 f4 [128, 32]
000000 58 fe 45 bd 0e ea 18 be aa e7 c5 3d 0b 44 98 bc
       -0.048338264 -0.14933035 0.09663327 -0.018587133
000010 53 60 fc 3d bb 0f 09 3e 26 63 11 bd 5b e4 09 bd
       0.1232306 0.13384907 -0.035494946 -0.033665042
000020 da 83 a0 bc 9a bd bb 3d 7e 10 9d bd c5 36 38 be
       -0.019594122 0.09167023 -0.07669161 -0.17989643
000030 ab 82 c6 3d 01 ad 38 be af 98 c6 3d b3 5b 7f bd
       0.09692892 -0.18034746 0.09697091 -0.06234331
000040 ac 69 ae 3c e0 9b c6 3d 5c 02 77 3c e7 1c ea bd
       0.021290623 0.096976995 0.015076246 -0.11431294
000050 64 2b 93 3d 4b d1 ed 3d 43 93 b8 3c 1c 2d 8d 3c
       0.071860105 0.11612185 0.022531157 0.017233424
000060 fb 1b c3 3d 6f 3c f8 3d 4e d5 bb bd 49 a7 b8 bd
       0.09526821 0.12120902 -0.09171544 -0.09016282
000070 35 12 1c be 5f 0a b0 3c 8d 88 1b be d4 66 2a be
       -0.1524132 0.02148932 -0.15188809 -0.16640788
000080 d9 f2 42 be 59 68 3f 3e df c8 29 3e 17 c8 1b 3e
       -0.19037952 0.18692149 0.16580532 0.15213047
000090 87 27 7f 3b c1 b8 80 bd 5e 2b 12 bd 50 35 d5 3d
       0.0038933472 -0.06285239 -0.03568589 0.10410559
0000a0 c7 a7 ad bc 93 32 40 be c9 d9 a1 3d 9f 50 ec bd
       -0.021198167 -0.18769293 0.07902867 -0.11538815
0000b0 e7 a7 08 3d 8b 88 e5 bd 3a 95 f1 bd 2d 6b 8e 3d
       0.03336325 -0.11207684 -0.11796041 0.06954036
0000c0 4a 00 15 3e 4b 75 e2 3d 3d 45 fb bd 00 df b2 3d
       0.14550892 0.11057528 -0.122690655 0.0873394
0000d0 44 c7 b0 bc 87 f3 29 be da fa 6a 3d 3c 43 ff bd
       -0.021579392 -0.16596805 0.057368137 -0.12463996
0000e0 8c 14 0e 3e 28 3a 54 3b 6f ab 59 3d d5 e8 fd 3d
       0.13875026 0.0032383297 0.053142007 0.12397925
0000f0 0f 7c 7d 3d 93 05 ec bc 23 a0 5b bd 60 82 6a 3c
       0.06188589 -0.028811252 -0.053619515 0.01431331
000100 33 80 14 bc 86 76 06 bc 8c 3b 13 3e 18 4f 8e bd
       -0.009063768 -0.008206969 0.14378184 -0.0694868
000110 e6 36 80 3d 37 86 91 3d 0e 0b f5 bd c5 5c 45 bd
       0.06260471 0.071056776 -0.11964999 -0.048184175
000120 6f fc c9 bd c5 2a 21 be 8e f1 74 bd 8c 3c 18 3e
       -0.09862601 -0.15738972 -0.059800677 0.14866847
000130 7a 99 dc bd 9c ae 81 bd e6 8a 32 be 34 76 f3 3c
       -0.10771461 -0.06332132 -0.17435798 0.02971945
000140 74 c7 f6 bd 0c c4 e5 bd e9 f8 26 bd 03 1c 3d be
       -0.120497614 -0.112190336 -0.040764723 -0.18467717
000150 26 3d db 3d 04 dd cd 3d 03 20 e1 bc 13 bb e7 3c
       0.107050225 0.10051921 -0.027481085 0.028287446
000160 cf e4 18 be e8 b3 34 3e dd fa 08 3d 40 ca d3 bc
       -0.14931034 0.17646754 0.033442367 -0.025853276
000170 73 b0 0a be 8f 72 ce 3c 0a b0 2a be 0e 92 55 3d
       -0.13543873 0.02520111 -0.16668716 0.05214124
000180 e7 a9 c2 bd 04 0b 1f 3e c4 05 8d 3d a0 17 80 bd
       -0.095050626 0.15531546 0.06885865 -0.06254506
000190 4b 5c 06 be e1 32 14 be cc 96 cc bd 7b 40 a5 3d
       -0.13121144 -0.14472534 -0.099897 0.08068939
0001a0 0a 4e df 3d 54 87 c9 3d 3a 23 c0 3d 37 53 29 bd
       0.10903557 0.09840265 0.09381719 -0.041339125
0001b0 8c 43 1c 3e 55 6e f5 3d fe 35 56 bd e5 c2 e6 3d
       0.15260142 0.11983935 -0.052297585 0.11267642
0001c0 ec 87 e6 bd 78 4f f7 3d ca d3 19 be 1a 26 83 3b
       -0.11256394 0.12075704 -0.15022197 0.004002345
0001d0 cb 57 af bd 29 1c de bd a8 ec 8f bd 19 b3 1a be
       -0.08561667 -0.10845215 -0.070275605 -0.15107383
0001e0 8e 5d 18 3e 8a a8 e2 bd 6e f0 12 bd fe 3f aa 3d
       0.14879438 -0.110673025 -0.035873823 0.08312987
0001f0 b4 06 21 be eb 0b 4d bd c4 7c 35 3d cb 2e 12 3e
       -0.15725213 -0.050060194 0.04430844 0.14275663
000200 17 80 07 be c4 7f cf bd 03 c2 25 bc db b1 49 3e
       -0.13232456 -0.10131791 -0.010117057 0.19696753
000210 68 f3 69 3d cb 23 32 3c 6b b6 6d bd f9 0b b1 bc
       0.057116896 0.0108727915 -0.058035295 -0.021612154
000220 e9 5c c6 bd c6 72 1e 3e cb 72 df 3c 60 7f 83 bd
       -0.0968569 0.1547347 0.027276417 -0.06420779
000230 d0 90 ec 3d 49 ec 7c 3d 5f 8e e2 bd 19 1f 3f 3e
       0.11551058 0.061748777 -0.110623114 0.18664207
000240 2d c7 cf bd 61 6f 9d bd f0 86 4c bd 76 92 10 3e
       -0.10145412 -0.076872595 -0.049933374 0.1411837
000250 6b 8f 88 3d 18 33 87 3d 5a d7 14 be 6e e9 09 3d
       0.0666798 0.06601542 -0.14535275 0.03366988
000260 67 c9 1d 3e 6f 6c a5 bd 6f d2 11 3e ce aa 5b bd
       0.1540886 -0.08077323 0.1424043 -0.05362969
000270 31 70 43 bb dd 8d 3c 3d 50 2f f1 3d b2 49 a7 3d
       -0.002982151 0.04603373 0.11776602 0.08168353
000280 b8 88 e7 bd 96 98 2b 3d 30 02 fa 3d d3 50 96 3c
       -0.11305374 0.041893564 0.122074485 0.018349087
000290 30 24 04 3e 3d e5 07 be 8c 75 8c 3d 07 23 53 bd
       0.1290443 -0.13271041 0.06858358 -0.051547077
0002a0 0b 33 15 be e8 a0 38 be 87 51 cf bd 16 10 2a 3e
       -0.14570253 -0.18030131 -0.10122972 0.16607699
0002b0 44 9b 2a be dd 5e 03 3e 1c a0 b6 bd b4 ff 01 3e
       -0.16660792 0.12829156 -0.08917257 0.12695199
0002c0 e2 5d 10 3e d9 dd 1d 3e 86 33 11 3e e8 2b 8d 3c
       0.14098313 0.1541666 0.14179811 0.01723285
0002d0 26 34 3d 3d 65 33 98 bd dd 95 08 3e d5 cb 9f 3d
       0.04619231 -0.07431678 0.13338418 0.0780255
0002e0 a6 ac b8 3d 34 ae 7a 3c 15 2b 0b 3c fb b7 90 3d
       0.09017305 0.015300322 0.008494158 0.070663415
0002f0 d8 4a 56 3d db 52 e4 3d f1 94 45 3d a1 0b 18 3d
       0.05231747 0.11148616 0.048237745 0.037120465
000300 f7 67 cd 3d 5d 26 0c 3e 7d bd a4 bd ab d1 4c bc
       0.10029595 0.1368651 -0.080439545 -0.012501161
000310 6b de c7 3d c8 89 1f be ae ef bf 3d a2 81 d8 bd
       0.0975922 -0.15579903 0.09371887 -0.105716005
000320 c5 f2 56 bd 77 04 41 be e8 84 0f be d0 65 10 be
       -0.052477617 -0.1884936 -0.14015543 -0.14101338
000330 de a2 60 3d 23 99 0b be 1f 26 36 bd 96 7a 17 be
       0.054842822 -0.13632636 -0.04446995 -0.14792857
000340 55 4b 9b 3d d8 90 99 3d 02 8f 0a 3e 65 ad d6 bd
       0.07582728 0.0749833 0.13531116 -0.10482291
000350 5c 6b 21 3e f7 71 e8 bd 80 9b 92 bd c9 a4 26 be
       0.1576361 -0.11349862 -0.071585655 -0.16273798
000360 3d b8 8b 3d 27 8d 0d 3e 4e 0b 86 3d 74 76 07 3e
       0.0682225 0.13823377 0.06545125 0.1322878
000370 9f 5c 63 bd fe dc 12 3e 05 37 83 3d 35 75 ea 3c
       -0.055508252 0.14342114 0.064069785 0.028620342
000380 23 58 cf 3d f1 ed 8d bd f6 e2 0f be e1 17 fb bd
       0.101242326 -0.06930149 -0.14051422 -0.12260414
000390 fa 89 ff bc 24 9d 15 be d7 59 1f 3e 39 8d 71 3d
       -0.031193722 -0.14610726 0.15561615 0.05897257
0003a0 f3 0c 8b bd dc 13 06 be 5f e0 f3 3d 5f 5a 3e be
       -0.06789579 -0.13093513 0.1190803 -0.18589161
0003b0 44 0e 1a be 4f 24 9a 3d 31 d9 ca bd fc 2c 35 bd
       -0.15044504 0.075264566 -0.09904707 -0.044232354
0003c0 38 65 be 3d 66 0d 33 be 1c 89 cf bd 45 4a 3d be
       0.0929665 -0.1748558 -0.101335734 -0.18485363
0003d0 bc cb 95 bd 44 e8 25 3e 78 29 99 bd 1d 16 ef bd
       -0.0731425 0.16201884 -0.07478613 -0.1167414
0003e0 e1 25 e0 bd db 65 eb 3d 5a be b8 bd cf 1b 46 3e
       -0.10944725 0.11494037 -0.09020682 0.19346546
0003f0 03 f4 ae 3d 80 14 b6 3d c5 a0 8d bd d5 8f 30 bd
       0.08542635 0.08890629 -0.0691543 -0.04310592

lstm.bias_ih_l0 f4 [128]
000000 82 b1 00 be cc 8c 1f 3e 85 a6 15 be ea be 2c 3e
       -0.12567714 0.15581053 -0.14614303 0.16869703
000010 78 c9 d0 3d 8c 81 ca 3a 54 ea c6 3c a8 33 ab 3b
       0.10194677 0.0015449985 0.024281658 0.0052246638
000020 90 2d 1e be fb 81 aa 3d 15 2d de 3d e7 76 d6 3d
       -0.15447068 0.08325573 0.108484425 0.104718976
000030 4b e5 4f bd 41 96 e1 3d 95 ee 90 bd 40 90 0f 3e
       -0.05075578 0.11014987 -0.07076756 0.14019871
000040 49 79 16 be 51 fe dd bd ac 5b 21 3e 69 0b 25 3d
       -0.14694704 -0.10839523 0.15757626 0.040294085
000050 9e ca 3f 3e 6e 7b 3f 3e b0 a1 91 bd c7 a9 36 bd
       0.18729636 0.18699428 -0.071109176 -0.044595506
000060 0d 7c f2 bd 8f c4 20 3e 3c dd 15 be be a8 0c bd
       -0.11840067 0.15699981 -0.14635175 -0.034340613
000070 90 ee c6 bd a4 d2 cb bd bf e7 b9 bd a2 39 2e bd
       -0.09713471 -0.09952286 -0.09077405 -0.04253543
000080 bd 16 86 bc 9d 91 f4 3d e8 c3 ad 3d a2 03 98 bd
       -0.016368264 0.11941836 0.08484632 -0.07422568
000090 c3 4f 9e 3b c0 f5 ab bd 16 56 53 3d a8 41 ff bb
       0.0048312857 -0.083964825 0.05159577 -0.0077898093
0000a0 8d 3c d8 3d 74 3b 35 3e d2 8c 13 bd 35 41 b6 bc
       0.10558424 0.17698461 -0.03602297 -0.02224789
0000b0 87 fd be 3d fd 17 89 bd ea 11 2f 3e b5 3d 1e 3e
       0.093257 -0.066940285 0.17096677 0.15453227
0000c0 ed b9 7f 3c 14 f0 61 bd 5f 7b 11 3e 85 d6 2d 3e
       0.015608293 -0.055160597 0.14207219 0.16976364
0000d0 f2 ab 9b bd 5e ef 0c 3d 98 b6 b6 3d b5 21 8a 3c
       -0.07601155 0.034407966 0.08921546 0.016861776
0000e0 46 50 62 3c 4a 01 e0 bd a3 1b 19 3e 6b 21 c0 bd
       0.013813084 -0.10937746 0.14951949 -0.09381374
0000f0 ae 34 14 be 8b 03 82 3d e6 76 2e 3e b5 d2 04 3e
       -0.1447322 0.06348332 0.17037544 0.12971003
000100 22 34 e0 bc 5c a7 2d 3c 0e d4 dc 3d f3 2e 0a 3e
       -0.027368609 0.010598984 0.10782634 0.13494472
000110 78 96 f6 3d 9f 76 65 3c e3 97 5c bd 8f 36 26 3d
       0.120404184 0.014005332 -0.053855788 0.040579375
000120 e8 a7 58 bd 15 00 14 3e 84 6b ae bc 55 1f c5 bd
       -0.052894503 0.14453156 -0.021291502 -0.09625117
000130 ac ef f1 bc fa d7 f0 bd 01 dd 4f be 99 e1 12 3e
       -0.02953323 -0.11759944 -0.2029915 0.14343871
000140 af 05 2f 3e 93 bb 03 3e a6 aa e1 bd e0 fa 99 bd
       0.17092012 0.12864523 -0.11018877 -0.07518554
000150 27 79 3c be fb 76 dd 3d eb 0a ab 3d 27 1b 3a 3e
       -0.18405591 0.10813709 0.08351692 0.1817442
000160 a6 6c 29 3e 1e 4c 3f 3e 2f 2d f2 3c 40 b2 12 3b
       0.16545352 0.1868138 0.02956256 0.0022384077
000170 44 40 e4 bd b5 a8 34 be 3c 67 8d bd d9 c4 89 bd
       -0.1114507 -0.17642482 -0.06904456 -0.06726999
000180 8d e4 24 3e 3f c7 74 3d 33 ab 0d 3d 97 2c 76 bd
       0.1610281 0.05976033 0.034587096 -0.060101118
000190 ee 5b 0e 3e e7 08 33 3e b0 2b b6 bd 40 3c ad bd
       0.13902256 0.17483865 -0.088950515 -0.084587574
0001a0 22 07 e6 bd 34 16 09 3e 2f aa 9a 3c 2a 91 13 3e
       -0.11231829 0.13387376 0.018879978 0.14410844
0001b0 3d 6e 37 be 78 86 11 3e 89 bd 15 be e0 b2 33 bd
       -0.17913146 0.14211452 -0.14623083 -0.04387176
0001c0 02 00 f2 bc 99 06 cb 3d 87 34 e6 3d b4 04 cd bd
       -0.02954102 0.09913368 0.112404875 -0.10010663
0001d0 40 58 a0 3c 3a 40 c2 bd 17 52 36 bc da cd 01 3d
       0.01957333 -0.094849065 -0.01112797 0.031690456
0001e0 78 f5 8c bd 9e 18 c1 bd 42 fa a9 3d ed 5c 76 3a
       -0.06882757 -0.094285235 0.08299686 0.00093980023
0001f0 38 46 fe 3d 3e 1d bc 3d 66 97 09 be b5 dd 85 bd
       0.12415737 0.09185265 -0.1343666 -0.06536428

lstm.bias_hh_l0 f4 [128]
000000 61 7f 32 3d 45 a7 61 3d 5a ca ca bd e6 af 29 3e
       0.04357851 0.05509116 -0.09901877 0.16571006
000010 6d f1 12 bd e4 be d2 bd cd 88 46 be a9 9e 6b bc
       -0.035874773 -0.10290316 -0.19388123 -0.014381089
000020 0a 3a ee 3c 4a d8 1b 3e a5 33 c0 3d 2a 9a 8d bd
       0.02908041 0.15219226 0.093848504 -0.0691417
000030 03 20 28 bd 6c c2 60 3d 80 54 12 be 6a f9 3b 3e
       -0.041046154 0.054872915 -0.14290047 0.18356863
000040 e1 9d 0d be 24 bd d8 bd d1 1a b1 3d 39 18 c0 bc
       -0.13829757 -0.10582951 0.08647693 -0.02344905
000050 cc 8d 2f 3e ba a9 19 be 8f 4c d4 ba 96 05 47 bd
       0.17143935 -0.15006152 -0.0016197133 -0.04858931
000060 e9 8e 5f 3d a0 c2 06 3e 27 30 36 bd 1e f0 39 bd
       0.05457965 0.13160181 -0.044479515 -0.04539501
000070 0e f7 aa bd 5f 11 c0 ba 2e a9 8b bd 52 d1 a8 bc
       -0.08347903 -0.0014653614 -0.06819378 -0.020607624
000080 44 b2 2b 3e 78 5d 14 3e 3f cb 27 3e ae c0 8c 3b
       0.16767222 0.1448878 0.16386126 0.00429543
000090 f2 c8 07 be 25 56 23 be 62 27 2e bd 9d ef 1f 3e
       -0.13260248 -0.1595083 -0.042518027 0.15618749
0000a0 da d7 f4 bd 9e d7 ef 3c 25 f7 27 bd 36 ed 21 3e
       -0.11955233 0.029277619 -0.04100718 0.15813145
0000b0 de 4d b9 3c 00 9c a9 3d 0a 45 2f 3e 14 53 1f 3e
       0.022620138 0.08281708 0.1711618 0.15559036
0000c0 ac 4a 0b bd 17 a9 43 3e ef 5d c4 bd 15 f5 ed 3d
       -0.03400676 0.19107471 -0.09588229 0.11619011
0000d0 44 e2 30 3e a4 e6 0a bd e4 46 4d 3e bd 87 0c 3e
       0.17273813 -0.033911362 0.20046574 0.13723655
0000e0 dc 8d 76 bd 9a 6e bd bd 98 46 46 3c 04 0e 39 3e
       -0.06019388 -0.09249611 0.012101792 0.18071753
0000f0 d1 33 ee 3d 24 d2 13 be 84 99 96 bd 6c 79 c3 3d
       0.11630977 -0.14435631 -0.073534995 0.09544644
000100 5c d9 f7 3d 69 bc 87 bd 33 fa dc bd 22 3d 64 bc
       0.12102005 -0.06627733 -0.10789909 -0.013930591
000110 98 d1 b2 3d ca 21 50 bd 85 da fe bd d2 bf 10 be
       0.08731383 -0.050813474 -0.12444023 -0.14135674
000120 17 52 10 3e 92 3f 5c bd f2 63 dd bd e1 85 a5 3d
       0.14093815 -0.053771563 -0.10810079 0.08082176
000130 e1 f9 8c bd b2 98 12 3e 53 5f e0 3d c4 e3 98 bc
       -0.06883598 0.14316061 0.10955682 -0.018663295
000140 ab e9 c0 bd fa 6f ea bd 43 4a 07 be e3 53 2b be
       -0.09419569 -0.11447139 -0.13211922 -0.16731219
000150 54 21 31 be cc 05 4b 3e ef 17 3f 3d ce 44 b3 3d
       -0.1729787 0.1982643 0.046653684 0.08753358
000160 56 80 f9 bd 5c 95 d4 bd d2 ae 83 bd 82 89 12 3e
       -0.12182681 -0.103800505 -0.06429829 0.14310268
000170 e3 ee 34 be cd e8 93 3d e6 96 31 bd 90 8c 80 3b
       -0.17669253 0.072221376 -0.0433568 0.0039230064
000180 4b 03 30 3e 9f 35 03 be 92 48 3e bd a1 e7 fd 3d
       0.17188756 -0.12813424 -0.046455927 0.12397695
000190 94 72 76 3c 45 85 3f 3d 0f f3 4d bd 38 97 bd bd
       0.015041966 0.046757955 -0.050280627 -0.09257358
0001a0 15 eb 43 3d 92 fe 19 3e f3 01 9c bd cb 5e 08 be
       0.047831614 0.15038517 -0.07617559 -0.1331741
0001b0 5d 04 12 be a3 03 e4 3d f1 8f 04 be d4 c6 82 3d
       -0.14259477 0.11133506 -0.12945534 0.0638558
0001c0 37 3a 0c 3e 05 3a c8 bd a1 b5 14 3e ed af c7 bc
       0.13694082 -0.09776691 0.14522411 -0.02437588
0001d0 78 80 dc bd b7 27 98 3d 7a 87 87 bd d2 85 b6 3d
       -0.10766691 0.0742945 -0.06617637 0.08912243
0001e0 7e 0f 28 bd 8a 32 e5 bd 8c b3 76 bd e0 45 05 3e
       -0.0410304 -0.1119128 -0.060229823 0.13014936
0001f0 0a 1a 30 be c1 b8 b8 3d 2d ef 09 be 81 3f 1b be
       -0.17197433 0.09019614 -0.13470145 -0.15160944

lstm.weight_ih_l0_reverse f4 [128, 16]
000000 20 2b 00 be 2f 0b c2 bd 7e 52 9b 3d f5 6b ea bd
       -0.12516451 -0.09474789 0.075840935 -0.114463724
000010 eb 15 9f bd e2 2f be 3d ec b7 b7 bd 4e 32 bf bc
       -0.077678524 0.09286477 -0.08970627 -0.023339417
000020 29 bc 09 be a5 ea 88 3d 9b 0f 98 bd bd a5 c5 bd
       -0.13450684 0.0668538 -0.074248515 -0.09650753
000030 d5 6f b4 bd b9 72 b5 bd 4b 33 05 be 3f 9c 2a 3e
       -0.08810393 -0.08859772 -0.13007848 0.16661166
000040 10 ee 00 bd 6f e3 e1 ba 38 c6 9b bc 87 dc 88 bd
       -0.031477034 -0.0017233918 -0.019015417 -0.06682687
000050 25 39 a2 3d bc 4b 02 be a9 3e e9 bc 41 f4 12 3e
       0.07921056 -0.12724203 -0.028472262 0.14350988
000060 85 0e 15 be 3f 98 f6 3c 74 9c 24 be 34 80 0e 3e
       -0.1455632 0.030101893 -0.16075307 0.13916093
000070 a9 ea 7e 3c e8 ad 34 3e 4e 5c b4 bd 6d 7f 9b bc
       0.015558877 0.17644465 -0.08806668 -0.01898166
000080 ac 6b 21 3e 02 e7 f1 bd 95 e1 c9 bc 76 f5 89 bd
       0.1576373 -0.11811639 -0.024643699 -0.06736271
000090 3a fa 1b 3e 02 1c e3 3d a8 eb c5 3d d2 7e db bd
       0.15232173 0.110893264 0.096640885 -0.107175484
0000a0 72 e8 c3 3c e0 ed a9 bd ce db a0 3b f8 1f b2 bd
       0.02391455 -0.08297324 0.0049090153 -0.08697504
0000b0 3b bc 37 3d a4 48 17 be 7f fc 36 3e ea 78 e6 3c
       0.044857245 -0.14773804 0.17869757 0.028133828
0000c0 0f 2b 14 bc 8e 44 3a be 88 95 84 bd 9e 1a ef bc
       -0.009043469 -0.18190214 -0.06473833 -0.029187497
0000d0 af 37 8a bd 57 9a eb bd 07 82 ec 3d be b8 15 be
       -0.06748902 -0.11504047 0.11548238 -0.14621255
0000e0 55 b8 ae 3c e3 7b 03 3e 71 ca 34 3e 80 f9 20 bd
       0.02132813 0.12840228 0.1765535 -0.03930044
0000f0 da f7 c9 bc 3b 42 1b 3d 35 48 a4 3d 0f c4 16 3e
       -0.024654318 0.03790496 0.08021585 0.14723228
000100 2c fd 9d 3d d5 28 11 be 4c 5c c4 3d fd d6 f2 3d
       0.07714304 -0.14175732 0.09587917 0.11857412
000110 71 65 cc bd 7c 0a c5 3d 63 9a 0e 3e d5 fe 9d 3c
       -0.09980286 0.0962114 0.13926081 0.019286552
000120 cb 3d 2b bb 81 de 15 3e 1f 57 14 be ab c5 d4 bd
       -0.002612936 0.1463566 -0.14486359 -0.10389265
000130 c4 fe 45 bd 69 0c 8c 3d 34 bb 25 be da 44 23 be
       -0.048338667 0.068383045 -0.16184694 -0.15944234
000140 0b a4 00 be 22 35 a8 bd 81 bb 39 be 4b 67 45 3d
       -0.12562577 -0.08213259 -0.18137933 0.04819421
000150 fd f0 dc bd 82 51 a9 bc d3 88 1e be 3f 06 9f bd
       -0.10788152 -0.020668749 -0.15481882 -0.07764863
000160 82 6f 01 be 15 1c 96 bd 76 0c 42 3e 06 64 b2 3d
       -0.12640193 -0.07329575 0.18950066 0.08710484
000170 fe 69 40 3e 49 a2 75 3b 23 56 14 be 9b 15 e7 3d
       0.18790433 0.0037480763 -0.14485984 0.11283418
000180 a2 6e 3a 3e 30 67 28 be 9f f8 ac bd 47 bf 15 3e
       0.18206266 -0.16445613 -0.08445858 0.14623748
000190 e8 c4 ea 3d 15 e0 06 3e fc 6e ca 3d 9f c6 cb bc
       0.11463338 0.13171418 0.0988445 -0.024874983
0001a0 a2 80 46 be cf 16 93 3c d6 6f 0f 3e 15 de f8 bc
       -0.19385007 0.017955212 0.14007506 -0.030379334
0001b0 26 ad 03 3e 25 3a b2 3d 95 ff 38 3e 32 e0 49 be
       0.1285902 0.087024964 0.18066247 -0.1971443
0001c0 d0 6d b4 3c 24 84 8d bd b0 40 40 be 31 37 ac 3d
       0.022025019 -0.069099694 -0.18774676 0.084089644
0001d0 6a b0 a8 3d 36 68 08 3e c9 39 b6 bc 9c 99 06 3e
       0.08236773 0.13321003 -0.022244351 0.13144535
0001e0 e6 b4 5d bd c8 8e 11 be c5 94 77 bd 9f 33 c7 3d
       -0.054127596 -0.14214623 -0.060444612 0.09726643
0001f0 16 4f 0d 3e 77 cb fc 3d 66 86 56 3c 44 c5 56 3c
       0.137997 0.12343495 0.0130935665 0.013108555
000200 58 e8 19 be e7 b6 dd 3d 29 64 05 3d 0b 21 6f bd
       -0.15030038 0.108259015 0.032566223 -0.05838112
000210 1e 83 42 3e 02 08 fb bd ec a9 4b bd 31 97 24 be
       0.1899533 -0.12257387 -0.049722597 -0.160733
000220 0d 4a 3e be a0 62 18 3e 94 81 32 bc e1 07 83 bd
       -0.18582936 0.14881372 -0.010895152 -0.06397987
000230 d6 61 ad bc dd 32 47 be aa 82 1b 3d 80 d6 30 be
       -0.021164816 -0.19452997 0.037966408 -0.17269325
000240 74 49 38 3e 95 6b 00 3e 00 79 8e 3d 6f 9a 09 3e
       0.1799677 0.1254104 0.06956673 0.13437818
000250 04 f8 cc 3d 70 9a 1d 3e 59 47 91 3d 64 79 00 bc
       0.10008243 0.15390944 0.070936866 -0.007841442
000260 c6 e3 dd 3d 58 c3 aa bc d7 01 a0 3b b8 a6 10 3d
       0.1083446 -0.0208451 0.004883032 0.035315245
000270 8c 27 96 bc 5b 00 02 bd 92 fe bf 3c c3 1f 35 be
       -0.018329404 -0.03173862 0.023436818 -0.17687897
000280 47 f3 21 bd 52 07 d6 3d 38 28 38 be ed f7 dc bd
       -0.039538648 0.10450615 -0.17984092 -0.107894756
000290 d3 f7 5e 3d b2 6a 89 bc ac 3e 48 bd 4c 0f 53 be
       0.054435562 -0.01677451 -0.048887894 -0.20611304
0002a0 3c 28 b8 3d ed 24 2f 3e 85 67 29 3e b5 97 e4 bd
       0.08992049 0.1710393 0.16543396 -0.11161748
0002b0 b9 a5 20 be 31 0f 43 be 33 81 35 3e 54 e4 94 3d
       -0.15688218 -0.19048764 0.17725067 0.07270113
0002c0 c1 cf 22 3e dd 0e 25 3e 7c 90 2a be 44 8f 92 bd
       0.15899564 0.16118951 -0.16656679 -0.07156232
0002d0 06 dc 5c bd 0c 19 06 be ee 6b 29 be c6 1b de bd
       -0.05392077 -0.13095492 -0.16545078 -0.10845141
0002e0 3c 11 ab 3d 5e 17 df bc 34 0c 86 3d 69 55 40 3c
       0.083528966 -0.027232822 0.06545296 0.011739113
0002f0 00 5e de bd f8 51 33 3d 72 b2 18 be 79 c5 c9 3b
       -0.10857773 0.043779343 -0.14911821 0.006157574
000300 b5 6d 91 3d e1 e8 0a be 3e 50 d8 bd 6c 8c a9 3b
       0.07101003 -0.13565399 -0.1056218 0.0051742103
000310 9d 83 70 bc c8 b1 ba bd e0 2c d3 3d a5 63 22 3d
       -0.014679817 -0.0911594 0.103112936 0.03964581
000320 33 c6 55 ba c9 b6 c9 3d f6 24 53 3e 20 06 09 3d
       -0.0008154839 0.098493166 0.20619568 0.033453107
000330 6a 9c eb 3d 82 05 0f be 2e a2 1c bc d9 4f 12 3e
       0.11504443 -0.13966945 -0.009560151 0.14288272
000340 ef 13 a5 3c 3e 5e de 3d b8 69 0c 3d ea 3f 7f 3d
       0.020151107 0.10857819 0.03428051 0.062316813
000350 b0 b2 f1 bd cd cd 09 be ea 8d e8 3c 0a e0 98 bd
       -0.1180166 -0.13457413 0.028387982 -0.07464607
000360 27 5e 04 bc 19 d0 0e 3d 05 01 38 3d aa 86 b3 bd
       -0.008079088 0.034866426 0.044922847 -0.087659195
000370 aa cb 38 3d b3 38 d6 bd e6 90 07 be ec 3f 50 be
       0.045116104 -0.10460033 -0.13238868 -0.20336884
000380 c3 17 9c 3d 1e 29 fa bd d8 9a 54 bb 5c b8 15 3e
       0.0762172 -0.12214874 -0.0032440927 0.14621109
000390 af b1 de bc 51 e6 0f 3c 43 c5 1e be c2 56 0b be
       -0.027184336 0.008782939 -0.15504937 -0.13607314
0003a0 ec bd 26 3e 48 fe 88 bd 65 fb 27 be 69 54 80 3d
       0.16283387 -0.06689125 -0.16404493 0.062661
0003b0 69 79 0b be 80 b2 d7 bc 5c 37 01 3e 86 9b 51 3d
       -0.13620533 -0.026330233 0.12618774 0.05117371
0003c0 14 63 70 3b 59 3a 44 3d 6a b5 a6 3d 80 78 f7 3c
       0.003668015 0.047907207 0.08140071 0.030208826
0003d0 a0 11 e0 bd ba 41 60 3d 51 9c f5 3d b8 cb 4f bd
       -0.10940862 0.05475018 0.119927056 -0.05073139
0003e0 ac 4b 40 bd 53 ea d1 3c f0 87 a4 bd ba f8 e1 bd
       -0.046947166 0.02562443 -0.080337405 -0.11033769
0003f0 26 81 dd 3d d2 b2 2b be 63 b3 2e be c1 44 86 bd
       0.10815649 -0.16767433 -0.17060618 -0.065560825
