best_model.pt (torch, 55970 bytes, 11 tensors)

conv1.weight f4 [16, 1, 3]
0.1115046 -0.17494728 -0.16505437 -0.45119244 0.5694173 -0.03666501 -0.3189497 -0.48659903
-0.5318605 -0.3782159 0.433415 0.37670398 0.06476961 -0.16304706 -0.30556756 0.28960878
0.3574214 -0.35454136 -0.03927238 0.22386883 0.03788055 0.45307213 -0.20773022 0.4601565
-0.3443603 0.4019037 -0.5315051 -0.15537639 -0.2105094 0.5051647 -0.15389319 -0.018259002
-0.474225 -0.4217928 -0.5345374 -0.236203 -0.32431123 0.2864104 -0.3895619 -0.47283876
0.37766927 -0.22312988 -0.17338802 0.22201408 0.47353142 0.027977182 -0.30602953 0.39280117
00000000: 865c e43d 6125 33be 0304 29be b202 e7be
00000010: 55c5 113f 0d2e 16bd 604d a3be 8223 f9be
00000020: 0228 08bf 84a5 c1be 92e8 dd3e 58df c03e
00000030: eea5 843d cff5 26be 5a73 9cbe 9a47 943e
00000040: f0ff b63e 7286 b5be 13dc 20bd df3d 653e
00000050: a328 1b3d 12f9 e73e 3bb7 54be a299 eb3e
00000060: fe4f b0be 52c6 cd3e b810 08bf fd1a 1fbe
00000070: c78f 57be 7952 013f 2d96 1dbe e793 95bc
00000080: 9fcd f2be 3af5 d7be 71d7 08bf 33df 71be
00000090: 1f0c a6be 62a4 923e a874 c7be ec17 f2be
000000a0: de5d c13e 297c 64be a18c 31be a957 633e
000000b0: b672 f23e 6730 e53c e7af 9cbe 3c1d c93e

conv1.bias f4 [16]
-0.2503721 0.21246 0.16004296 0.33926857 0.072940305 0.46097177 0.54948694 0.55652565
-0.024736872 -0.52942616 -0.45176962 -0.5721768 0.11476569 -0.5221922 0.06972962 0.35981923
00000000: c630 80be 1d8f 593e 4de2 233e 9cb4 ad3e
00000010: ba61 953d 7e04 ec3e 2dab 0c3f 7778 0e3f
00000020: fba4 cabc 7988 07bf 594e e7be 2e7a 12bf
00000030: 460a eb3d 63ae 05bf 67ce 8e3d 3a3a b83e

lstm.weight_ih_l0 f4 [128, 16]
0.011642633 -0.043157138 0.07786299 -0.16890022 0.15801333 0.15361384 -0.0034046366 0.11039597
0.021889957 -0.068038 0.12590571 0.1677858 0.1256682 -0.036351725 -0.003423636 -0.08126848
-0.15212862 -0.125981 -0.11279695 0.0054849875 -0.14080773 -0.12080755 -0.006914461 -0.011652406
0.14455198 -0.112132564 -0.16620764 -0.10501865 -0.124708176 -0.0368742 -0.10392936 -0.16376086
0.010607885 0.012471341 -0.13689202 0.030205922 -0.095850706 -0.033219393 -0.1426453 0.1335825
0.046045993 -0.1132926 -0.13512132 0.002046382 -0.15706281 0.10597977 0.13717824 0.017637838
-0.090948984 -0.057872575 -0.1017288 -0.09375063 -0.105539694 0.16710907 -0.037707042 -0.108274095
0.13414156 0.16259333 -0.11817041 0.024810033 -0.15396045 0.03461205 -0.16366601 0.035461236
-0.03187078 0.07580024 0.03387182 -0.13858196 0.1418804 -0.13802075 0.12604165 0.08765817
0.043080363 -0.09682424 -0.14503376 -0.1766143 0.121299684 0.023837434 0.116083205 -0.13211475
0.08929133 -0.16345182 0.08047372 0.11584476 -0.16309732 0.008345051 -0.02788614 -0.08511758
0.0694327 -0.10060267 -0.016062712 0.10896128 0.1492869 -0.15889536 -0.055698488 -0.12421776
-0.018952006 0.0804692 0.17306451 -0.13669623 -0.05511597 -0.07699192 0.17055996 0.1311291
0.15033308 -0.15956281 -0.056069195 -0.098421805 0.103349224 0.14797488 0.14669687 -0.118000485
0.066734776 -0.03358271 0.09732756 -0.044782016 -0.10976271 0.092711866 -0.14894411 0.059193756
-0.044272292 -0.14296536 -0.10697424 0.025429664 0.05603036 -0.07841322 0.045950513 -0.06564791
-0.065393284 -0.17263342 -0.028101621 -0.05485541 0.12252045 0.092704445 -0.1351129 0.11301288
-0.16562074 0.0250029 -0.0929297 -0.13967462 0.1748884 -0.01782648 0.1681582 -0.050063487
-0.08166854 0.060901113 -0.15766475 0.117122315 -0.03564703 0.058006566 0.027759891 -0.07016271
0.15620276 -0.024176685 0.07584959 0.11154345 -0.05635455 0.07772127 -0.17296116 -0.020677788
0.00657279 0.17183256 -0.1765458 0.059852175 0.08887572 0.06979049 -0.012000924 0.16767786
0.12733138 0.07924347 0.09715314 0.12877218 -0.16398615 -0.10012409 -0.023347624 -0.066324204
-0.0811229 0.13123026 -0.12306439 -0.16931093 -0.116935365 -0.003279629 0.08802697 0.045426022
-0.084006056 0.1086882 0.10727578 0.04942083 0.069020905 0.10619502 0.13751125 -0.11531199
-0.10422905 0.0719504 0.12880532 0.06216132 -0.039458036 0.0043889633 0.04956331 0.072951294
-0.1751067 -0.08442186 0.05275366 -0.08981414 0.07498153 0.090618014 -0.1009536 0.027097024
0.13320792 -0.026619395 -0.15293556 -0.061287366 -0.046759427 0.13927822 -0.17574798 0.09842097
0.06583818 -0.06806231 -0.017265385 -0.11706172 -0.12850481 0.110373065 0.03572451 -0.10660703
0.0945952 0.11414046 -0.039160233 -0.1349317 0.04268359 -0.06272376 -0.17575188 0.02521016
-0.057252873 -0.1740568 -0.14293702 0.09448862 -0.12793429 -0.066480964 -0.12861845 -0.09228504
0.1310097 -0.0056249993 -0.0058808 -0.14913331 -0.08439591 0.048661258 -0.1201143 -0.028231429
-0.12569097 0.005659368 -0.02412289 -0.104989745 0.15861902 0.050904665 0.1455386 -0.11893088
00000000: bec0 3e3c 8ac5 30bd a276 9f3d 2ef4 2cbe
00000010: 3fce 213e f24c 1d3e 5320 5fbb 4817 e23d
00000020: 9152 b33c 8257 8bbd 6ded 003e 0ad0 2b3e
00000030: 2aaf 003e 8ce5 14bd 155f 60bb 1770 a6bd
00000040: 9bc7 1bbe 2a01 01be 1602 e7bd 69bb b33b
00000050: e72f 10be f369 f7bd b492 e2bb bce9 3ebc
00000060: 6f05 143e c2a5 e5bd 5632 2abe 0514 d7bd
00000070: 0067 ffbd 6709 17bd ebd8 d4bd edb0 27be
00000080: b2cc 2d3c 9854 4c3c 6c2d 0cbe 6972 f73c
00000090: 604d c4bd 0f11 08bd 9c11 12be dac9 083e
000000a0: b99a 3c3d f305 e8bd 3e5d 0abe 981c 063b
000000b0: 13d5 20be ec0b d93d 7478 0c3e 3a7d 903c
000000c0: 7643 babd cb0b 6dbd 3057 d0bd 5500 c0bd
000000d0: 3225 d8bd a41e 2b3e b372 1abd cfbe ddbd
000000e0: 685c 093e de7e 263e 5403 f2bd 693e cb3c
000000f0: cfa7 1dbe 5dc5 0d3d 1098 27be cd3f 113d
00000100: ef8a 02bd 283d 9b3d 2dbd 0a3d 6ee8 0dbe
00000110: 1849 113e 5055 0dbe 1011 013e 2086 b33d
00000120: 0975 303d ca4b c6bd bb83 14be 61da 34be
00000130: f86b f83d b946 c33c 08bd ed3d 1749 07be
00000140: 5fde b63d ea5f 27be 68cf a43d 0440 ed3d
00000150: fc02 27be aeb9 083c 7971 e4bc 2052 aebd
00000160: bb32 8e3d c608 cebd f395 83bc 1727 df3d
00000170: aade 183e 77b5 22be 1924 64bd e265 febd
00000180: 3d41 9bbc 09cd a43d d337 313e 19fa 0bbe
00000190: 49c1 61bd f1ad 9dbd 45a7 2e3e b546 063e
000001a0: eaf0 193e 6f64 23be d0a8 65bd 5f91 c9bd
000001b0: c2a8 d33d ba86 173e b437 163e 3daa f1bd
000001c0: 3eac 883d 068e 09bd ac53 c73d 596d 37bd
000001d0: 46cb e0bd b8df bd3d ce84 18be 2775 723d
000001e0: dd56 35bd 8365 12be 4f15 dbbd df51 d03c
000001f0: 1780 653d 1c97 a0bd 9b36 3c3d 6972 86bd
00000200: eaec 85bd d1c6 30be 5f35 e6bc 11b0 60bd
00000210: 00ec fa3d d4db bd3d 095b 0abe 4c73 e73d
00000220: 7c98 29be e2d2 cc3c ed51 bebd dd06 0fbe
00000230: f215 333e d708 92bc aa31 2c3e 5f0f 4dbd
00000240: d641 a7bd 7273 793d de72 21be d3dd ef3d
00000250: 9f02 12bd 4b98 6d3d b668 e33c 78b1 8fbd
00000260: 9ef3 1f3e 2f0e c6bc 0857 9b3d e470 e43d
00000270: 07d4 66bd 542c 9f3d bb1c 31be 7764 a9bc
00000280: 8f60 d73b e0f4 2f3e 6cc8 34be 8e27 753d
00000290: 7904 b63d 51ee 8e3d 869f 44bc bfb3 2b3e
000002a0: 2863 023e 674a a23d 3af8 c63d dbdc 033e
000002b0: fceb 27be dc0d cdbd 8443 bfbc fcd4 87bd
000002c0: c323 a6bd 3a61 063e 2f09 fcbd d85f 2dbe
000002d0: cf7b efbd 0bef 56bb 7c47 b43d a310 3a3d
000002e0: 5e0b acbd eb97 de3d 67b3 db3d 7f6d 4a3d
000002f0: d55a 8d3d c67c d93d c0cf 0c3e b128 ecbd
00000300: 0a76 d5bd bb5a 933d 8be5 033e de9c 7e3d
00000310: c09e 21bd 4bd1 8f3b e602 4b3d 7d67 953d
00000320: 2c4f 33be 5ee5 acbd 3914 583d 7af0 b7bd
00000330: eb8f 993d f095 b93d c3c0 cebd 94fa dd3c
00000340: a867 083e eb10 dabc 249b 1cbe 7608 7bbd
00000350: d086 3fbd f39e 0e3e 47f7 33be ef90 c93d
00000360: 2bd6 863d 4164 8bbd 2370 8dbc 0ebe efbd
00000370: c496 03be 460b e23d dd53 123d c954 dabd
00000380: 21bb c13d 79c2 e93d 7b66 20bd 892b 0abe
00000390: fdd4 2e3d 5175 80bd 4df8 33be 8a85 ce3c
000003a0: fd81 6abd f23b 32be 155e 12be 4083 c13d
000003b0: 3501 03be 2c27 88bd 8eb4 03be f0ff bcbd
000003c0: 6827 063e ea51 b8bb bab3 c0bb 67b6 18be
000003d0: c3d7 acbd 0751 473d 7cfe f5bd 9945 e7bc
000003e0: 22b5 00be 3872 b93b 5e9d c5bc dd04 d7bd
000003f0: 066d 223e 6981 503d 1208 153e 0992 f3bd

lstm.weight_hh_l0 f4 [128, 32]
0.09870932 0.061668403 0.090584986 0.04197757 0.027527913 -0.02132327 -0.056541834 0.1475158
-0.07090622 0.15335162 0.13648792 0.11721705 0.16636856 0.057028998 0.011470317 0.02688401
-0.11749874 0.07494913 0.021925105 -0.073733866 0.14964287 0.15689744 0.119847916 -0.0036525226
-0.04573479 0.15433432 0.070588626 -0.17247316 0.1305597 -0.13218503 0.04228712 -0.12571558
0.106818095 -0.13144179 -0.0048895604 -0.15541945 0.13461608 0.112600364 -0.03417919 -0.07009793
0.14781623 0.15917256 -0.0046904357 -0.013614171 -0.17046614 -0.08561499 -0.01168896 -0.16679311
-0.10941585 0.02475504 0.06995421 -0.007810621 -0.12858984 0.007465357 -0.10151456 -0.018906506
-0.038435053 0.040935937 -0.059268765 0.16377243 0.075006954 0.1399561 0.11258773 -0.17132373
0.032843597 0.013562182 0.04294626 0.10144289 0.087095596 0.026406867 -0.091414765 -0.12826489
0.012194104 -0.025381254 -0.14135961 -0.11691148 0.09884332 0.0681488 0.16883665 0.13745071
0.080122694 -0.025686555 -0.16728611 -0.07977425 -0.112556234 -0.16251555 -0.037930362 -0.021698756
-0.13316658 -0.014994847 -0.1353083 -0.06460029 0.0544093 0.13637139 -0.16251959 -0.04070859
0.020406801 -0.060307104 0.048896812 -0.15394393 -0.027831864 0.17704348 0.083682455 -0.041402135
0.10159517 0.06753245 0.049970005 -0.05540989 0.07797254 -0.16161951 -0.14517164 0.11849192
0.036574107 -0.058284838 -0.06184407 0.1391657 -0.018980017 -0.121437274 0.1654481 0.14066797
-0.13678345 -0.0035522282 0.15452124 0.13991974 -0.1511576 0.092602186 -0.08036926 0.15111305
0.15270755 0.13997722 -0.1551647 0.05842135 -0.053919245 0.08491891 -0.016524324 -0.03551943
-0.05180001 0.12798063 -0.012562666 0.025894705 0.0018744835 0.021102522 0.08157213 -0.11495709
-0.13709235 -0.17595947 -0.16542451 0.1485583 0.0067661507 0.0012576218 -0.12346219 -0.080399044
0.044736482 -0.08235041 0.058170896 0.05048567 -0.097548775 -0.03761104 0.045468997 0.08672599
-0.027341884 -0.07735926 0.11651238 0.15387654 0.0724998 0.11714383 0.15122004 -0.11482725
-0.007601682 -0.13881995 -0.14859977 0.06532438 0.08555817 -0.16537535 0.14180402 -0.034388438
0.017146505 -0.1279613 -0.112699896 -0.063883714 0.09142462 -0.106075354 0.10797998 -0.17229567
0.016776467 0.02054892 0.013137229 -0.018736692 -0.068813406 -0.13663535 -0.17331535 -0.036224157
-0.1260549 0.15867539 -0.02270805 -0.14955048 -0.016604261 0.12939347 0.04497626 -0.010379905
0.12656105 0.048039973 0.03114551 0.17292404 -0.006703355 0.16116494 -0.13500728 0.046290565
-0.09198047 0.075695395 -0.08391057 -0.02424556 0.13975964 0.15960269 -0.014229145 -0.11051003
-0.1561299 0.13171194 0.0962372 0.112495504 0.08590615 0.07163802 0.054228142 0.027739802
0.024197664 -0.034049593 0.046020765 0.09221692 0.054957177 -0.03863479 -0.012725505 -0.022357997
0.03782127 0.00088200974 0.13361114 0.014763362 0.057933092 -0.0067422306 0.055079315 -0.104049325
0.17000923 0.05560906 -0.08899932 0.04158487 -0.14718483 0.049614612 -0.03468755 -0.111000314
0.013755338 0.12689383 -0.15507303 -0.06376328 -0.107570186 0.1681486 0.027252235 -0.07663222
00000000: 1d28 ca3d 0298 7c3d 9f84 b93d acf0 2b3d
00000010: 3882 e13c 23ae aebc 6998 67bd 620e 173e
00000020: 4837 91bd 3508 1d3e 7dc3 0b3e 7e0f f03d
00000030: 855c 2a3e 3d97 693d ffed 3b3c db3b dc3c
00000040: 2ea3 f0bd ee7e 993d 479c b33c c801 97bd
00000050: fb3b 193e b9a9 203e d372 f53d 295f 6fbb
00000060: 6754 3bbd d109 1e3e c590 903d ce9c 30be
00000070: 71b1 053e 835b 07be 4235 2d3d 96bb 00be
00000080: 72c3 da3d ad98 06be 9b38 a0bb 4726 1fbe
00000090: ccd8 093e 059b e63d 7aff 0bbd 818f 8fbd
000000a0: 235d 173e 22fe 223e 3ab2 99bb f90d 5fbc
000000b0: ad8e 2ebe e956 afbd 0d83 3fbc d0cb 2abe
000000c0: 6b15 e0bd 15cb ca3c 2744 8f3d 3df0 ffbb
000000d0: 0ead 03be f49f f43b dee6 cfbd d1e1 9abc
000000e0: 136e 1dbd 71ac 273d cec3 72bd f6b3 273e
000000f0: 3f9d 993d a750 0f3e 6594 e63d 7d6f 2fbe
00000100: 0287 063d ea33 5e3c 6be8 2f3d 4ac1 cf3d
00000110: 2d5f b23d 3753 d83c aa37 bbbd df57 03be
00000120: c7c9 473c 59ec cfbc 93c0 10be 496f efbd
00000130: 5e6e ca3d 9991 8b3d 84e3 2c3e e1bf 0c3e
00000140: 5e17 a43d 9c6c d2bc 0d4d 2bbe af60 a3bd
00000150: e283 e6bd 7a6a 26be de5c 1bbd 97c1 b1bc
00000160: d25c 08be f2ac 75bc 428e 0abe 284d 84bd
00000170: 49dc 5e3d f1a4 0b3e 896b 26be 0dbe 26bd
00000180: 2a2c a73c 9504 77bd 0648 483d 7aa3 1dbe
00000190: a6ff e3bc e34a 353e b561 ab3d 4995 29bd
000001a0: 2111 d03d 744e 8a3d 59ad 4c3d 7bf5 62bd
000001b0: 11b0 9f3d 967f 25be e0a7 14be e4ab f23d
000001c0: bbce 153d 15bc 6ebd 3550 7dbd 7481 0e3e
000001d0: fb7b 9bbc 1bb4 f8bd 3a6b 293e 440b 103e
000001e0: f610 0cbe 80cc 68bb d13a 1e3e 1f47 0f3e
000001f0: 0fc9 1abe 37a6 bd3d a398 a4bd 61bd 1a3e
00000200: 5e5f 1c3e 3056 0f3e 7fe3 1ebe 3a4b 6f3d
00000210: 6dda 5cbd f7e9 ad3d 055e 87bc d27c 11bd
00000220: 3f2c 54bd 5b0d 033e a4d3 4dbc 2221 d43c
00000230: 3bb1 f53a 32df ac3c 4a0f a73d 9f6e ebbd
00000240: f061 0cbe b82e 34be 0b65 29be ab1f 183e
00000250: 96b6 dd3b c9d6 a43a bfd9 fcbd 41a8 a4bd
00000260: 9a3d 373d 55a7 a8bd 9b44 6e3d 10ca 4e3d
00000270: a7c7 c7bd 090e 1abd b33d 3a3d 659d b13d
00000280: 16fc dfbc 886e 9ebd 0b9e ee3d d091 1d3e
00000290: c67a 943d 1be9 ef3d 6dd9 1a3e 8d2a ebbd
000002a0: 8817 f9bb d126 0ebe 8a2a 18be cac8 853d
000002b0: 1f39 af3d 2858 29be 1335 113e e4da 0cbd
000002c0: d476 8c3c 4908 03be 34cf e6bd 77d5 82bd
000002d0: d53c bb3d 093e d9bd 9c24 dd3d 476e 30be
000002e0: cd6e 893c 3556 a83c 883d 573c b17d 99bc
000002f0: 0bee 8cbd 23ea 0bbe 9479 31be c85f 14bd
00000300: 8914 01be cd7b 223e 3c06 babc c323 19be
00000310: a905 88bc b97f 043e 0739 383d 7a10 2abc
00000320: 3899 013e 90c5 443d de24 ff3c 0013 313e
00000330: d1a7 dbbb 6c08 253e 593f 0abe 2d9b 3d3d
00000340: 4260 bcbd 3006 9b3d 4ed9 abbd a09e c6bc
00000350: 271d 0f3e e36e 233e 5c21 69bc 1553 e2bd
00000360: 84e0 1fbe 7fdf 063e 0218 c53d 0b64 e63d
00000370: 90ef af3d f4b6 923d 541e 5e3d 953e e33c
00000380: 2e3a c63c 9677 0bbd 4580 3c3d 39dc bc3d
00000390: c71a 613d 833f 1ebd a37e 50bc 1e28 b7bc
000003a0: 7aea 1a3d ac36 673a 5cd1 083e 07e2 713c
000003b0: 404b 6d3d eeed dcbb d99a 613d d017 d5bd
000003c0: e616 2e3e 53c6 633d 4745 b6bd e654 2a3d
000003d0: 9fb7 16be b138 4b3d 8814 0ebd 2254 e3bd
000003e0: 125e 613c 75f0 013e 77cb 1ebe 5396 82bd
000003f0: c24d dcbd 262f 2c3e 1440 df3c 5af1 9cbd

lstm.bias_ih_l0 f4 [128]
-0.08692981 -0.07963427 0.0048517333 -0.014547494 -0.03678223 0.047888767 -0.020658027 0.15234864
0.17174053 -0.1294769 0.042234287 -0.07999816 -0.0693105 0.098042 0.014396641 0.12780957
0.11018121 -0.047352575 -0.029092278 -0.040499955 0.09318861 -0.14634246 -0.15663134 -0.10314116
0.041799273 -0.10112666 0.1494761 -0.012387001 0.11368526 -0.13053264 0.13185579 0.17697348
0.16574231 0.0005798886 0.0020171877 -0.05072261 0.09343672 -0.17573471 0.1480249 -0.09554524
-0.14697097 0.16696225 -0.065258265 -0.16740365 -0.15049468 -0.116083406 -0.16811232 0.011275063
-0.082701094 0.15481949 -0.13105561 0.058625747 -0.13400836 -0.027552655 -0.05992079 -0.087926105
-0.15855493 -0.022030767 0.048474316 -0.07077828 -0.12605467 -0.059351612 0.16269386 -0.13657288
-0.029891415 0.089012675 -0.17709471 -0.05173203 -0.0009055113 -0.005699935 0.016401602 0.030543374
0.03886715 -0.090984784 -0.025676621 -0.15065078 0.08211885 -0.102273226 0.10408786 -0.10858724
-0.15903257 -0.07611189 -0.086839415 0.1725325 -0.10720226 -0.027401444 -0.13255663 0.059644993
0.024056984 0.013505074 0.07428062 0.1427077 -0.09901706 0.04970241 0.15114737 -0.0841583
0.07863885 -0.0941448 0.004985471 -0.01501834 0.02057967 -0.046276856 -0.05606477 -0.121267095
0.12357509 -0.019730486 0.15987311 0.1079581 0.02095588 0.00010112696 0.14382988 -0.08243062
0.08060244 0.16937888 -0.08467397 -0.050364453 0.11485875 0.06279989 0.100601785 -0.026157025
-0.043835133 0.050017554 0.087720454 0.06701208 -0.113397345 0.045502882 0.17350298 0.042299032
00000000: 4208 b2bd 4b17 a3bd 4afb 9e3b 9d58 6ebc
00000010: f7a8 16bd 0327 443d 063b a9bc 4801 1c3e
00000020: c0dc 2f3e 9895 04be dcfd 2c3d 13d6 a3bd
00000030: aaf2 8dbd 3eca c83d e4df 6b3c 83e0 023e
00000040: b0a6 e13d c6f4 41bd ee52 eebc 48e3 25bd
00000050: acd9 be3d ccda 15be f763 20be ac3b d3bd
00000060: b735 2b3d 7f1b cfbd 4310 193e d9f2 4abc
00000070: d1d3 e83d 59aa 05be 3405 073e 8938 353e
00000080: 5ab8 293e aa03 183a cb32 043b 83c2 4fbd
00000090: c05b bf3d cdf3 33be d793 173e 39ad c3bd
000000a0: 8f7f 16be 27f8 2a3e 20a6 85bd dd6b 2bbe
000000b0: 471b 1abe 23bd edbd a325 2cbe 0bbb 383c
000000c0: 315f a9bd 0089 1e3e 7133 06be 8d21 703d
000000d0: 7d39 09be 1bb6 e1bc 816f 75bd 9a12 b4bd
000000e0: 395c 22be de79 b4bc 018d 463d 34f4 90bd
000000f0: 7a14 01be ad1a 73bd 3899 263e c3d9 0bbe
00000100: d7de f4bc 474c b63d 5158 35be f7e4 53bd
00000110: d65f 6dba 85c6 babb a75c 863c 1936 fa3c
00000120: 2933 1f3d 3b56 babd c757 d2bc 3344 1abe
00000130: ed2d a83d a074 d1bd 042c d53d fd62 debd
00000140: 6fd9 22be 8de0 9bbd ddd8 b1bd 5cac 303e
00000150: dc8c dbbd fe78 e0bc edbc 07be 4f4e 743d
00000160: 2713 c53c 6344 5d3c 7020 983d f821 123e
00000170: 75c9 cabd c194 4b3d 60c6 1a3e 305b acbd
00000180: 680d a13d fdce c0bd 295d a33b 7c0f 76bc
00000190: b296 a83c cd8c 3dbd 2ca4 65bd e25a f8bd
000001a0: f014 fd3d d4a1 a1bc c7b5 233e 2319 dd3d
000001b0: aaab ab3c 2014 d438 2448 133e 63d1 a8bd
000001c0: e412 a53d a871 2d3e 8c69 adbd f54a 4ebd
000001d0: 103b eb3d 3b9d 803d 4f08 ce3d 4247 d6bc
000001e0: 788c 33bd 35df 4c3d c8a6 b33d a13d 893d
000001f0: de3c e8bd 3b61 3a3d c4aa 313e c041 2d3d

lstm.bias_hh_l0 f4 [128]
0.0031874587 -0.16483445 -0.14886446 -0.17429617 -0.13820069 0.15845084 -0.1582117 -0.01971351
-0.14475247 0.1593618 0.13960288 0.072752915 0.09991579 0.06999484 -0.1714137 -0.1530787
0.09361538 0.10408751 -0.15916829 0.15722115 0.16331455 -0.0470605 -0.006934066 -0.1702231
-0.015981274 -0.12754142 0.16836987 -0.107125275 -0.10168422 0.16451845 -0.12147628 -0.017872065
-0.115883954 0.0009626994 0.0015743251 0.027671266 0.05545478 -0.091290765 0.14059345 0.055331316
0.006499338 -0.064633645 0.16542767 0.14867064 -0.019691028 -0.045378502 -0.15083915 -0.16330132
-0.0803041 -0.1004413 0.003911157 0.09059867 0.008710516 -0.102433026 -0.1002749 0.01522451
-0.15813594 0.06473674 0.07230625 0.09592714 0.15205637 0.041549306 0.05863687 -0.016653217
-0.013279942 0.0072075953 0.175042 -0.12666413 0.12015581 -0.021965431 0.12693048 -0.14062142
0.10792267 -0.061107557 -0.072440766 0.023532046 -0.10438208 -0.072887436 0.0636245 -0.15645601
-0.059534717 -0.06553221 -0.039705466 0.124002755 0.034360845 -0.072505474 -0.10201304 0.1673767
-0.042571887 0.009195599 0.14374521 -0.084144376 -0.040610988 0.16147381 -0.101478025 0.13463894
-0.17396937 -0.018194104 0.10210437 -0.16779552 0.064392954 0.12513229 -0.10236386 -0.089857414
0.15604344 0.05078172 0.10660757 0.13543215 -0.0732226 -0.019874118 0.12170903 -0.101573005
-0.06678963 0.10073585 -0.103486955 -0.01944222 -0.11476013 0.05345874 0.15057066 0.13692161
-0.095202066 0.03819329 0.05903237 -0.16514911 -0.09361248 0.058682706 0.057458032 0.1501521
00000000: afe4 503b 5dca 28be ed6f 18be b27a 32be
00000010: 7b84 0dbe f040 223e 3f02 22be 3a7e a1bc
00000020: fe39 14be bd2f 233e 0ff4 0e3e 7bff 943d
00000030: a6a0 cc3d 7459 8f3d 1387 2fbe aac0 1cbe
00000040: 6cb9 bf3d d52b d53d 03fd 22be 95fe 203e
00000050: ee3b 273e 83c2 40bd 2937 e3bb f74e 2ebe
00000060: 29eb 82bc 389a 02be 2769 2c3e 7f64 dbbd
00000070: d13f d0bd 8677 283e 8ec8 f8bd 7068 92bc
00000080: 9154 edbd aa5d 7c3a 9659 ce3a daae e23c
00000090: 8d24 633d a7f6 babd bbf7 0f3e 17a3 623d
000000a0: 66f8 d43b a55e 84bd df65 293e 1e3d 183e
000000b0: 144f a1bc cfde 39bd 9475 1abe 7638 27be
000000c0: 7a76 a4bd 2bb4 cdbd 2a29 803b cc8b b93d
000000d0: 8db6 0e3c 68c8 d1bd ed5c cdbd 3970 793c
000000e0: 63ee 21be b294 843d 4d15 943d 7375 c43d
000000f0: aab4 1b3e 9b2f 2a3d 372d 703d 546c 88bc
00000100: 1d94 59bc b12d ec3b 363e 333e 3eb4 01be
00000110: 4014 f63d d9f0 b3bc 10fa 013e 10ff 0fbe
00000120: 9006 dd3d eb4b 7abd d35b 94bd 47c6 c03c
00000130: 46c6 d5bd 0246 95bd 904d 823d 0136 20be
00000140: adda 73bd c035 86bd 33a2 22bd 28f5 fd3d
00000150: f5bd 0c3d c07d 94bd 36ec d0bd cc64 2b3e
00000160: dc5f 2ebd 23a9 163c f231 133e e353 acbd
00000170: b557 26bd 6459 253e b6d3 cfbd cade 093e
00000180: 0725 32be cd0b 95bc 191c d13d 97d2 2bbe
00000190: 74e0 833d ae22 003e 25a4 d1bd 2a07 b8bd
000001a0: dac9 1f3e 7e00 503d 1255 da3d baae 0a3e
000001b0: bbf5 95bd 0ccf a2bc 9542 f93d 8205 d0bd
000001c0: 00c9 88bd 994e ce3d f8f0 d3bd 4a45 9fbc
000001d0: 5c07 ebbd 8df7 5a3d 322f 1a3e 2e35 0c3e
000001e0: 4df9 c2bd 9170 1c3d edcb 713d d91c 29be
000001f0: e6b7 bfbd 475d 703d 1d59 6b3d 79c1 193e

lstm.weight_ih_l0_reverse f4 [128, 16]
0.07822207 -0.14213985 0.16953978 -0.0332356 0.1342926 -0.15192534 -0.12781344 -0.07267707
0.13299043 0.05949477 -0.14725602 -0.037939727 -0.13855422 0.025633322 -0.12988356 -0.059532095
0.16150267 0.1277684 0.12734397 -0.032740735 0.002175889 0.012265203 0.16953444 -0.1755271
-0.034339186 0.052779596 0.007646708 0.062447365 0.026802529 -0.016113687 -0.15438505 -0.15298522
-0.023391025 -0.09398392 0.14842719 0.045870982 0.1351525 0.06634437 -0.15849724 0.16211352
-0.05206013 -0.1774237 0.121178694 -0.061319258 0.13860895 0.16506077 -0.16491011 0.07482395
-0.16400437 0.10212209 -0.024567962 -0.05988393 -0.09840517 -0.12209849 -0.07985519 -0.04387248
0.14204647 0.15478462 -0.005700155 -0.158215 0.05597619 0.10867149 0.04211583 0.109867506
-0.10601651 -0.119293846 -0.06433686 -0.11906571 0.16916089 -0.17206301 0.0035831062 0.06246512
-0.035331927 0.023961619 -0.16242038 -0.06832635 -0.13538325 0.043063127 0.15898561 0.0910587
0.05115517 0.013440529 0.06842017 0.035281684 -0.043959852 0.036422227 0.12627745 0.10850198
0.07400501 -0.12291446 -0.1435799 0.0118178 -0.115270704 0.00049066835 -0.16843131 -0.050071742
-0.058680147 -0.1193833 -0.14001936 -0.066655226 0.09342554 -0.107053906 -0.13532558 -0.113880955
0.028649176 0.020980993 -0.06640485 -0.14037329 0.14909992 0.044988967 -0.059758037 0.098811515
0.015804876 0.16318446 -0.16838385 -0.031514607 -0.1504417 0.02609023 0.0037518549 -0.012879778
-0.15296835 -0.040847864 -0.13247164 0.14095852 -0.037412386 0.1548352 -0.057403047 0.1219604
-0.059836905 0.05727416 0.16069369 0.14956526 -0.14350383 0.06494677 0.114887215 -0.12703912
-0.028467854 0.04950761 0.032618657 0.1255942 -0.07325599 0.08182921 0.072697125 0.11038667
-0.07411344 -0.034921777 0.11341676 0.17318526 -0.13683982 0.08150613 -0.11207266 -0.1352491
0.117131926 -0.15908295 0.17275949 -0.1135116 -0.045501404 0.0627702 0.060288753 -0.13286766
0.035509426 0.040162615 0.1507126 -0.018789206 -0.010388706 0.11896613 -0.15827209 -0.054277953
-0.08262943 0.15696734 0.08413445 0.15535001 0.09592986 -0.07167799 -0.11424595 0.099311
-0.16967574 -0.030903498 0.06861468 0.009595685 -0.012572576 -0.08393052 -0.17619985 -0.16365063
0.16608118 0.08988842 -0.075730115 -0.09147501 0.047610126 -0.01987276 0.095485434 0.0297306
-0.008563895 0.07935149 -0.030890869 -0.09839291 0.09791711 -0.04897381 -0.16792938 -0.1734535
-0.005832975 -0.10820134 -0.02601725 0.021597667 -0.09700632 -0.08084494 -0.027553178 -0.026438342
-0.020820802 -0.17034139 0.1377005 -0.04929338 -0.15002942 0.07258592 0.005749083 0.17499232
-0.015069239 0.053744607 0.11666111 0.04408259 0.046501223 -0.13603105 -0.16624795 -0.029577969
-0.13407972 -0.14764947 0.028087234 0.12008541 -0.03339813 -0.10006348 -0.037538715 -0.1685457
0.11250515 0.053541906 0.013442101 0.036859665 0.07628664 0.029194223 0.067232154 0.16850038
-0.015934054 -0.060591828 -0.07991946 0.06055406 0.04261541 0.16101316 -0.13855468 -0.04885779
-0.020868251 0.07630545 -0.05350359 0.03923806 0.11835167 -0.1700775 -0.17320305 0.0065606064
00000000: e532 a03d 1c8d 11be d69b 2d3e 0d22 08bd
00000010: 0084 093e 5192 1bbe 87e1 02be b7d7 94bd
00000020: a52e 083e cab0 733d 48ca 16be b066 1bbd
00000030: 28e1 0dbe f9fc d13c 3200 05be edd7 73bd
00000040: f560 253e b8d5 023e 7566 023e 261b 06bd
00000050: 5c99 0e3b fdf3 483c 709a 2d3e 60bd 33be
00000060: 3fa7 0cbd 6b2f 583d 3c91 fa3b cfc8 7f3d
00000070: fa90 db3c da00 84bc 1d17 1ebe 28a8 1cbe
00000080: 899e bfbc a47a c0bd 4cfd 173e 36e3 3b3d
00000090: 6b65 0a3e 8fdf 873d 1a4d 22be 1601 263e
000000a0: 013d 55bd 8fae 35be 892c f83d e729 7bbd
000000b0: 81ef 0d3e b105 293e 32de 28be 4d3d 993d
000000c0: c3f0 27be 6325 d13d c042 c9bc da48 75bd
000000d0: a688 c9bd c60e fabd 1e8b a3bd a1b3 33bd
000000e0: a174 113e dc7f 1e3e 5ec8 babb 1d03 22be
000000f0: 4a47 653d 288f de3d a681 2c3d 3702 e13d
00000100: 2f1f d9bd 5550 f4bd 0bc3 83bd b9d8 f3bd
00000110: 8338 2d3e 4931 30be 8cd2 6a3b 6ddb 7f3d
00000120: 36b8 10bd 284b c43c 8751 26be afee 8bbd
00000130: e8a1 0abe f662 303d 20cd 223e fc7c ba3d
00000140: 1588 513d aa35 5c3c e01f 8c3d 8783 103d
00000150: 3f0f 34bd 792f 153d e04e 013e 4936 de3d
00000160: f08f 973d 94ba fbbd 9c06 13be 729f 413c
00000170: 0c13 ecbd 32a0 003a 4279 2cbe 0718 4dbd
00000180: 985a 70bd 3b7f f4bd 3c61 0fbe 8982 88bd
00000190: e455 bf3d 143f dbbd ca92 0abe 6b3a e9bd
000001a0: adb1 ea3c 55e0 ab3c 44ff 87bd 04be 0fbe
000001b0: a6ad 183e 5a46 383d d8c4 74bd b15d ca3d
000001c0: 3a79 813c d419 273e d16c 2cbe 7615 01bd
000001d0: 640d 1abe 2ebb d53c aee1 753b b405 53bc
000001e0: bca3 1cbe 1750 27bd a5a6 07be 6e57 103e
000001f0: bb3d 19bd 1e8d 1e3e 751f 6bbd 60c6 f93d
00000200: 8b17 75bd 4f98 6a3d e38c 243e a327 193e
00000210: abf2 12be d002 853d fd49 eb3d 8b16 02be
00000220: 6b35 e9bc 7ec8 4a3d 249b 053d c49b 003e
00000230: 3d07 96bd 1396 a73d 3be2 943d 6812 e23d
00000240: cac8 97bd 230a 0fbd 0c47 e83d 7a57 313e
00000250: bd1f 0cbe b0ec a63d 5a86 e5bd bd7e 0abe
00000260: dde2 ef3d a4e6 22be dde7 303e c578 e8bd
00000270: ae5f 3abd aa8d 803d 57f1 763d 760e 08be
00000280: 5572 113d 8e81 243d 6754 1a3e d2eb 99bc
00000290: 6435 2abc 84a4 f33d 1412 22be 8f52 5ebd
000002a0: 9e39 a9bd 0cbc 203e af4e ac3d 1314 1f3e
000002b0: e076 c43d e9cb 92bd c8f9 e9bd 9163 cb3d
000002c0: 7abf 2dbe 5529 fdbc da85 8c3d 3837 1d3c
000002d0: 35fd 4dbc c4e3 abbd bc6d 34be 0894 27be
000002e0: 2f11 2a3e 6c17 b83d 6418 9bbd 4057 bbbd
000002f0: d602 433d 33cc a2bc de8d c33d 968d f33c
00000300: 944f 0cbc 0983 a23d d90e fdbc 3982 c9bd
00000310: c488 c83d c398 48bd aef5 2bbe cb9d 31be
00000320: 8a22 bfbb aa98 ddbd 2122 d5bc 97ed b03c
00000330: 40ab c6bd 0892 a5bd 34b7 e1bc 3995 d8bc
00000340: 6390 aabc f96d 2ebe 5c01 0d3e dbe7 49bd
00000350: 50a1 19be eda7 943d ce62 bc3b 3031 333e
00000360: f8e4 76bc 4e23 5c3d 05ec ee3d f28f 343d
00000370: 1178 3e3d b94b 0bbe e73c 2abe 7f4d f2bc
00000380: 324c 09be 6c31 17be 3317 e63c 57ef f53d
00000390: 7acc 08bd 15ee ccbd 32c2 19bd 3e97 2cbe
000003a0: 1a69 e63d c24e 5b3d 423c 5c3c 29fa 163d
000003b0: 2b3c 9c3d b928 ef3c 03b1 893d 5d8b 2c3e
000003c0: 2288 82bc 232f 78bd d0ac a3bd 8907 783d
000003d0: 7f8d 2e3d a2e0 243e 47e1 0dbe 1b1f 48bd
000003e0: e5f3 aabc 0846 9c3d 9526 5bbd 17b8 203d
000003f0: 5c62 f23d cc28 2ebe 245c 31be 5bfa d63b

lstm.weight_hh_l0_reverse f4 [128, 32]
-0.14616945 0.10481046 0.025536075 -0.08030342 0.048793286 -0.09609582 -0.05382766 -0.047652215
-0.0009061098 0.041274026 -0.10122396 -0.050675184 -0.0067025125 -0.124064706 0.16428886 0.12917213
0.021226794 -0.04078512 0.11426441 -0.005138263 -0.019852385 0.09372859 -0.14419615 -0.033799574
0.12177329 -0.12671018 0.028515458 -0.071142785 -0.03796196 0.10384594 0.049904943 -0.10466628
0.16706114 -0.042231143 0.03897786 0.15782233 0.03856978 -0.029170439 0.10958485 -0.15569603
-0.12521884 -0.12022207 0.09909339 0.13583769 -0.12176652 0.16163675 -0.0970388 -0.08277664
-0.10790339 -0.16213292 0.087950036 0.14696403 -0.05350188 -0.074616045 0.0049537867 0.12936284
0.12026276 0.01342234 0.16833486 0.0024119616 -0.07255243 0.11650865 -0.119561985 0.05257824
-0.14730279 0.061038703 0.06793621 -0.12717855 -0.12794203 0.07102926 0.071587384 0.018989205
-0.09943073 -0.16864441 0.10924865 -0.14101985 0.17420293 -0.061197117 -0.15167527 0.108569846
-0.17138289 0.09332244 0.15865777 -0.028920203 0.033834472 -0.0045499057 0.0021101236 0.09481309
-0.12268471 0.067549765 0.17303099 -0.03646472 -0.07730297 0.06930253 0.014470577 -0.14936413
-0.02056168 0.09279798 0.06933391 0.17422663 -0.14224139 -0.09918363 -0.074288644 0.06841165
-0.138624 -0.027674869 -0.10830741 0.081286505 -0.14471123 0.023075953 0.0834675 -0.08490219
-0.08400594 0.04295425 0.021644443 -0.045541734 0.126783 0.15790193 0.012930721 -0.07355565
0.12257595 0.02152817 0.050885603 0.09527092 -0.097896636 0.0262333 0.12486969 0.08979575
0.04773687 -0.17587687 -0.091224894 -0.09847767 -0.12982424 0.15948425 0.07678346 -0.10218423
0.057231873 0.066137865 0.012003273 -0.0076070577 0.03717099 0.027253672 0.14422224 0.106080845
-0.076649904 0.011006013 -0.13051426 0.07232909 -0.016605526 -0.15476789 0.079388574 0.15832068
-0.022095501 -0.12889853 -0.0946413 -0.025025025 0.15517746 -0.15177687 0.068244204 -0.1389314
-0.012938604 0.15845956 -0.03141603 0.10520406 -0.10790166 -0.16570602 0.0584455 0.13775222
0.043982998 -0.00722149 0.00823006 0.053425014 -0.15880546 0.12151645 -0.09761438 -0.060921095
0.16889666 0.04356888 -0.045150444 -0.0323523 -0.0025623143 0.17178048 0.13275616 -0.16380113
-0.08351122 0.12319113 -0.01871331 0.07764159 -0.07290498 0.14998855 0.05246538 -0.14419769
-0.062103257 0.1137674 0.003687784 0.010034785 -0.056448266 -0.05849357 -0.070935905 0.1294464
0.053200856 0.12583153 -0.078511275 0.04216896 -0.12660949 0.0891266 0.033681154 -0.12922706
-0.011996403 -0.027727932 0.036908418 -0.10722565 -0.0943953 -0.16830109 -0.08203208 -0.049549773
-0.0029364973 0.11375229 0.08179329 0.17266615 0.16403423 -0.1545566 -0.050041795 0.1100672
0.14544113 -0.0027667284 0.034813017 -0.1542426 -0.00676322 -0.1662902 -0.16229762 -0.14509739
0.09331961 0.12116988 0.053569883 -0.03371899 -0.15775843 0.1506389 -0.055484325 -0.17420588
-0.026027486 -0.06277531 0.06984323 0.097852066 -0.0053976476 -0.12936233 -0.105114974 -0.0011582226
-0.12099458 -0.10462611 0.022108212 0.031768054 0.118396595 -0.06758411 0.09690072 0.0014738739
00000000: 72ad 15be dea6 d63d 0831 d13c 1f76 a4bd
00000010: 78db 473d e3cd c4bd 647a 5cbd f82e 43bd
00000020: 0088 6dba f40e 293d 824e cfbd c890 4fbd
00000030: c0a0 dbbb a315 febd 573b 283e b345 043e
00000040: d0e3 ad3c 4c0e 27bd 7603 ea3d e05e a8bb
00000050: 78a1 a2bc c6f4 bf3d 28a8 13be 6c71 0abd
00000060: 4664 f93d 50c0 01be 4099 e93c 4fb3 91bd
00000070: 007e 1bbd 2ead d43d 2069 4c3d 465b d6bd
00000080: 1312 2b3e 90fa 2cbd 40a7 1f3d 2d9c 213e
00000090: 58fb 1d3d d8f6 eebc 066e e03d c86e 1fbe
000000a0: 5e39 00be fd36 f6bd 7af1 ca3d 0919 0b3e
000000b0: ba60 f9bd 1b84 253e 47bc c6bd cd86 a9bd
000000c0: 74fc dcbd 2c06 26be 261f b43d bd7d 163e
000000d0: ca24 5bbd 4cd0 98bd 6053 a23b b177 043e
000000e0: 524c f63d 60e9 5b3c f95f 2c3e 0012 1e3b
000000f0: 5e96 94bd 169c ee3d eadc f4bd 485c 573d
00000100: 8bd6 16be b803 7a3d 2422 8b3d 183b 02be
00000110: 3c03 03be ca77 913d 689c 923d 408f 9b3c
00000120: 57a2 cbbd 1fb1 2cbe c2bd df3d 8267 10be
00000130: 4162 323e d4a9 7abd c350 1bbe de59 de3d
00000140: ff7e 2fbe d61f bf3d 2f77 223e 10ea ecbc
00000150: 0496 0a3d 6017 95bb 004a 0a3b 5e2d c23d
00000160: 1f42 fbbd 8857 8a3d 092f 313e 085c 15bd
00000170: 0551 9ebd 7cee 8d3d 0016 6d3c e9f2 18be
00000180: f870 a8bc de0c be3d f0fe 8d3d 7768 323e
00000190: baa7 11be c920 cbbd a524 98bd 681b 8c3d
000001a0: 73f3 0dbe 68b6 e2bc 46d0 ddbd 8a79 a63d
000001b0: 2e2f 14be c809 bd3c 02f1 aa3d 33e1 adbd
000001c0: 4e0b acbd ccf0 2f3d b04f b13c f889 3abd
000001d0: 67d3 013e 0bb1 213e 60db 533c 58a4 96bd
000001e0: 1a09 fb3d d85b b03c 6c6d 503d 661d c33d
000001f0: 087e c8bd 38e7 d63c aebb ff3d d6e6 b73d
00000200: bc87 433d 1119 34be 1ed4 babd a9ae c9bd
00000210: a5f0 04be d74f 233e a640 9d3d f745 d1bd
00000220: f86b 6a3d 4a73 873d 60a9 443c a044 f9bb
00000230: 9c40 183d 1843 df3c ffae 133e ea40 d93d
00000240: a0fa 9cbd 9052 343c 88a5 05be 4621 943d
00000250: 5008 88bc 797b 1ebe 7a96 a23d d11e 223e
00000260: a001 b5bc fafd 03be 4cd3 c1bd 4801 cdbc
00000270: d7e6 1e3e 656b 1bbe 9ec3 8b3d 0844 0ebe
00000280: 70fc 53bc 3943 223e 18ae 00bd 3a75 d73d
00000290: 8cfb dcbd d7ae 29be 8c64 6f3d eb0e 0d3e
000002a0: 8427 343d 40a2 ecbb 60d7 063c 30d4 5a3d
000002b0: e69d 22be 9edd f83d 0cea c7bd 6688 79bd
000002c0: 3ff3 2c3e 4875 323d acef 38bd d883 04bd
000002d0: 80ec 27bb 39e7 2f3e 3bf1 073e 7cbb 27be
000002e0: ee07 abbd a24b fc3d a84c 99bc 8e02 9f3d
000002f0: 354f 95bd 9996 193e f0e5 563d 8fa8 13be
00000300: fc5f 7ebd e2fe e83d c0ae 713b f068 243c
00000310: 4c36 67bd f496 6fbd d846 91bd 998d 043e
00000320: 24e9 593d fbd9 003e 85ca a0bd 5cb9 2c3d
00000330: eba5 01be 0288 b63d 40f5 093d 1954 04be
00000340: 908c 44bc b025 e3bc 482d 173d 1f99 dbbd
00000350: 5352 c1bd 1f57 2cbe 6f00 a8bd b4f4 4abd
00000360: 4072 40bb f6f6 e83d 3e83 a73d 65cf 303e
00000370: 97f8 273e 1644 1ebe a0f8 4cbd ea6a e13d
00000380: 85ee 143e 0052 35bb 1898 0e3d c6f1 1dbe
00000390: 009e ddbb fa47 2abe 5931 26be 6994 14be
000003a0: 5a1e bf3d ea27 f83d 186c 5b3d ec1c 0abd
000003b0: 6d8b 21be 1541 1a3e 8843 63bd 0763 32be
000003c0: 9837 d5bc 5790 80bd f809 8f3d aa66 c83d
000003d0: c0de b0bb 8f77 04be 8546 d7bd 80cf 97ba
000003e0: 02cc f7bd 3746 d6bd 481c b53c 381f 023d
000003f0: ea79 f23d 8a69 8abd e273 c63d 002f c13a

lstm.bias_ih_l0_reverse f4 [128]
-0.083407186 0.09849327 0.061229907 -0.071018055 0.053015757 0.1290743 0.11887122 0.115523644
0.03864525 0.07624949 -0.06506057 -0.12130404 0.04861874 0.09819002 0.075818874 0.16798602
0.06732716 -0.12739822 -0.13340417 -0.01545458 -0.11965723 -0.16538997 -0.06642853 -0.07534893
-0.07232562 0.018200604 -0.039578456 0.15747777 0.11928419 -0.1648486 -0.113936625 -0.03090354
0.01724188 0.0862297 -0.12258773 0.041879788 0.061495364 0.15903433 -0.0091410875 0.15112896
-0.14284703 -0.03276454 0.040299386 0.11105944 -0.0773826 -0.010154799 -0.11367696 -0.17007554
-0.13611059 -0.13840485 -0.037422463 0.16484545 -0.16882649 -0.12839542 -0.12700124 -0.029722422
0.0341219 -0.0081665665 -0.17232086 0.094057694 -0.16257615 -0.0704174 -0.14326611 -0.05041969
-0.16041327 0.15348837 -0.1168358 -0.11663924 0.14066783 -0.019992251 0.009166899 -0.010278206
-0.12149562 0.019061087 -0.15355866 0.103239864 -0.063709654 0.13055706 0.16862896 -0.10915985
-0.091288075 -0.049930196 -0.04996967 0.13968536 0.05845789 0.015229583 0.07797545 -0.02411941
-0.049643736 0.034199618 -0.17733978 0.13370535 0.054933485 -0.0011315981 0.029662985 0.15672472
0.120040074 -0.09423614 -0.13535003 0.020873938 -0.15755115 -0.034861576 0.12143312 0.0010832774
0.16480774 0.01335246 0.14241567 0.102603175 -0.023593213 0.17321837 -0.16248342 -0.14573601
-0.06734609 0.12353776 0.12536688 0.1186321 -0.15034726 0.048876476 0.13470067 0.11683305
0.049487855 0.17380936 0.0034822533 -0.112747006 -0.039314512 0.13893624 -0.045016516 -0.0075719617
00000000: 63d1 aabd d7b6 c93d 36cc 7a3d ea71 91bd
00000010: 0d27 593d 0e2c 043e c172 f33d a997 ec3d
00000020: 7b4a 1e3d b128 9c3d 7a3e 85bd 416e f8bd
00000030: 7224 473d d917 c93d ed46 9b3d 8704 2c3e
00000040: d2e2 893d ae74 02be 1a9b 08be 3535 7dbc
00000050: da0e f5bd fd5b 29be ae0b 88bd 8a50 9abd
00000060: 741f 94bd 6f19 953c 051d 22bd da41 213e
00000070: 454b f43d 12ce 28be 9b57 e9bd 6c29 fdbc
00000080: d83e 8d3c 3299 b03d 470f fbbd 248a 2b3d
00000090: 90e2 7b3d e5d9 223e 80c4 15bc 8dc1 1a3e
000000a0: 7e46 12be 1c34 06bd f810 253d 2273 e33d
000000b0: c57a 9ebd 5060 26bc 77cf e8bd 4828 2ebe
000000c0: 9360 0bbe 00ba 0dbe 4c48 19bd 3fcd 283e
000000d0: dae0 2cbe 177a 03be 9d0c 02be 707c f3bc
000000e0: 68c3 0b3d 10cd 05bc e174 30be 52a1 c03d
000000f0: 5d7a 26be ff36 90bd 5ab4 12be e084 4ebd
00000100: 6043 24be 0e2c 1d3e 9c47 efbd 8ee0 eebd
00000110: 3a0b 103e cac6 a3bc c330 163c ec65 28bc
00000120: b2d2 f8bd ff25 9c3c 7b3e 1dbe 6c6f d33d
00000130: 357a 82bd c0b0 053e 12ad 2c3e 338f dfbd
00000140: 3ef5 babd 9b83 4cbd ffac 4cbd ae09 0f3e
00000150: 8a71 6f3d 8085 793c 98b1 9f3d 1296 c5bc
00000160: 3b57 4bbd e614 0c3d 8f98 35be 0eea 083e
00000170: ef01 613d 2252 94ba caff f23c 727c 203e
00000180: 92d7 f53d e1fe c0bd 3399 0abe d2ff aa3c
00000190: 1755 21be 03cb 0ebd edb1 f83d c2fc 8d3a
000001a0: 5cc3 283e 47c4 5a3c 6ad5 113e 9d21 d23d
000001b0: 8e46 c1bc 2860 313e 0e62 26be d23b 15be
000001c0: bfec 89bd 5d01 fd3d 2d60 003e 63f5 f23d
000001d0: a2f4 19be b332 483d f9ee 093e 2b46 ef3d
000001e0: c7b3 4a3d 15fb 313e 8436 643b e7e7 e6bd
000001f0: 4108 21bd 4d45 0e3e 3d63 38bd 381e f8bb

lstm.bias_hh_l0_reverse f4 [128]
0.06783724 -0.0019170552 0.061174385 0.110339515 -0.11688677 -0.035947766 0.020886624 0.11481363
0.05053891 -0.005851263 -0.1253159 -0.06937434 -0.08329442 0.1210456 0.07430098 -0.13069382
-0.16253407 -0.022247983 0.06692544 -0.09305988 0.15583317 -0.059144694 -0.15171543 -0.06655815
-0.02631112 -0.15811293 0.09623393 -0.0698785 0.04040151 -0.16290629 0.124378584 0.10106558
0.07111433 -0.05136019 0.059467494 -0.07104302 0.15395887 -0.06419545 -0.12316358 -0.1447747
0.028993279 -0.08270885 -0.058175206 -0.049991563 0.13977541 0.08161034 0.13491239 -0.102371044
0.1625834 0.030165315 0.0101112425 -0.14634463 -0.0716732 0.030430824 0.15891181 -0.01225242
-0.071291395 -0.03889644 -0.096961014 -0.06757895 -0.15547249 0.09763838 0.1596186 -0.11546831
0.04836837 -0.15196441 -0.02978951 0.018192347 0.006368596 0.018986147 -0.05227351 0.0036403718
-0.029940609 -0.005530926 -0.002778458 0.0094480105 -0.17239194 -0.16637124 -0.09452204 0.12108806
0.003572526 0.102009535 0.026514204 0.11675075 0.12597841 0.13043676 0.1541563 0.06349535
0.11331344 0.030794242 0.13180119 -0.12292324 -0.16507468 -0.024591673 -0.16254148 -0.006901485
0.14458887 -0.030063098 -0.12089317 0.04527885 0.04334161 -0.079012044 -0.0037339278 -0.074933454
0.155152 -0.0927434 -0.0127818845 -0.051650744 0.15978292 -0.12790625 0.05441774 0.15793692
-0.05163623 -0.006325298 0.027196687 0.17209646 0.030511094 0.17220303 0.027204618 0.12522984
0.17012775 -0.045537185 0.027580993 0.15682985 0.11973858 0.09878003 0.0046087014 0.17079154
00000000: 40ee 8a3d b345 fbba fe91 7a3d aff9 e13d
00000010: 5562 efbd f73d 13bd 6d1a ab3c 6923 eb3d
00000020: e301 4f3d f4bb bfbb d052 00be 2214 8ebd
00000030: 4496 aabd c1e6 f73d 1d2b 983d 9ad4 05be
00000040: 556f 26be 6741 b6bc 3510 893d 2e96 bebd
00000050: bb92 1f3e b541 72bd 4a5b 1bbe a44f 88bd
00000060: 6b8a d7bc 5be8 21be 4b16 c53d 761c 8fbd
00000070: 0e7c 253d e8d0 26be 33ba fe3d 79fb ce3d
00000080: 64a4 913d 105f 52bd 3094 733d 017f 91bd
00000090: 65a7 1d3e e778 83bd 303d fcbd d23f 14be
000000a0: 5083 ed3c 4263 a9bd 2049 6ebd f4c3 4cbd
000000b0: 4921 0f3e 5223 a73d 7926 0a3e e9a7 d1bd
000000c0: 437c 263e 401d f73c a0a9 253c 5edb 15be
000000d0: 66c9 92bd 104a f93c c7b9 223e 60be 48bc
000000e0: 3901 92bd e051 1fbd 7f93 c6bd d566 8abd
000000f0: 2e34 1fbe a2f6 c73d 0f73 233e a67a ecbd
00000100: e91d 463d 8f9c 1bbe 2109 f4bc 1e08 953c
00000110: a8af d03b d688 9b3c bf1c 56bd 4e93 6e3b
00000120: 0246 f5bc c53c b5bb ca16 36bb d4cb 1a3c
00000130: 8387 30be 395d 2abe c594 c1bd 04fd f73d
00000140: 0a21 6a3b 60ea d03d 5134 d93c 041b ef3d
00000150: 7c00 013e 3791 053e 26db 1d3e da09 823d
00000160: e010 e83d 3544 fc3c e4f6 063e 2ebf fbbd
00000170: 5609 29be 7a74 c9bc 4671 26be da25 e2bb
00000180: 1b0f 143e e346 f6bc d796 f7bd 5176 393d
00000190: f986 313d 11d1 a1bd eab4 74bb b676 99bd
000001a0: 2ae0 1e3e 40f0 bdbd 1c6b 51bc bb8f 53bd
000001b0: 229e 233e dbf9 02be 23e5 5e3d 37ba 213e
000001c0: 8380 53bd 7244 cfbb 96cb de3c 0e3a 303e
000001d0: 67f2 f93c fe55 303e 38dc de3c 403c 003e
000001e0: f835 2e3e 3385 3abd 89f1 e13c 0198 203e
000001f0: 8039 f53d 2f4d ca3d 9704 973b fae3 2e3e

fc.weight f4 [1, 64]
-0.109211266 0.01476288 -0.093712226 0.047067005 -0.07281348 0.099742845 0.038282674 -0.08263636
-0.105992004 -0.0829144 -0.008566437 0.035692286 -0.031394575 0.011740161 0.07075849 0.07270087
0.08949688 0.037219133 -0.063095614 -0.028762417 -0.07467218 -0.023377327 -0.10217959 0.072629675
-0.0043460154 -0.082413375 -0.0594662 -0.07136044 0.036626566 -0.043370556 -0.044385497 0.0014944546
-0.040766787 -0.09604111 0.043692265 0.056764346 -0.06717713 0.061459977 -0.060449343 -0.043042336
0.021552594 0.093551144 0.08245827 -0.06803109 0.10868719 0.055246953 -0.03173246 0.11790529
-0.12053624 -0.03374583 -0.10432723 -0.045613047 -0.007895904 0.0054129935 -0.05118485 0.051428717
-0.10316339 0.016715493 -0.045985755 0.04160628 0.11762503 0.028684763 -0.055548605 -0.10219593
00000000: 28aa dfbd 02e0 713c 32ec bfbd 55c9 403d
00000010: 3c1f 95bd fa45 cc3d 4bce 1c3d 403d a9bd
00000020: 5612 d9bd 06cf a9bd 3e5a 0cbc 1332 123d
00000030: 9997 00bd ce59 403c d4e9 903d 32e4 943d
00000040: 244a b73d 1773 183d 4638 81bd 299f ebbc
00000050: baed 98bd cf81 bfbc 8843 d1bd debe 943d
00000060: 0569 8ebb 58c8 a8bd d592 73bd 6c25 92bd
00000070: bd05 163d 53a5 31bd 91cd 35bd 93e1 c33a
00000080: 13fb 26bd 34b1 c4bd a9f6 323d bb81 683d
00000090: 2a94 89bd 75bd 7b3d bb99 77bd 294d 30bd
000000a0: 118f b03c be97 bf3d e2df a83d e253 8bbd
000000b0: 6497 de3d a14a 623d e5f9 01bd 5478 f13d
000000c0: b4db f6bd 1139 0abd 84a9 d5bd bfd4 3abd
000000d0: d25d 01bc 7b5f b13b 35a7 51bd eba6 523d
000000e0: 5447 d3bd eeee 883c 8f5b 3cbd 596b 2a3d
000000f0: 64e5 f03d 4ffc ea3c ef86 63bd 1a4c d1bd
